models/RELIANCE.NS/RELIANCE.NS_lstm_final.pth (torch, 682441 bytes, 5 tensors)

lstm.weight_ih_l0 f4 [800, 10]
0	0x3de62a89	0.11238582
1	0x3def86c2	0.11695625
2	0x3dd88ad8	0.10573357
3	0x3cdafcb1	0.02673182
4	0x3d9d5a29	0.07683212
5	0x3c1beb16	0.009516498
6	0x3da863e3	0.08222177
7	0x3de27287	0.110570006
8	0x3d0ad7af	0.0338971
9	0x3d7e1ade	0.06203734
10	0x3d8d5cf6	0.069024965
11	0x3d50c19f	0.0509659
12	0xbcd9c511	-0.026583226
13	0x3b6ef229	0.0036460257
14	0x3ba291e0	0.0049612373
15	0x3bc20b53	0.00592176
16	0x3c3e36c0	0.011609733
17	0xbd61118b	-0.05494837
18	0x3d6bed78	0.057599515
19	0x3cd4e0cf	0.025986103
20	0x3dcc9682	0.099896446
21	0xbd118984	-0.035531536
22	0x3db2cdad	0.08730636
23	0x3d5ae0ce	0.053437047
24	0x3c448224	0.011993919
25	0xbc9cfa12	-0.019162212
26	0x3d55bf46	0.052184366
27	0x3c3fa207	0.011696345
28	0xbd311947	-0.043236997
29	0x3c8d361e	0.01723772
30	0x3d46cdb3	0.048536014
31	0x3c4ea95a	0.012613619
32	0x3d1aaf97	0.03776511
33	0x3d9eb52e	0.07749401
34	0x3d94eb83	0.07271483
35	0x3d24a837	0.040199485
36	0x3d38f47e	0.04515504
37	0x3db18cf5	0.086694635
38	0x3d823a5f	0.0635879
39	0x3d2fa8cb	0.042885583
40	0x3e4fcdd4	0.20293361
41	0x3e3a2ba4	0.1818071
42	0x3dfb98de	0.122850165
43	0x3e679e46	0.2261897
44	0x3e0bf020	0.13665819
45	0x3cefe2ea	0.029283006
46	0x3db6c212	0.08923735
47	0x3e4ca1f0	0.19983649
48	0x3d2a26d9	0.041540954
49	0xbd017b0d	-0.03161149
50	0xbbe6ca6b	-0.007043173
51	0xbc5295e8	-0.012853123
52	0x3d030936	0.031991206
53	0x3d61c85e	0.055122726
54	0x3cf6aef3	0.03011272
55	0x3c13fa0f	0.009031787
56	0xbcc0670e	-0.02348664
57	0xba73001e	-0.0009269732
58	0xbd86cb64	-0.065817624
59	0x3d2a4730	0.041571796
60	0xbd2ea858	-0.042641014
61	0xbd5aa42b	-0.05337922
62	0x3d7e6846	0.06211116
63	0xbca22956	-0.019795101
64	0x3cd3ef0c	0.025870822
65	0xbd758b26	-0.059947155
66	0xbcb72e97	-0.022361083
67	0xbd63271d	-0.055457223
68	0xbdaaa226	-0.083317086
69	0xbc7e005f	-0.015503018
70	0xbd96249b	-0.07331201
71	0xbdb7a24e	-0.08966504
72	0x3d4a4669	0.049383555
73	0x3b86ef81	0.0041179066
74	0x3d4c44c3	0.049870264
75	0x3d42dac1	0.0475719
76	0x3d59e92a	0.05320088
77	0xbc011c08	-0.007880218
78	0xbccc476b	-0.024936398
79	0xbdaeb369	-0.085303135
80	0x3dc0fbb9	0.09423012
81	0x3c069474	0.008214105
82	0x3cfc6f7c	0.030814879
83	0xbd0fb65a	-0.035086013
84	0x3d62de77	0.05538794
85	0x3d92c455	0.071663536
86	0x3d3af437	0.045643058
87	0x3c2432d3	0.010021883
88	0xbbff7ba1	-0.00779672
89	0xbd09a78e	-0.03360706
90	0x3c1f82a6	0.009735739
91	0xbd1068ea	-0.035256304
92	0x3cab7551	0.020929964
93	0x3d947b9d	0.0725014
94	0xbc29f75a	-0.010373915
95	0x3d36818c	0.04455714
96	0xbbad635f	-0.005291387
97	0x3be4fd48	0.0069882013
98	0xbc908ce1	-0.017645301
99	0x3d652b7b	0.05594967
100	0x3db83f16	0.08996408
101	0xbd14a6f6	-0.03629204
102	0xbca8c09b	-0.020599654
103	0xbc7efc31	-0.015563057
104	0xbc061a4f	-0.008184983
105	0x3c09b9a5	0.0084060775
106	0x3da14a94	0.07875553
107	0x3d38e721	0.045142297
108	0xbcb59ea0	-0.022170365
109	0xbd01cf9e	-0.03169214
110	0x3defcb03	0.11708643
111	0x3e08949d	0.13337941
112	0x3ca8a50f	0.020586519
113	0x3cca521c	0.024697356
114	0x3dda0619	0.10645694
115	0x3d6b4635	0.05744
116	0x3d95a30a	0.07306488
117	0x3d9630a6	0.07333498
118	0x3cecdfd6	0.028915327
119	0xbd49a8eb	-0.04923336
120	0x3adc3867	0.0016801477
121	0x3b50cbd9	0.0031859784
122	0xbcbf0166	-0.023316097
123	0x3d24ba7b	0.040216904
124	0xbd3cc6d5	-0.04608806
125	0x3d433bd6	0.047664486
126	0xbce12564	-0.02748365
127	0x3cf91789	0.03040673
128	0x3c7dc855	0.015489657
129	0x3c8afb51	0.01696554
130	0x3cef4ea3	0.029212302
131	0x3d879ffb	0.06622311
132	0x3d83a4a5	0.06427888
133	0xbc258aaf	-0.0101038655
134	0xbd70a2f2	-0.058749147
135	0x3d232616	0.039831243
136	0xbd0831e7	-0.033250716
137	0xbd8a7e10	-0.06762326
138	0x3d074b82	0.033030994
139	0x3d0d512a	0.034501232
140	0x3d26bcd7	0.040707435
141	0x3d1886a1	0.037237767
142	0x3ca7a757	0.020465536
143	0xbd02052d	-0.031743217
144	0xbca1b453	-0.019739306
145	0x3dc10eca	0.09426649
146	0x3d85fa42	0.065418735
147	0xbc95daa3	-0.01829273
148	0xbc576621	-0.013146908
149	0x3d8a065f	0.067394964
150	0x3b334eef	0.002736028
151	0xbd833aae	-0.06407677
152	0xbd201a8c	-0.039087817
153	0x3bc23775	0.005927021
154	0xbd40c78f	-0.047065314
155	0xbd5aa1ed	-0.05337708
156	0x3c514486	0.012772685
157	0x3da36ed2	0.07980122
158	0x3cf97fb6	0.030456405
159	0xbc2c7bab	-0.010527532
160	0x3c1283b3	0.008942532
161	0xbd428ebd	-0.047499407
162	0x3d73246b	0.059360903
163	0x3cd0878c	0.025455259
164	0xbb950f9d	-0.0045489804
165	0x3d48495f	0.048898097
166	0x3c94a57a	0.018145312
167	0x3cb4e2af	0.022080747
168	0xbc9170e3	-0.017754024
169	0x3d71411a	0.058899976
170	0x3d9ca155	0.07647959
171	0x3d890a55	0.06691424
172	0xbd03d3d2	-0.03218443
173	0xbc2d1c40	-0.010565817
174	0x3d914352	0.070929185
175	0xbc5b9b0b	-0.013403664
176	0x3d516d84	0.051129833
177	0xbd14e983	-0.036355507
178	0xbcc10b4b	-0.023564955
179	0xbb5a64ad	-0.0033324168
180	0x3d493b8d	0.049129058
181	0x3dff733d	0.12473152
182	0x3c010f74	0.0078772195
183	0x3da5dc9e	0.0809872
184	0x3dd650f4	0.10464659
185	0x3d9b241f	0.07575249
186	0x3bacec7e	0.0052772155
187	0x3d675f9e	0.056487672
188	0xbbcf7304	-0.0063308496
189	0x3d3b22f4	0.04568763
190	0x3d30f422	0.043201573
191	0x3c9493ef	0.018136946
192	0x3d4ef86f	0.050529893
193	0xbc673935	-0.01411276
194	0xbcdbf67e	-0.026850935
195	0x3d4b52e5	0.0496396
196	0xbcbbcf14	-0.022925891
197	0x3d94f80a	0.07273872
198	0xbd42a33a	-0.047518946
199	0x3d033c34	0.032039836
200	0xbc840c45	-0.016119132
201	0x3d8d6552	0.06904091
202	0x3cb28f2a	0.021796782
203	0xbd8d0829	-0.06886322
204	0x3d88e31d	0.066839434
205	0x3d790725	0.06079783
206	0x3d29642e	0.041355304
207	0x3d186db8	0.03721401
208	0xbd79220a	-0.060823478
209	0x3d40e562	0.047093756
210	0xbbc2babd	-0.005942671
211	0x3d2f767b	0.0428376
212	0xbd5c4a93	-0.053782057
213	0x3c2af249	0.010433742
214	0xbddd8b22	-0.10817553
215	0xbbe7cba9	-0.0070738387
216	0xbd22f258	-0.0397819
217	0xbd584bb5	-0.052806575
218	0x3cfe7003	0.03105927
219	0xbdbb3eea	-0.09142859
220	0xbd5ec412	-0.054386206
221	0x3d9fd908	0.07805067
222	0xbd20dfad	-0.039275814
223	0x3c01a630	0.007913157
224	0xbcf4e3aa	-0.029893715
225	0x3d2b843f	0.041874167
226	0xbd406886	-0.04697468
227	0xbc16513f	-0.009174644
228	0xbcd4ca91	-0.025975497
229	0xbda7330a	-0.08164032
230	0x3e257431	0.16157605
231	0x3eb10ec3	0.34581575
232	0x3d8617e6	0.06547527
233	0x3e568b45	0.20951565
234	0x3d8d6cd9	0.06905527
235	0x3e28b258	0.16474283
236	0x3de1d536	0.11026995
237	0x3e06765a	0.13131085
238	0x3d8cc63d	0.068737485
239	0x3dae9e89	0.08526332
240	0x3bed533e	0.0072425893
241	0x3d50e9db	0.051004272
242	0x3d07a35e	0.033114783
243	0x3dcaa99a	0.0989563
244	0x3d1b18d5	0.03786548
245	0x3d2590cc	0.040421292
246	0x3ad1865f	0.001598548
247	0x3d87f8b8	0.06639236
248	0x3d6ae035	0.057342727
249	0x3cdf9a52	0.027295265
250	0xbb5d3c38	-0.0033757817
251	0xbd5099dc	-0.05092798
252	0x3d440218	0.04785356
253	0xbd130b94	-0.035899714
254	0x3caf663b	0.021411052
255	0x3d9f2bce	0.07772027

lstm.weight_hh_l0 f4 [800, 200]
0	0xbcb6d832	-0.022319887
1	0x3da3ce8e	0.079983816
2	0xbc7b3582	-0.0153325815
3	0xbd669cb7	-0.0563018
4	0xbd9ac194	-0.07556453
5	0x3d49c90f	0.04926401
6	0x3d6c9dde	0.05776774
7	0x3bc39bee	0.005969516
8	0x3ba21e1a	0.004947436
9	0xbb99a7ae	-0.0046891784
10	0xb9a753c1	-0.00031915124
11	0xbc384f3c	-0.01124936
12	0xbd50529d	-0.050860036
13	0xbd4afc22	-0.04955686
14	0xbd83daad	-0.064381935
15	0xbd49d501	-0.049275402
16	0x3d65c217	0.0560933
17	0xbdb7de91	-0.08977998
18	0xbd17446f	-0.036930498
19	0x3d301a15	0.042993624
20	0xbd357744	-0.044303194
21	0xbd70e7c4	-0.05881478
22	0xbcc9714c	-0.024590157
23	0x3c942d66	0.018088054
24	0x3db3e8b4	0.08784619
25	0xbc7bb31a	-0.015362525
26	0x3cced863	0.025249666
27	0x3d78928f	0.060686644
28	0xbb249245	-0.0025111597
29	0x3bc6afba	0.0060634287
30	0x3d52f9f1	0.051507894
31	0xbd323f4f	-0.043517407
32	0x3cdb8605	0.026797304
33	0xbd3a4952	-0.04548008
34	0xbd18e450	-0.03732711
35	0x3d5986e8	0.053107172
36	0xbd26dbea	-0.04073707
37	0x3d5c8379	0.05383632
38	0x3d6953ee	0.056964807
39	0xbd9e0d57	-0.07717388
40	0xbd9e9c0a	-0.07744606
41	0x3c9be2e9	0.019029098
42	0x3c9a3189	0.018822448
43	0xbd106b40	-0.03525853
44	0xbc5b8158	-0.013397537
45	0x3cd11486	0.025522482
46	0xbc76dac9	-0.015066811
47	0xbb26082c	-0.002533446
48	0x3d66f456	0.05638536
49	0x3d48d0d1	0.049027268
50	0x3d3fdc60	0.046841025
51	0xbd0b0766	-0.033942603
52	0x3d825c45	0.06365255
53	0x3ce7b0d8	0.028282568
54	0xbc9387ce	-0.018009093
55	0x3bbf7193	0.0058423965
56	0x3d893561	0.06699634
57	0x3cbc50fd	0.022987837
58	0x3ce51609	0.027964609
59	0x3cb15d52	0.021650944
60	0xbd354db9	-0.044263575
61	0x3d50f49f	0.05101454
62	0xbd5f2fc5	-0.054488916
63	0x3d484d10	0.048901618
64	0xbd91c9d5	-0.071185745
65	0x3d5f435c	0.0545076
66	0x3d782dbe	0.0605905
67	0xbba5da1b	-0.0050614006
68	0x3da132ae	0.078709945
69	0x3b7c0b2c	0.0038458807
70	0xbce1905d	-0.027534658
71	0x3bb573f0	0.0055375025
72	0x3d474443	0.048649084
73	0x3c945bbe	0.018110152
74	0xbd1bb42c	-0.038013622
75	0x3da008de	0.07814191
76	0xbd768bd6	-0.06019195
77	0x3cc84fcc	0.024452113
78	0x3d9ecbce	0.077537164
79	0xbd66fe3a	-0.056394793
80	0xbcc69def	-0.02424523
81	0xbd16a243	-0.03677584
82	0xbda4d95a	-0.08049269
83	0xbd1f73e9	-0.0389289
84	0xbb9c3fe8	-0.0047683604
85	0xbd225a78	-0.03963706
86	0x3d121885	0.035667915
87	0xbd703ba3	-0.058650624
88	0x3d763181	0.060105804
89	0x3ba472ef	0.005018584
90	0xbd0886a9	-0.033331547
91	0xbd4ebc80	-0.050472736
92	0xbba53216	-0.005041371
93	0xbd1f3276	-0.038866483
94	0xbc788a26	-0.015169656
95	0xbd7be3f8	-0.061496705
96	0x3d37e9df	0.04490077
97	0x3d40dc0b	0.04708485
98	0xbc1a029e	-0.009400038
99	0xbc617468	-0.013760664
100	0xbd19af53	-0.037520718
101	0x3d0d224b	0.034456532
102	0x3d4123ea	0.04715339
103	0x3c392c4d	0.011302066
104	0x3d4e75e6	0.050405405
105	0xbd50b568	-0.050954252
106	0x3c06f89f	0.008237987
107	0xbc771203	-0.015079978
108	0x3d0fae2f	0.035078224
109	0xbd87b001	-0.06625367
110	0xb98e2964	-0.0002711519
111	0x3d677b45	0.056514043
112	0x3be526e0	0.0069931597
113	0x3d93a604	0.07209399
114	0xbd6ba340	-0.057528734
115	0x3d20412b	0.03912465
116	0x3ccb1a5d	0.024792844
117	0xbd54045a	-0.051761962
118	0x3d4b1747	0.049582746
119	0xbb850ccd	-0.004060364
120	0xbcd9c75b	-0.026584318
121	0x3d7386a9	0.059454594
122	0x399f6df7	0.00030408773
123	0x3da35fe1	0.07977272
124	0x3d280199	0.04101715
125	0x3c83be3c	0.016081922
126	0xbd556a83	-0.05210353
127	0x3cdadc47	0.026716365
128	0x3d12d30e	0.03584581
129	0x3da86fb5	0.082244314
130	0xbd480f07	-0.048842456
131	0xbcca95b3	-0.024729585
132	0xbd2b4f9a	-0.04182396
133	0x3d951416	0.07279222
134	0x3d1b5d5d	0.037930835
135	0x3be8cc56	0.007104437
136	0x3d34e133	0.04416008
137	0xbd5f329d	-0.054491628
138	0xbc4825e0	-0.012216061
139	0xbd5450cf	-0.051834878
140	0x3d877464	0.066139966
141	0x3c47897b	0.012178774
142	0x3bd39739	0.006457236
143	0xbc2678bd	-0.010160622
144	0x3d320ff4	0.043472245
145	0x3c8e3602	0.017359737
146	0x3d38bd40	0.045102358
147	0x3c1aabe3	0.009440395
148	0x3cc4c9bc	0.024021976
149	0xbaf9b94c	-0.0019052415
150	0xbb163552	-0.0022919965
151	0x3cda9000	0.026679993
152	0xbd7fb748	-0.06243065
153	0xbd847fcd	-0.064696886
154	0xb94ac076	-0.00019335918
155	0xbc7f5b9a	-0.015585804
156	0x3ceb2671	0.028704854
157	0x39c60070	0.0003776583
158	0xbd4541d9	-0.0481585
159	0x3db5208a	0.08844097
160	0xbd6fdcc0	-0.058560133
161	0x3d68224e	0.05667334
162	0xbd40b913	-0.0470515
163	0x3d784c62	0.06061972
164	0x3d9addcf	0.07561838
165	0x3c1305ff	0.008973598
166	0xbcddb03a	-0.02706157
167	0x3cc8396b	0.024441442
168	0xbabb50e1	-0.0014291072
169	0xbc82a473	-0.015947556
170	0xbd36c69f	-0.044623014
171	0x3ca3bbdf	0.019987045
172	0xbd68fbf8	-0.05688092
173	0xbdb2d230	-0.08731496
174	0xbd106734	-0.035254672
175	0xbaa3f0c5	-0.0012507668
176	0x3d05e9fe	0.032693855
177	0xbd3b8eb1	-0.045790378
178	0xbd49899f	-0.04920351
179	0x3da996b5	0.08280698
180	0xbd96a531	-0.073557265
181	0x3cf0df82	0.029403452
182	0x3c787a5a	0.01516589
183	0x3bda1096	0.006654809
184	0x3da714a5	0.081582345
185	0x3d89b954	0.06724802
186	0xbcb43af7	-0.022000773
187	0xbd8e2b20	-0.06941819
188	0x3d721ad8	0.05910763
189	0xbd679b13	-0.056544375
190	0x3c9f554f	0.019449858
191	0xbd966618	-0.073436916
192	0x3d331b53	0.04372723
193	0x3ab63843	0.0013902265
194	0x3d71d33a	0.059039332
195	0xbcc9b474	-0.02462218
196	0xbd348f19	-0.04408178
197	0x3d53cdc7	0.051709916
198	0x3d8924c2	0.06696464
199	0xbc416637	-0.011804155
200	0x3b573d61	0.003284298
201	0x3bcd1ff4	0.0062599126
202	0xbd2f65ed	-0.042821813
203	0xbd9433d1	-0.07236446
204	0xbd47865f	-0.04871213
205	0x3d379345	0.04481818
206	0xbd698cf3	-0.057019185
207	0x3ca27334	0.019830324
208	0xbd74e837	-0.05979177
209	0xba8f8692	-0.0010950139
210	0xbac2d05f	-0.0014863125
211	0xbd522a0a	-0.051309623
212	0xb88f6cfd	-6.839072e-05
213	0xbcedc5ef	-0.029025046
214	0xbd1a4209	-0.037660632
215	0xbca80515	-0.020510236
216	0x3b08aed0	0.002085615
217	0x3c60c463	0.013718697
218	0xbcdeabd7	-0.027181549
219	0x3d8bbda0	0.068232775
220	0x3d414a43	0.047189962
221	0x3c6c67d8	0.014429055
222	0x3c4eaf36	0.012615016
223	0x39614ac6	0.00021485527
224	0xbcf5474c	-0.029941224
225	0xbd4692c6	-0.048479818
226	0xbd30ba0e	-0.043146186
227	0xbce94eb9	-0.02847992
228	0x3d8b8b50	0.06813681
229	0xbc37e3fa	-0.011223787
230	0x3c1e696c	0.009668689
231	0xbd35cf0f	-0.04438692
232	0xbd51d377	-0.05122706
233	0xbc962ec4	-0.018332846
234	0x3b4a9a97	0.0030914897
235	0xbd109fc5	-0.035308618
236	0x3d2c9e0e	0.04214292
237	0x3d0aa3c9	0.033847604
238	0x3d3cb8fd	0.046074856
239	0xbc16c528	-0.009202279
240	0xbb2ce91c	-0.0026384061
241	0x3d55ed65	0.05222835
242	0x3c840807	0.016117109
243	0x3d7805e3	0.06055249
244	0xbd13ea62	-0.036112197
245	0x3ce74eda	0.028235842
246	0x3d0686d9	0.032843444
247	0x3bbc5ac5	0.0057481253
248	0xbad8c794	-0.0016538971
249	0xbccdcb88	-0.025121465
250	0xbc22b523	-0.009930882
251	0xbd545400	-0.05183792
252	0xbc8e3f60	-0.017364204
253	0x3d9af85c	0.07566902
254	0x3b5420e8	0.0032368246
255	0xbcccc695	-0.024997035

lstm.bias_ih_l0 f4 [800]
0	0xbc101a54	-0.00879534
1	0x3d6184ee	0.055058412
2	0x3d1a4fe9	0.037673865
3	0xbb1cde04	-0.0023936043
4	0x3d8ee674	0.06977549
5	0xbc10f79a	-0.008848095
6	0x3d29f482	0.041492946
7	0x3c2c0274	0.010498632
8	0xbd716d69	-0.058942232
9	0xbc6e183f	-0.014532148
10	0x3c91e08e	0.017807271
11	0xbafc954f	-0.0019270572
12	0xbd5ff3a5	-0.054675717
13	0xbda3aad7	-0.079915695
14	0xbd3e2e07	-0.046430614
15	0x3d78259f	0.060582753
16	0x3daa0d26	0.08303289
17	0x3c794243	0.015213552
18	0x3dc7aeeb	0.0975016
19	0x3d5b2275	0.053499658
20	0x3c8c6964	0.017140098
21	0xbd9ee2c6	-0.07758097
22	0xbda9b512	-0.082864895
23	0x3d8a75fc	0.06760785
24	0x3ca585b6	0.02020536
25	0x3d34d87c	0.044151768
26	0xbd4b780f	-0.049675044
27	0x3d26bec5	0.040709276
28	0xbcbde203	-0.02317906
29	0xbc923c93	-0.01785115
30	0xbd1078c3	-0.035271417
31	0xbdad4242	-0.08459903
32	0xbd11c569	-0.035588656
33	0x3da61b80	0.08110714
34	0xbb237ff0	-0.0024948083
35	0x3c6aeb73	0.014338362
36	0x3d0548be	0.032540075
37	0x3cef42ad	0.029206598
38	0xbae9c5b6	-0.0017835412
39	0x3d40e2ce	0.047091298
40	0xbb52fd66	-0.0032194494
41	0xbcd0b216	-0.025475543
42	0xbd3e4c73	-0.046459626
43	0xbce8738c	-0.02837541
44	0xbd0fb8a6	-0.035088204
45	0xbc3707cd	-0.011171293
46	0xbcb943d6	-0.022615355
47	0xbd76e60b	-0.06027798
48	0xbd828d40	-0.063745975
49	0xbcc08586	-0.023501169
50	0x3d0a27c9	0.03372935
51	0xbcd8d906	-0.026470672
52	0x3d222167	0.039582636
53	0xbca20831	-0.019779297
54	0xbce2890a	-0.027653236
55	0xbd1d77b6	-0.038444243
56	0x3d416644	0.04721667
57	0x3c67436d	0.014115197
58	0xbc5ab4d8	-0.013348781
59	0x3d0cd6a4	0.034384385
60	0xbd775315	-0.060381968
61	0xbb9f5035	-0.0048618563
62	0x3c8eaa55	0.017415205
63	0xbd0bec5b	-0.034160953
64	0xbd84d09c	-0.064851016
65	0xbcc69def	-0.02424523
66	0xbd83337b	-0.064063035
67	0xbd524644	-0.05133654
68	0xbcfc04f2	-0.030764077
69	0x3d1fe07b	0.03903244
70	0x3d5dbaf3	0.054133367
71	0x3d907ea1	0.070554025
72	0x3d8507e6	0.06495647
73	0xbcd34e6b	-0.025794229
74	0xbcef2871	-0.029194089
75	0xbc35dc1f	-0.011099844
76	0xbd16f78e	-0.03685718
77	0x3cb60443	0.022218829
78	0x3ceaf016	0.028678935
79	0xbd90b63d	-0.07066009
80	0x3da36154	0.07977548
81	0xbd0aa183	-0.033845436
82	0xbd85b033	-0.06527748
83	0x3d1492ef	0.03627294
84	0xbce6367d	-0.028102154
85	0x3ca5647b	0.020189514
86	0xbc70238b	-0.014656912
87	0x3cc5f833	0.024166202
88	0x3d89e1a9	0.067324944
89	0xbbfeb3e8	-0.0077729113
90	0xbd4d76dc	-0.05016218
91	0xbcb7cead	-0.022437418
92	0xbd9f9ef7	-0.07793992
93	0x3c94f669	0.018183904
94	0x3d81b5c3	0.063334964
95	0xbd8c4757	-0.068495445
96	0x3d6100df	0.05493247
97	0xbd218641	-0.039434675
98	0x3d71bc34	0.059017375
99	0xbd45ce21	-0.048292283
100	0xbcf56756	-0.029956501
101	0x3d78bbd9	0.06072602
102	0x3d1d1a89	0.038355384
103	0x3d2238d3	0.039604973
104	0x3b0e9c44	0.0021760622
105	0x3d36b05d	0.044601787
106	0xbd93c5f5	-0.07215492
107	0xbcee4757	-0.029086752
108	0x3c9f3b11	0.019437345
109	0xbda0de6b	-0.07854923
110	0xbc47be72	-0.012191402
111	0xbc38625a	-0.011253918
112	0x3d9d7803	0.07688906
113	0x3d02af53	0.031905483
114	0xbd94a19e	-0.072573885
115	0x3d769272	0.060198255
116	0x3d64adb7	0.05582973
117	0x3d579e5f	0.05264127
118	0x3d7b04fd	0.061284054
119	0xba7ce279	-0.0009646784
120	0x3d9e64ff	0.07734107
121	0x3d4b17cc	0.04958324
122	0xbb581fd6	-0.003297796
123	0x3cd634a8	0.026148155
124	0x3c1cc01d	0.009567288
125	0xbd075d1c	-0.03304778
126	0xbd4b4f5a	-0.049636222
127	0x3d0ad68f	0.033896025
128	0x3cefdde1	0.029280605
129	0x3d19b91f	0.03753006
130	0x3d21ea06	0.039529823
131	0xbcfaeda2	-0.03063089
132	0x3bb6d004	0.0055789966
133	0x3d25f398	0.040515512
134	0xbd1fac79	-0.038982842
135	0xbd5bd38b	-0.05366854
136	0xbc553147	-0.013012237
137	0x3bac3f20	0.0052565485
138	0xbd41a3a2	-0.047275193
139	0x3dcdce84	0.10049155
140	0xbd874da5	-0.066066064
141	0x3c9f231c	0.019425921
142	0xbc86352f	-0.016382782
143	0x3d874568	0.06605035
144	0xbaf1ca69	-0.0018447164
145	0x3d2b81e7	0.04187193
146	0x3d3a65ba	0.04550717
147	0x3bf96ead	0.0076120705
148	0x3cb5c530	0.022188753
149	0xbbc3a32f	-0.0059703807
150	0x3d050f4a	0.032485284
151	0xbc8e394a	-0.017361302
152	0xbc5600d4	-0.013061721
153	0xbc516d8b	-0.012782465
154	0x3ce1febc	0.027587287
155	0xbd70cb6e	-0.058787756
156	0x3c4d7097	0.012539051
157	0x3eb58695	0.3545424
158	0x3d9862ee	0.07440744
159	0x3d6b3395	0.05742224
160	0x3d1e386c	0.038628027
161	0xbbb4271a	-0.0054978253
162	0x3cf3519b	0.029701998
163	0x3d2553dd	0.04036318
164	0x3cd68375	0.02618573
165	0xbcadaffc	-0.02120208
166	0x3e1fc9c2	0.15604308
167	0x3d953cc8	0.07286984
168	0xbd0fed23	-0.03513826
169	0x3d6e3dde	0.05816447
170	0xbd151ba5	-0.036403317
171	0x3cccf007	0.025016798
172	0x3d162d57	0.036664333
173	0xbcd42c2f	-0.025899975
174	0xbd1a11c9	-0.037614617
175	0x3ebd97a7	0.37029764
176	0x3d0c5fb5	0.03427096
177	0x3ce69c84	0.028150804
178	0xbcf15fe9	-0.029464679
179	0xbd43aec9	-0.04777411
180	0x3d8316a8	0.06400806
181	0xbd34b04a	-0.044113435
182	0xbcec5495	-0.028848926
183	0x3d365e8e	0.044523768
184	0xbcec96c8	-0.028880492
185	0xbcd3b2d8	-0.025842115
186	0x3c86875e	0.01642197
187	0x3b806731	0.0039185514
188	0xbc47b471	-0.012189017
189	0x3d485ca7	0.048916485
190	0x3cb44d2c	0.022009455
191	0xbcbda0bd	-0.023147935
192	0x3b02b1f7	0.00199425
193	0x3da4a0da	0.080384925
194	0xbc8b7973	-0.017025685
195	0xbcfbc7eb	-0.030734977
196	0x3c537ff2	0.0129089225
197	0x3d6a6440	0.057224512
198	0xbb32fc03	-0.0027310855
199	0x3d2b5f51	0.041838948
200	0x3d221052	0.039566346
201	0x3cdc96cf	0.02692738
202	0xbcc15e87	-0.023604644
203	0x3d3697b6	0.044578277
204	0xbd9fda2b	-0.07805284
205	0xbac5431e	-0.001504991
206	0xbd3a0798	-0.0454174
207	0xbce2616c	-0.027634345
208	0x3d62c4a8	0.055363327
209	0xbcff908d	-0.031196857
210	0xbd4d7e75	-0.050169427
211	0xbcf3b9f6	-0.029751759
212	0xb9d93bfa	-0.0004143415
213	0xbd39d1ad	-0.045365978
214	0xbbdced9a	-0.0067421915
215	0xbd63430b	-0.05548386
216	0xbb645d80	-0.003484577
217	0xbd77b55a	-0.060475685
218	0xbcce0b06	-0.02515174
219	0xbbbdfc49	-0.005797897
220	0xbdb1303a	-0.086517766
221	0xbd1c97a2	-0.038230546
222	0xbcc4413a	-0.023956884
223	0xbd9da089	-0.07696635
224	0xbce19ed0	-0.027541548
225	0xbca6e58c	-0.020373128
226	0xbd8d2cb5	-0.06893293
227	0xbd917c2d	-0.07103763
228	0x3c0af880	0.008482099
229	0xbd104f39	-0.035231803
230	0x3af828af	0.0018933023
231	0xbd17984d	-0.03701048
232	0x3d7f02c8	0.06225851
233	0xbcb81ee1	-0.022475662
234	0xbcd938da	-0.026516367
235	0xbd9a1e17	-0.075252704
236	0xbd2f64d1	-0.042820755
237	0xbd5b8886	-0.053596996
238	0xbb00cb9b	-0.0019652608
239	0xbcb8591e	-0.022503432
240	0xbd596476	-0.053074323
241	0xbd64668b	-0.055761855
242	0xbd8206d5	-0.06348959
243	0xba673560	-0.0008819904
244	0x3c9f3b4f	0.01943746
245	0x3b8d21d4	0.004307011
246	0x3d595a67	0.05306473
247	0x3d6fecac	0.058575317
248	0xbd947239	-0.07248349
249	0xbd44e6ef	-0.048071798
250	0xbcd2d048	-0.025734082
251	0x3c374b25	0.011187349
252	0xbd3e3b7f	-0.04644346
253	0xbc05665d	-0.008142081
254	0x3d24835d	0.04016434
255	0x3c908713	0.017642533

lstm.bias_hh_l0 f4 [800]
0	0x3d4f6de9	0.050641928
1	0x3d945781	0.072432525
2	0x3d445651	0.04793388
3	0x3ccbbce4	0.024870344
4	0x3d62ff10	0.055419028
5	0xbcf266c9	-0.029590027
6	0x3d49f2ac	0.049303696
7	0xbb0ed527	-0.002179453
8	0xbcefc3d8	-0.02926819
9	0x3c1a500d	0.0094185
10	0x3a7e681b	0.0009704844
11	0x3db5278b	0.08845433
12	0xbd8d8f98	-0.06912154
13	0xbd2610f7	-0.040543523
14	0x3d136ad9	0.03599057
15	0x3c05ddf3	0.008170593
16	0x3b9f58b4	0.004862869
17	0x3d04fbb3	0.0324666
18	0x3db983c1	0.09058333
19	0x3c1a630b	0.009423028
20	0xbcc38150	-0.023865372
21	0x3cf9fb24	0.030515261
22	0xbd780cd1	-0.060559098
23	0x3d63ab62	0.055583365
24	0xbba8f979	-0.0051566926
25	0x3c4647df	0.012102096
26	0x3cb6b8df	0.02230495
27	0x3d1cc15d	0.038270343
28	0x3d1b6034	0.037933543
29	0xbc26106a	-0.010135749
30	0x3d13b8f1	0.036065046
31	0xbd84fd82	-0.06493665
32	0x3d8a9d90	0.06768334
33	0x3d86b331	0.06577147
34	0xbda803c8	-0.08203846
35	0xbcc57110	-0.024101764
36	0x3bdd4a8b	0.006753271
37	0xbd877e0a	-0.06615837
38	0xbc35810b	-0.0110781295
39	0xbd3fd6fc	-0.046835884
40	0x3c7284ed	0.0148022
41	0x3cc81cde	0.024427827
42	0x3d98ae00	0.07455063
43	0x3c933a82	0.017972235
44	0xbca0015b	-0.019531896
45	0xbd36b2bb	-0.044604044
46	0xbcc09508	-0.023508564
47	0xbc94ade6	-0.018149327
48	0x3d872c79	0.06600279
49	0xbd151196	-0.036393724
50	0xbd8d7320	-0.06906724
51	0x3c8e9e86	0.017409574
52	0xbd9bc6a5	-0.07606248
53	0x3d5ed113	0.054398607
54	0xbd83cde4	-0.06435755
55	0xbc96104e	-0.018318322
56	0xbd8fb734	-0.07017365
57	0x3c967e92	0.0183709
58	0xbd3f5c6a	-0.046718992
59	0xbcd572bf	-0.026055692
60	0x3bc30535	0.0059515485
61	0xbd708172	-0.0587172
62	0x3c5010c3	0.012699309
63	0xbd60946c	-0.054829046
64	0x3c4442d0	0.01197882
65	0x3d86bde2	0.06579186
66	0x3d913e61	0.07091976
67	0xbd56d716	-0.052451216
68	0xbc51a2ca	-0.01279516
69	0xbc343868	-0.010999776
70	0x3d270601	0.04077721
71	0x3d60f3aa	0.054919876
72	0x3bbad1d9	0.0057012853
73	0x3c4f55ca	0.012654731
74	0x3d258801	0.040412907
75	0x3d8e5595	0.06949917
76	0x3caf9f8e	0.021438386
77	0x3cbcc33d	0.023042316
78	0xbd136dd9	-0.03599343
79	0x3d28dcde	0.04122626
80	0x3c552669	0.013009646
81	0x3d516fc8	0.051131994
82	0x3d32bb81	0.04363585
83	0x3d7f0227	0.062257912
84	0x3bb24f5d	0.0054415897
85	0xbdb8be34	-0.09020653
86	0xbd2053b6	-0.039142333
87	0xbd65240f	-0.05594259
88	0x3d9772c7	0.07394939
89	0x3d66bc6f	0.056332048
90	0xbc94121e	-0.018075045
91	0xbd65275c	-0.05594574
92	0xbc1e8906	-0.009676224
93	0xbd5290a3	-0.051407468
94	0x3d34db36	0.04415437
95	0xbd04d87d	-0.03243302
96	0x3c68b6cc	0.014203738
97	0xbb5d35e7	-0.0033754052
98	0x3c17d14f	0.009266212
99	0x3cc0ba0f	0.02352622
100	0x3d062caf	0.032757457
101	0x3d889aa4	0.0667012
102	0xbc33c64b	-0.01097257
103	0x3d3368d5	0.043801147
104	0x3d601651	0.054708783
105	0xbcb8e240	-0.022568822
106	0xbd978063	-0.07397535
107	0x3c6f3184	0.014599208
108	0xbcc43945	-0.02395309
109	0xbd823456	-0.063576385
110	0xbdbb39f8	-0.09141916
111	0xbc91a8fc	-0.017780773
112	0xbd631392	-0.055438586
113	0x3b31dcc1	0.0027139636
114	0xbbeea868	-0.007283259
115	0xbd966481	-0.07343388
116	0x3da21996	0.079150364
117	0xb932b042	-0.00017041064
118	0x3d0c6d5d	0.034283984
119	0xbd06e33d	-0.032931555
120	0x3d691c19	0.05691156
121	0x3d355f8a	0.044280566
122	0x3d1ea911	0.038735453
123	0xbd44c627	-0.048040535
124	0x3b3c3755	0.0028719504
125	0xbc2c2d59	-0.010508859
126	0x3cff880a	0.031192798
127	0xbcc17b93	-0.023618495
128	0x3c4a418a	0.012344727
129	0xbd90bac3	-0.07066872
130	0xbd571c08	-0.052516967
131	0x3d982108	0.07428175
132	0xbcfeb0c5	-0.03109015
133	0xbd1f23e4	-0.038852587
134	0xbd77c214	-0.06048782
135	0x3d8385c1	0.06421996
136	0x3d1ef7ab	0.038810413
137	0xbcb0c75b	-0.021579435
138	0xbd22a11c	-0.039704427
139	0x3dfc7b32	0.12328185
140	0x3d61a1f7	0.055086102
141	0xbd0761a4	-0.0330521
142	0xbd3bbbf3	-0.04583354
143	0xbd875202	-0.066074386
144	0xbd359a6b	-0.044336718
145	0x3d76fccb	0.060299676
146	0xbd40c3b4	-0.047061637
147	0x3c9173bb	0.01775538
148	0x3d3dd004	0.046340957
149	0x3d29e885	0.041481514
150	0xbda26072	-0.07928552
151	0xbc75fe3e	-0.015014229
152	0x3d783167	0.06059399
153	0xbcd921bf	-0.02650535
154	0x3c8b1a7c	0.016980402
155	0xbcfe0ddf	-0.031012474
156	0xbd5bdfbb	-0.053680163
157	0x3ecc5087	0.39905187
158	0xbced3846	-0.028957497
159	0x3ce1ff05	0.027587423
160	0x3d7d7de8	0.06188765
161	0x3c93f543	0.018061286
162	0xbd1b346f	-0.0378918
163	0xbcd2f656	-0.025752228
164	0x3d4d144e	0.050068192
165	0x3cdac7b4	0.026706554
166	0x3e0eacf9	0.13933171
167	0x3d457ee1	0.048216704
168	0x3d293187	0.041307
169	0xbbf930ed	-0.0076047094
170	0x3d25bbcd	0.040462304
171	0x3c1df879	0.00964176
172	0x3cd7ebc7	0.026357545
173	0x3d618d33	0.0550663
174	0xbb8bb548	-0.004263554
175	0x3ea8ba11	0.32954457
176	0xbcda55ac	-0.02665218
177	0xbc862b18	-0.01637797
178	0xbd384c9a	-0.044994928
179	0xbd4a684b	-0.049415868
180	0xbcd7c1cb	-0.026337525
181	0xbb5ecc79	-0.0033996387
182	0x3bb48497	0.00550897
183	0xbd318544	-0.043339983
184	0x3cf5b216	0.029992145
185	0xbc8119f8	-0.015759453
186	0xbd56cb4b	-0.05243997
187	0x3d2f6716	0.04282292
188	0xbbdb7c95	-0.006698201
189	0x3ce97c77	0.028501732
190	0x3ddac9b9	0.10683007
191	0x3ceb7ad7	0.028745098
192	0xbd5e0599	-0.054204557
193	0xbd64039c	-0.055667505
194	0xbd0588e3	-0.03260125
195	0xbc8c41f9	-0.017121302
196	0x3d3b3b3f	0.0457108
197	0xbc4ecd4e	-0.012622191
198	0x3c38d7ef	0.011281951
199	0xbd321f8d	-0.04348712
200	0xbbdd6ead	-0.0067575783
201	0x3c85eca3	0.016348189
202	0xbd32f270	-0.043688238
203	0xbc29e3bd	-0.010369238
204	0x3c37f0c4	0.011226837
205	0x3c5fadbc	0.013652261
206	0x3b8cbfb4	0.0042953137
207	0xbd9ab09a	-0.07553215
208	0xbd958e53	-0.07302537
209	0x39b7db39	0.00035067814
210	0xbcd670c8	-0.026176825
211	0xbd9debec	-0.07711014
212	0x3d67901e	0.056533925
213	0x3d23d1b9	0.03999493
214	0xbd67b001	-0.056564335
215	0xbc6a8b1f	-0.014315396
216	0x3aa66126	0.0012693747
217	0x3cf3df04	0.029769428
218	0x3d80f05d	0.06295846
219	0x3d0c3ca6	0.034237526
220	0xbd80d81f	-0.06291222
221	0xbd90ad1d	-0.07064269
222	0xbd24ad04	-0.040204063
223	0xbd65b4b1	-0.056080524
224	0x3d58f8b8	0.05297157
225	0x3d17ae54	0.037031487
226	0xbd9994c7	-0.0749908
227	0x3c40ff91	0.011779682
228	0xbc13c010	-0.009017959
229	0x3c88584e	0.01664367
230	0xbdaea37a	-0.085272744
231	0xbdbe7c6b	-0.093010746
232	0xbca6766e	-0.020320144
233	0xbc326c66	-0.010890102
234	0xbc7ba36e	-0.015358789
235	0x3d2f057d	0.042729843
236	0xbd949b47	-0.07256179
237	0x3d134ca6	0.03596177
238	0x3d5135cf	0.051076706
239	0x3d283827	0.041069176
240	0x3d1e99e4	0.03872098
241	0x3beab1dc	0.007162316
242	0xbd9f4258	-0.07776326
243	0xbd9b2382	-0.07575132
244	0x3c235d46	0.009970969
245	0xbd1ce5d5	-0.038305122
246	0xbaf7d5be	-0.0018908305
247	0xbb96f661	-0.0046070074
248	0xbd165c5c	-0.036709175
249	0x3ce55798	0.02799587
250	0xbd91e009	-0.071228094
251	0xbd97189f	-0.07377743
252	0xbda51f9e	-0.08062671
253	0x3d7c34df	0.06157386
254	0xbcd4d84e	-0.025982048
255	0x3d86219e	0.06549381

linear.weight f4 [1, 200]
0	0xbdb02e25	-0.08602551
1	0x3d8a7aae	0.067616805
2	0x3d77a5e6	0.060460947
3	0x3d89e72e	0.06733547
4	0xbdd03f33	-0.10168304
5	0x3be7c21a	0.0070726993
6	0x3d349961	0.044091586
7	0xbd02b099	-0.031906698
8	0xbca94ba2	-0.020665947
9	0x3d3c227f	0.045931336
10	0x3d9c90b0	0.076447845
11	0xbdbcd858	-0.09220952
12	0x3d6b6a63	0.057474505
13	0xbc60448e	-0.01368822
14	0xbd54d3c4	-0.051959768
15	0xbce90c64	-0.028448291
16	0x3db170f1	0.0866412
17	0xbd34fec5	-0.04418828
18	0x3ddabb8e	0.106803045
19	0xbc859b4a	-0.0163094
20	0x3d39c2c7	0.04535177
21	0x3be62068	0.007022906
22	0x3bb9d9b7	0.0056717056
23	0x3dcf16c5	0.10111765
24	0x3d6d42ad	0.057924915
25	0x3d3dcef8	0.04633996
26	0xbb34125d	-0.0027476766
27	0x3c9f5bfe	0.019453045
28	0x3cc815e2	0.024424497
29	0xbdae7a07	-0.085193686
30	0x3d3bf8de	0.045891635
31	0xbd68d3b6	-0.05684253
32	0xbd67ec8f	-0.056622084
33	0x3d9b9013	0.07595839
34	0x3ca93270	0.020653933
35	0xbce3129c	-0.027718835
36	0xbdd9378b	-0.10606297
37	0x3c6daf66	0.01450715
38	0x3d86412f	0.065554015
39	0xbd365742	-0.04451681
40	0xbd88e63e	-0.0668454
41	0xbbbbdef9	-0.0057333675
42	0xbd842c55	-0.06453768
43	0xbaf5d3b8	-0.0018755114
44	0xbd3588ae	-0.0443198
45	0xbba6373c	-0.0050725024
46	0x3ccf58e4	0.025310941
47	0xbd438120	-0.047730565
48	0x3d6a88b4	0.057259277
49	0xbd81766f	-0.063214175
50	0xbce1da55	-0.02756993
51	0x3d4a3ac9	0.04937247
52	0x3d0cd4c1	0.034382585
53	0xbb4e2df9	-0.0031460507
54	0xbbf5d09c	-0.007501675
55	0x3d9bdd18	0.0761053
56	0x3ba65183	0.005075635
57	0xbd4eead9	-0.050516937
58	0xbd4d7a41	-0.05016542
59	0x3d231159	0.039811466
60	0xbc473c2c	-0.012160342
61	0x3d69954e	0.057027154
62	0x3b65a286	0.0035039498
63	0xbd54d37c	-0.0519595
64	0xbd88b61e	-0.06675361
65	0xbd0385f2	-0.032110162
66	0x3cf9ed5c	0.03050869
67	0x3cea3da5	0.028593848
68	0x3d865972	0.06560029
69	0x3d589d8a	0.052884616
70	0xbd532709	-0.0515509
71	0xbd85d3f2	-0.06534566
72	0x3d927cd3	0.071527146
73	0xbc990120	-0.018677294
74	0x3bb55072	0.0055332715
75	0x3cfd1cc2	0.030897502
76	0xbd30c85d	-0.04315983
77	0x3dcf12d6	0.101110145
78	0x3ce545f1	0.027987452
79	0x3d34e823	0.044166695
80	0x3d934acf	0.07192003
81	0xbba682c9	-0.005081509
82	0xbcfeb918	-0.031094119
83	0xbdc30160	-0.09521747
84	0xbbdfd36d	-0.006830624
85	0x3b520737	0.0032047757
86	0x3d84cd99	0.06484527
87	0x3c90880d	0.017642999
88	0xbd46eda0	-0.04856646
89	0xbd7a2dd0	-0.061078846
90	0xbd23a0a6	-0.03994813
91	0xbc2c5c71	-0.010520087
92	0x3c0d7786	0.008634454
93	0xbd16bdca	-0.03680209
94	0xbd9f413a	-0.07776113
95	0xbcc6245a	-0.024187256
96	0xbddc6647	-0.10761695
97	0xbcdfe389	-0.027330177
98	0x3d5a9365	0.053363223
99	0x3d854bdd	0.065086104
100	0xbca8b649	-0.020594733
101	0x3d97b70e	0.07407962
102	0xbd2f8c76	-0.042858563
103	0xbd05ea58	-0.03269419
104	0xbdcb5d63	-0.099299215
105	0x3d35c70e	0.044379286
106	0xbd26e6ba	-0.04074738
107	0xbc4555ad	-0.0120443525
108	0x3ce41d90	0.027846128
109	0x3c876887	0.016529335
110	0x3d203194	0.03910978
111	0x3da4a539	0.08039326
112	0xbd96eab8	-0.07368988
113	0xbc911195	-0.01770858
114	0x3d1ddc93	0.038540434
115	0xbc936ebd	-0.01799714
116	0x3d8c1a91	0.06841005
117	0xbd8617a0	-0.06547475
118	0x3db131b7	0.086520605
119	0x3d2ae7fb	0.04172514
120	0x3da54daf	0.080714576
121	0x3cbccca2	0.023046795
122	0xbda01851	-0.07817138
123	0x3d2062fd	0.039156903
124	0xbdb82912	-0.089922085
125	0x3d0165d7	0.031591263
126	0xbad0e1a8	-0.0015936391
127	0xbd931429	-0.071815796
128	0x3bc64fa9	0.0060519767
129	0x3d5c1d22	0.05373872
130	0x3cc12cba	0.023580898
131	0x3db19913	0.08671775
132	0xbd85e11c	-0.06537077
133	0x3d642d89	0.05570749
134	0xba912b75	-0.0011075573
135	0xbd8b6133	-0.06805649
136	0xbda92f93	-0.08261027
137	0xbcbd208d	-0.02308681
138	0xbd02daa3	-0.03194679
139	0xbdfcb965	-0.12340049
140	0xbba27953	-0.0049583106
141	0x3daae3fb	0.08344265
142	0x3cec2721	0.028827252
143	0xbcc43ce4	-0.023954816
144	0xbcc9a9f4	-0.024617173
145	0x3d8a257d	0.067454316
146	0xbbdc07f6	-0.006714816
147	0x3ce100da	0.027466226
148	0x3dc73b69	0.097281285
149	0xbd2a677f	-0.041602608
150	0xbd5290bf	-0.051407572
151	0xbd7d8d0f	-0.061902102
152	0xbd8a7e7d	-0.06762407
153	0xbd5df27e	-0.054186337
154	0xbd4b89bb	-0.049691897
155	0x3d18ce1d	0.03730594
156	0x3ce31661	0.027720632
157	0xbe385e2e	-0.18004677
158	0x3db50bfb	0.08840176
159	0xbd60d9a1	-0.054895047
160	0xbd82d874	-0.063889414
161	0xbd92ea24	-0.07173565
162	0x3d7338f5	0.05938049
163	0xbd54be0d	-0.05193906
164	0x3da0a31d	0.078436114
165	0x3ce871f9	0.028374659
166	0x3e3dcbd9	0.18534793
167	0xbd5290f4	-0.05140777
168	0x3bb0ce75	0.0053957053
169	0xbd859777	-0.0652303
170	0xbdc842e5	-0.09778384
171	0x3c1edf46	0.009696787
172	0x3c9d4fd1	0.019203098
173	0xbd387262	-0.04503096
174	0x3da058e2	0.07829453
175	0x3e329482	0.17439464
176	0x3d9caa87	0.07649713
177	0x3deab25e	0.11459802
178	0xbd381787	-0.044944312
179	0x3da6531b	0.0812132
180	0xbcea82c8	-0.028626814
181	0x3c53cf67	0.012927867
182	0x3b17dff6	0.0023174263
183	0xbce38f09	-0.027778165
184	0x3d4f5970	0.050622404
185	0x3ce81cb2	0.028333995
186	0xbd746927	-0.059670594
187	0xbd32c612	-0.043645926
188	0x3da77966	0.08177452
189	0xbd70ea88	-0.058817416
190	0x3d960a5a	0.07326193
191	0xbda57557	-0.080790214
192	0xbcf7000a	-0.030151386
193	0xbd084390	-0.033267558
194	0x3c03ae6c	0.008037191
195	0xbd542955	-0.05179723
196	0xbdc4c45b	-0.09607764
197	0xbbdf8e27	-0.006822366
198	0x3cc4a24c	0.02400317
199	0xbd854d04	-0.0650883
