models/RELIANCE.NS/RELIANCE.NS_s60_h200_e75_b32_lr0.001.pth (torch, 682609 bytes, 5 tensors)

lstm.weight_ih_l0 f4 [800, 10]
00000000: b530 77bd 5721 0ebd c3db 98bd 8be2 2a3d
00000010: 171a 3b3b 95e4 9bbd c572 2ebd 3bd7 203e
00000020: e1a5 6ebd 183b b63c 1a7f 283d a857 dabc
00000030: 8fdd 9e3c d0f7 2ebd 027a 993c 27ca 303d
00000040: 39cc 52bd d838 82bd db72 1bbd bc16 8dbd
00000050: b684 ad3b 9ed2 813d 1ae6 ec3b 9bb1 ecbc
00000060: b1f6 bbbc 4003 a63c 2b18 63bd 1fe9 e63d
00000070: 0d98 11bd 39a4 133d fd17 413d 6cbd 1fbd
00000080: 94a0 063d 549e 423c 299e 7b3d 7f17 02bc
00000090: 2b7b 52bd e453 c33b 73de 173c ae11 69bd
000000a0: 2aef 543c ab66 0fbc 5599 10bc 9a62 8bbd
000000b0: 0986 8d3b 2af0 dc3c 650c 78bd 760e 2fbc
000000c0: 975d a9bc 055d dabc d828 a63d 4d44 8e3d
000000d0: 0f69 9d3d 89b8 133d b0c0 393d 4b51 713d
000000e0: 9a64 f3ba 7aa1 70bd 439d aebd 9f83 093d
000000f0: a9be 483c 94a8 1dbd 96af e2bc 42cc c83c
00000100: cc44 a7bc 9c61 46bd 33f2 5cbc ab53 8a3b
00000110: 9fe1 953d 58f7 84bd e4b0 443d 7430 82bc
00000120: 480c 3fbd f0cc 253d 44a7 34bc 8e03 da3c
00000130: a1cb 88bd 6cee ebbd 9aef 7e3d d6c0 063e
00000140: ad86 693d 25b8 003d 728b 56bd b7d3 5abd
00000150: f420 16bd c010 a03d cdae 1f3d 2218 94bd
00000160: 39db 6cbb e6d1 ee3c ef4a ff3d efd6 153c
00000170: 2d0a 893d 98ba cb3d 8fcb c1bc 1e63 f13c
00000180: 4275 d43b 3af6 a4bd f512 16bd ec15 05bd
00000190: cf9b dfbb d544 b53c b855 c8bb e9d6 813d
000001a0: 3057 683d aff1 7c3b 6e93 f2bb bc24 9c3d
000001b0: 3d47 983d af0b c63c 0d91 9f3d c133 8b3d
000001c0: d47b 0f3d bc22 3c3c 73b5 26bd ea6f 54bd
000001d0: 5d44 073c e4c9 75bd f5c9 8f3d d3be c9bc
000001e0: db0d 5a3d a84d ab3d 0748 923d 1842 83bd
000001f0: d627 1abd 2716 703c 917a 633b 45b9 b2bb
00000200: 4844 9dbb ae8d 0d3e c21b 92bd e72f c2bd
00000210: fd5d 11bc 6e4d 1a3d 292f 053d d902 f8bc
00000220: 94ee 61bd 8de1 b33c 795a 15bd 0fce 9bbd
00000230: 363c acbd d01e 9ebc b74b 69bd 2b38 95bc
00000240: 9fec 183b 8363 43bd 7177 8c3c 486f ff3d
00000250: d686 1ebd 2b68 55bd 08b4 d0bd 3167 31bc
00000260: 5704 94bd 5fa8 c63c edb6 adbd 1f70 45bd
00000270: e0cc 5abd 07dd a73d 5d8e eb3d 492b 1bbd
00000280: 0e87 4b3d d0d8 14bc a1c1 c8bc a6c0 9d3d
00000290: 1a32 1b3d 201b aabc cee5 643d 3ac9 98bb
000002a0: 1450 fd3c 2f65 853d a9cc 3239 83c9 0a3b
000002b0: 297a 453c 2205 5e3c 3e8b 9abc a417 ce3b
000002c0: c579 be3d 2675 eebe f4fe fb3c e654 c63c
000002d0: 36ad 38bd 7e6a 033d 3a1a 773d 6552 403d
000002e0: bd66 a43b 6ef1 ebbc 5d74 06bd 578b 0dbd
000002f0: 0cc4 093d 88b1 14bd 6b2f 5c3d 748e 703d
00000300: 054b 6fbd 469e 683d 410c 2c3d 0bf6 843c
00000310: 2444 343d 4835 c33d 8ae0 e83c 94ad 853d
00000320: 3cf3 d2bc 44f4 0f3c 1f41 3cbd 694d 1dbd
00000330: 9bc5 0fbd 86cf 673d 253f 2d3d 06cb 943d
00000340: a913 f53d 0f74 3ebd 7c1c fcbc e0d9 9a3c
00000350: 3168 1fbd 76e6 80bd ca0b 0f3d 8bc4 9cbb
00000360: 8974 f93b aaf0 9d3e 15b7 b03d b6d4 9cbd
00000370: 558d 893d 3900 b9bb 9e53 bf3c 90aa 0b3b
00000380: 9837 2b3d 84ca 6bba aeae 303d d4f8 f63d
00000390: fde0 21bd 0091 c7bd fb3d e33c 4d94 efbc
000003a0: a3fb 73bd 3487 7ebd 7bac 533c 2b53 84bc
000003b0: 3156 95bd 26e7 2dbc a494 25bc 8fb1 433d
000003c0: 625b b83c df9a 533d 882e 46bd 196b 95bd
000003d0: bc54 1b3d 64fb 9dbd 92ae 5e3b ab44 56bd
000003e0: 4cec 913d 9477 163d a451 8fbc 5cd0 54bb
000003f0: 2ea5 0e3d a036 2b3d af36 493d b1f3 2abc
-0.060349185 -0.034699764 -0.07463791 0.041719954 0.0028549486 -0.07611958 -0.04258992 0.15707104
-0.058263663 0.022244975 0.04113684 -0.026653126 0.019392757 -0.0427168 0.018734936 0.043161537
-0.051464293 -0.06358498 -0.03795133 -0.06889102 0.0052953614 0.06339 0.0072295787 -0.028893283
-0.02294478 0.020265222 -0.05544297 0.11274933 -0.035545398 0.036045287 0.047142018 -0.038999006
0.032867983 0.011878569 0.06143013 -0.007940172 -0.051386993 0.0059609283 0.009269345 -0.056901626
0.012996474 -0.008752505 -0.00882562 -0.06805916 0.0043189568 0.026969988 -0.060558695 -0.0106846
-0.02067451 -0.026655683 0.08113259 0.06946621 0.07686054 0.03606466 0.045349777 0.058915418
-0.001856941 -0.058747746 -0.08526089 0.03357279 0.012252488 -0.038490847 -0.027671617 0.02451146
-0.020418547 -0.04843293 -0.013485479 0.0042214 0.073184244 -0.064924896 0.04802026 -0.015892245
-0.04664257 0.040478647 -0.011026207 0.026613023 -0.06679464 -0.11520085 0.06224022 0.13159499
0.057013202 0.031425614 -0.05237908 -0.053424563 -0.03665252 0.07815695 0.038985062 -0.072311655
-0.003614141 0.029152822 0.12465464 0.009145482 0.06691394 0.09947699 -0.023656635 0.029466208
0.006483705 -0.080547765 -0.036639173 -0.03249161 -0.0068239938 0.022127548 -0.006113734 0.06339819
0.056723773 0.0038596203 -0.007402829 0.07624194 0.074354626 0.024175493 0.07791338 0.06796981
0.0350302 0.011482891 -0.040700387 -0.051864542 0.008256045 -0.06000699 0.07020942 -0.024627125
0.05323587 0.08364421 0.071426444 -0.06409091 -0.037635647 0.014653719 0.0034710506 -0.0054542148
-0.0047993995 0.13823578 -0.07134201 -0.09481793 -0.008872506 0.0376715 0.03251568 -0.030274795
-0.055159166 0.021958137 -0.036463235 -0.07607662 -0.08409922 -0.019301802 -0.056956973 -0.01821526
0.0023334397 -0.047702324 0.017146798 0.12472397 -0.03870281 -0.052101295 -0.10190588 -0.010827825
-0.0722739 0.024250207 -0.08482156 -0.04820263 -0.05341804 0.081964545 0.11501763 -0.037883077
0.049689345 -0.009084895 -0.024506392 0.077027604 0.037889577 -0.020764887 0.05588322 -0.00466266
0.030921973 0.0651344 0.00017051645 0.002117724 0.012053051 0.013551028 -0.018865224 0.0062894393
0.093005694 -0.46573752 0.03076122 0.024210405 -0.04508706 0.03208398 0.060327746 0.046953578
0.00501713 -0.028801646 -0.032825816 -0.034556713 0.03363423 -0.03630212 0.05375616 0.058729604
-0.058421154 0.056791566 0.042003874 0.016230604 0.044010296 0.09531647 0.028427381 0.06527248
-0.025750749 0.008786265 -0.04596054 -0.038403902 -0.03510056 0.056594394 0.042296547 0.07265286
0.119666405 -0.0464974 -0.030775301 0.018902719 -0.038917724 -0.06293957 0.034923352 -0.004784172
0.007612769 0.30847675 0.0862867 -0.07657759 0.0671641 -0.0056457785 0.023355301 0.002131138
0.041801065 -0.0008994716 0.043135338 0.12059179 -0.039521206 -0.097444534 0.027739516 -0.02924552
-0.05956615 -0.06214066 0.0129195405 -0.016152939 -0.0729183 -0.010614192 -0.0101062395 0.047776755
0.022504512 0.05166137 -0.04838422 -0.07295818 0.037922606 -0.077139646 0.0033978564 -0.05231158
0.07125148 0.036735132 -0.017494984 -0.0032472825 0.034825496 0.04180014 0.049124416 -0.010434077

lstm.weight_hh_l0 f4 [800, 200]
00000000: 3cda 0c3d 4743 a6bc 26b9 9a3b 522f 783c
00000010: f239 3fbd e312 1a3b 02ca 5dbd a5d0 823d
00000020: 3031 9bbc 71bc afbb 171f 0c3d 1fcf 8e3d
00000030: 80d6 cfbc 1a55 6a3c 86fb c1bc 3aa1 843a
00000040: 4dc9 223d 4a69 e13c b667 0bbc 661b a8bc
00000050: 862b 9bbc ca9d e33c 7e0f 27bc 126d 2ebd
00000060: 4850 f5bc 0af3 773d 54e9 4c3d 2331 86bd
00000070: 187a 343d 698d 163c 0831 123d 10bb b03c
00000080: 21b9 45bd 8ff0 9fbc 1d31 963d 1f1f 2ebc
00000090: c5e4 13bd 2539 a0bd 53fe 80bc 9283 783d
000000a0: 9062 18bd cbe3 23bc 9053 5bbd 5524 813d
000000b0: 7e60 61bd 7c42 2d3c 9be3 2bbd 275e 173d
000000c0: 9d7f c8bc 052f c43b 8226 bdbc acac 8b3c
000000d0: 510e f93c dc9b 063d 09a4 1abd aab9 1fbd
000000e0: 4379 933d 0ab9 163d f9b0 1d3d 48f4 2a3d
000000f0: c326 ce3c 060c fb3c 49b6 cebb 22a7 583b
00000100: 9956 81bd 0b52 603c 4424 043d d3e3 503c
00000110: 2489 263d 3446 c73c d4e1 5c3d 08c1 463d
00000120: 9b65 1cbc aa52 5ebd 9cea aebd 36c0 1b3c
00000130: d249 b13d 820e 383d 2139 cebc 7904 833c
00000140: fc3f a63a ad20 c3bd 30b8 83bc 5634 adbc
00000150: 4c98 c3bb 76dc fb3c da42 39bd ce62 8ebc
00000160: fcd6 7e3d f727 acbc b92f 04bc 4e09 40bd
00000170: cf9c 19ba 8010 71bd 7ba2 2fbc 12a9 2a3d
00000180: d37a d1bc e461 043d 4d62 19bb e658 42bc
00000190: 520c 7b3d 4dad dd3c c277 993c 3572 4dbd
000001a0: b9a0 f3bc ebbe 52bd 0863 f23c 1d1a 333a
000001b0: e2db c13c 404a 23bd 6d99 d5bc 3ac7 503d
000001c0: 65ed 133d bf34 333d d512 8dbb a69e d13b
000001d0: 3c1b 823d f181 82bd 464a 8cbd e923 7cbd
000001e0: a45a 6abc 93bc 9abb def6 3c3d 53af 6cbd
000001f0: b2da 703d b5c6 9b3c cdbd 6fbc ef50 6c3c
00000200: 5a21 8c3d d15f d8bc daf0 663b adfc 8e3c
00000210: cc7b ac3c 54ac 4bbd 7781 2e3d d0c5 5ebd
00000220: 4c29 64bd b7b0 50bd 8b69 ac3c a36c 883b
00000230: 7c37 8b3c 0ea7 943b 3129 5f3c 35dd 27bd
00000240: af9f 6e3d 38fa 8e3c a211 8ebd 2c3a f63c
00000250: 3197 1b3d ead2 b13c cdcc 2db9 007b 5bbd
00000260: ad7f 59bc 708a 24bd 1a8f 3d3d c845 3cbd
00000270: 1c5e 19bd ee43 7dbc 3aad 30bd 449e c2bc
00000280: 3166 053d 6b2c 9c3c 92ca 7b3c 9658 e7bc
00000290: 7950 d7bc 0df9 883d 695f 7a3c b795 8c3c
000002a0: bed5 813d 645a cf3d 22fc b5bc 2841 8cbd
000002b0: 2e29 383d 4654 cf3c 5d33 0e3d bb51 17bd
000002c0: 03f8 2cbd 9554 2e3c 5f32 873d e36e 33bd
000002d0: 2759 4bbc aef8 ed3a b5ca 28bc 58ff ad3c
000002e0: d868 aebb b09f 28bd 2845 2abd 5f52 1bbd
000002f0: b41e 03bd 65b1 6d3d 00bd e1bc d679 983d
00000300: f625 6a3c ad91 9d3c 3728 053d 7bc0 003c
00000310: 2c27 97bc bb32 b0bc b0ea 0ebd a4ab 46bd
00000320: dee6 0ebd 6af7 5c3d b2f3 dc3b c597 1fbd
00000330: 5dfd 953d 252f f13c ca7c 97bd 74de 6dbd
00000340: d228 26bd 039f c8bd b143 2d3d 16c1 8b3c
00000350: 6f8c 6c3c 18a6 c03c 6352 65bd e1b4 253d
00000360: 30f9 2e3d fbde a43d 937a 043d 5997 3d3d
00000370: d20f 1dbb 9e7d 3f3d cd0c 35bd 3906 003d
00000380: ec04 a3bc e4a2 01bd 2034 2a3c 0311 973d
00000390: b079 26bd 8957 273d b122 f9bc 6ef4 fc3c
000003a0: 8951 a2bd 04c7 eb3c 52b6 5f3d e3f8 463d
000003b0: 759a cbbd 58ac 0cba 5c5f 25bd 139a 2e3d
000003c0: 0a7a b03c fcae 1bbd cd0b 223d a83f 403d
000003d0: cfb3 29bd bfd4 cbbd f743 9abd 13e4 09bd
000003e0: a274 7a3d c09c d63b 2ee7 a2bd b9f8 a73d
000003f0: 6a16 a1bd 2210 953c a8c4 babc ff70 e43c
0.034387812 -0.020295752 0.0047217784 0.015148001 -0.04668612 0.0023509793 -0.054147728 0.06387452
-0.018944353 -0.00536304 0.034209337 0.06973099 -0.025370836 0.014302516 -0.023679506 0.001011885
0.039742757 0.027516026 -0.008508613 -0.020520877 -0.018941652 0.0277852 -0.010196565 -0.042584486
-0.029945508 0.060534514 0.050027207 -0.06552341 0.04406175 0.009188988 0.03569129 0.021573573
-0.048272256 -0.019523887 0.07333586 -0.010627537 -0.036106844 -0.078233995 -0.015746271 0.06067235
-0.03720337 -0.010003041 -0.05354649 0.06305758 -0.055023663 0.010574933 -0.04196511 0.036955025
-0.024474913 0.0059870505 -0.023089651 0.01705011 0.030402334 0.032863483 -0.037754092 -0.038995422
0.07200863 0.03679756 0.038498852 0.04173687 0.025164967 0.030645382 -0.006308351 0.0033058603
-0.06315345 0.013691436 0.032261148 0.01274963 0.04065813 0.024325468 0.053926304 0.048523933
-0.009545709 -0.054278053 -0.08540842 0.009506276 0.08656658 0.04493571 -0.025173726 0.015993344
0.0012683864 -0.09527717 -0.016079038 -0.02114312 -0.005969083 0.030744772 -0.04522977 -0.017381098
0.062216744 -0.02101515 -0.008068019 -0.046883874 -0.0005859853 -0.058853626 -0.010719891 0.041665144
-0.025571262 0.03231992 -0.002340454 -0.011862015 0.061291046 0.027060175 0.018733863 -0.050157744
-0.029739724 -0.051451605 0.029588237 0.0006832199 0.023664419 -0.039865732 -0.026074136 0.050971247
0.03611507 0.043751474 -0.0043052235 0.006397086 0.06352851 -0.063724406 -0.06850104 -0.061557684
-0.014303837 -0.004722187 0.04613387 -0.05778439 0.058802314 0.01901565 -0.014632654 0.014423593
0.06842299 -0.026412876 0.0035238774 0.01745447 0.021055125 -0.04972489 0.042603936 -0.054387867
-0.055703446 -0.05094978 0.02104642 0.004163341 0.01699423 0.004536516 0.013620661 -0.040982444
0.058257755 0.017453298 -0.06936957 0.030057035 0.037985984 0.021707017 -0.0001657486 -0.0535841
-0.013275069 -0.040171087 0.04627905 -0.045964986 -0.037443265 -0.01545809 -0.04313395 -0.023757108
0.03256816 0.019064149 0.015368121 -0.028240483 -0.02628349 0.06688128 0.015281537 0.017161233
0.06339596 0.101246625 -0.022214953 -0.06848365 0.044961147 0.02530874 0.034716953 -0.03694318
-0.04222871 0.010640283 0.066014044 -0.04380692 -0.012411392 0.0018155777 -0.010302235 0.021239921
-0.005322557 -0.041167915 -0.04156986 -0.037920352 -0.032011703 0.058030505 -0.027555943 0.07445113
0.014291277 0.019234503 0.032509055 0.007858391 -0.018451296 -0.021508565 -0.034891784 -0.048503533
-0.03488814 0.05394689 0.006742918 -0.038963098 0.07323716 0.029441426 -0.073968485 -0.058073476
-0.040566273 -0.09795954 0.042300884 0.017059844 0.014437779 0.0235167 -0.055986773 0.040455703
0.042718112 0.08050343 0.03234346 0.046286914 -0.0023965728 0.046750657 -0.04420166 0.031255934
-0.019899808 -0.031649485 0.010388404 0.073762916 -0.040643394 0.040854964 -0.03041205 0.030878272
-0.07925708 0.028781421 0.054617234 0.0485772 -0.0994157 -0.00053662574 -0.040374145 0.042627405
0.021542568 -0.038008675 0.039562035 0.046935707 -0.041431244 -0.099526875 -0.075324945 -0.033664774
0.061146386 0.006549448 -0.0795425 0.08201737 -0.07865603 0.01819617 -0.022798851 0.027885912

lstm.bias_ih_l0 f4 [800]
00000000: cf8d 71bd a7ee 933d 3727 1b3d 0126 a13a
00000010: 2844 17bd fc2a 95bb 7762 5fbd c521 583d
00000020: 30d1 003d 25ac 823d f844 b13c db60 083d
00000030: 7a35 dcbc b4c5 8a3d 10e8 b5bc 9f95 9dbd
00000040: 21ac 0f3d 525d 593e b304 3c3b 2b85 e63c
00000050: bf0e 1ebc f614 93bc 7574 ebbc 61e4 87bc
00000060: bfec 89bc 1538 8c3d d4cb b13c 3253 9e3c
00000070: b1b1 353d aa5b a9bd 4c08 a13e b59c a53d
00000080: 94e4 b2bc 6882 b73c d211 6d3d 2454 86bd
00000090: c74f b13e 90e5 983d c5ca e6bc fb70 0d3d
000000a0: d17d 003c 01c5 b0bc 8aad 23bd d707 bb3c
000000b0: 3a76 1cbd 42ca 343c b79d 7dbc 5116 923d
000000c0: fbf1 893d f2a7 a63d 7227 ae3a 8610 803d
000000d0: 008a 45bc 0f01 f23b 048a 433d cab5 7abd
000000e0: c154 ea3d 17e1 2a3d 104f f1bc c8b3 4dbd
000000f0: 7196 9d3d 4510 263e c02e 01bd 79c9 8dbc
00000100: 8d49 133d b1c5 493b 5a05 d6bc b7e8 683d
00000110: 14ce 183c 7d9b afbc 4528 893d e1c0 71bc
00000120: 1593 06bd 6c42 ba39 65ff a83c bc66 50bb
00000130: 402d 35bb e0fe 9fbd e08b d53c 99c3 9e3d
00000140: 6223 2bbd f070 47bc 4c23 5d3d 65a8 83bd
00000150: 0762 6a3d 0d40 8ebc dfa2 e43b 6819 d53d
00000160: 6e14 cfbc 217e 503e 2985 87bb 0bff 43bd
00000170: 26fa fa3d 656d 2c3b 1d25 b43c 7c2f 24bb
00000180: 1eeb 1fbd f963 58bc 7b95 ca3d 3803 a23e
00000190: f489 5cbd 961f 5abc 6b17 b8bc 7fde 303d
000001a0: 04f9 9f3d 199a acbd 7365 32ba 4ee9 873b
000001b0: a09f 22bc 95df 553d 5904 dbbd d7ba 173d
000001c0: c27c 83bd 4528 433c c167 edbb 3994 423d
000001d0: 26ff acbc cbff 9fbb 1474 cbbd 4354 28bd
000001e0: a018 01bd 6000 66bd 23ca 6bbd 228b 9d3c
000001f0: 36df 33bc c578 793b e6e7 28bd 9f99 2f3d
00000200: 3fb8 d63d 0240 61bd 7561 51bd b8d9 fbbc
00000210: 37dc 683b 90ba cb3b b7b8 9c3c 0feb cb3b
00000220: 61a1 773d 58ac b73c 232b 203d 5414 883d
00000230: 0896 913c 5b4a 2cbd 6b38 503d e392 273d
00000240: 1dbb 91bd 86a4 41bd 7a50 153d 4902 b73c
00000250: 37b0 e5bc dd50 adbb 3ec7 093d 2271 acbd
00000260: cd64 593d 8c7a 8e3a 0edf 56bb c083 373d
00000270: d3e0 113d 7338 1abc 659c 5fbd c568 b13d
00000280: 7370 8e3d 75a3 183d 1cd4 063d 83af 0f3d
00000290: f0d8 36bd 54f8 d4bc 7746 a33c 35cd cdbc
000002a0: f6c4 7e3d 1a18 8d3c 8320 36bc 054a 06bc
000002b0: 6165 8f3c 5eec b7bc b7ce 853d e696 beba
000002c0: ed46 e73c b3da 82bb 20d8 803d d0f8 87bc
000002d0: 996c 153d 9dcc 143d e723 abbc daa6 97bc
000002e0: 9ec1 463d 019e 77bd 3542 173e a168 063e
000002f0: d058 d13d 3b13 cd3d b5b3 993d 9476 783d
00000300: 05dc 673d 6f09 873b b287 82bc 632b ce3d
00000310: 1bb3 69bd e48c 7e3a 5e3b 173d c505 ac3d
00000320: 4f5c 803d 8c94 39bd 4642 07bd 11d5 d43c
00000330: d457 643d 2f3f 89bc c239 7f3c 45ad 49bd
00000340: 9a22 29bd 8399 fcbb 289a 59bd 6878 9439
00000350: b1ab 183c a30b 3fbd 68ac eb3c 161e 08bd
00000360: 44e0 843d a631 87bd 0176 2dbb 2a21 1cbd
00000370: 6fa7 023d 7a30 06bd 55b8 753d 0f77 87bd
00000380: 6f58 e6bc d46c 60bd c16f 98bc 70c3 873c
00000390: 9023 a1bc 47f9 b5bd 9b5e 14be df4a 453c
000003a0: 0fed 32bd a8e3 c23a 5ae3 05bd 475e b5bd
000003b0: b969 d7bd a2ea c9bd bba6 64bd 3bfe a0bc
000003c0: d600 f4bb 75bf 383d e4a8 153d 8304 d23c
000003d0: 3f58 ce3c 4caa 6bbd c2d0 7cbd 2cab 143c
000003e0: 669a 48bd c7ef 93bd 12ce 5abd ce36 27bc
000003f0: d3d7 a2bc c3e2 2abd 36f3 9abd b7a1 ad3c
-0.05897313 0.07223254 0.037879195 0.0012294651 -0.036930233 -0.0045522433 -0.054537263 0.05276658
0.031449497 0.0638049 0.021639332 0.033295494 -0.026880968 0.0677599 -0.022205383 -0.076945536
0.035076264 0.21227005 0.0028689324 0.028139671 -0.00964707 -0.01795433 -0.028742054 -0.016588392
-0.016836522 0.06846634 0.021703638 0.01932678 0.044358913 -0.08269437 0.31451643 0.0808653
-0.02183751 0.02240105 0.057878323 -0.06559017 0.34631178 0.074656606 -0.02817286 0.034531575
0.007842497 -0.021578314 -0.03996042 0.022830887 -0.038198687 0.01103455 -0.015479497 0.07133163
0.06735607 0.08137502 0.0013286902 0.062531516 -0.012056828 0.00738538 0.047739044 -0.061208524
0.11441947 0.04171857 -0.029456645 -0.05022028 0.0769471 0.16217144 -0.031538725 -0.017307984
0.035958815 0.0030788 -0.026125599 0.05686256 0.009326477 -0.021436447 0.06697134 -0.014755459
-0.032855112 0.00035526173 0.020629594 -0.0031799516 -0.002764538 -0.078122854 0.026067674 0.07752151
-0.04178179 -0.0121729225 0.05398874 -0.06428603 0.057222392 -0.017364526 0.0069774236 0.104052365
-0.025278296 0.20360614 -0.004135747 -0.04785065 0.12254743 0.0026310321 0.021990353 -0.0025052717
-0.039042585 -0.013207429 0.098917924 0.3164308 -0.0538425 -0.013313195 -0.022472104 0.04318094
0.07811168 -0.08427829 -0.0006805278 0.004147685 -0.009925753 0.052215178 -0.106941886 0.03704342
-0.0642028 0.0119114565 -0.0072450344 0.047504637 -0.021117758 -0.004882788 -0.099342495 -0.041095983
-0.031517625 -0.0561527 -0.05756582 0.019231383 -0.010978511 0.003806637 -0.04123678 0.042871114
0.10484361 -0.054992683 -0.051118333 -0.030743465 0.003553165 0.0062173083 0.019131048 0.0062230895
0.060456637 0.022421047 0.03910364 0.06644502 0.017771736 -0.0420631 0.050835054 0.040911566
-0.07115767 -0.047276042 0.0364537 0.022339957 -0.028038127 -0.0052891807 0.033637278 -0.08420016
0.053074647 0.0010870262 -0.003278676 0.04480338 0.0356148 -0.009412873 -0.05459251 0.08662561
0.06955042 0.03726526 0.032917127 0.03507949 -0.04464048 -0.025997318 0.019931061 -0.025122264
0.062199555 0.017223407 -0.01111615 -0.008196359 0.017504396 -0.022451576 0.06533568 -0.0014540821
0.028232062 -0.003993356 0.062912226 -0.016598135 0.03648052 0.036327947 -0.020891143 -0.018512178
0.04852449 -0.06045342 0.1477135 0.1312585 0.10222018 0.100134335 0.075049795 0.06065996
0.05660631 0.0041209976 -0.015933845 0.10066869 -0.057055574 0.00097103254 0.03692185 0.08399538
0.062676065 -0.04530768 -0.033022188 0.025980504 0.055747822 -0.016753761 0.015577735 -0.04923751
-0.041292764 -0.0077087297 -0.05312553 0.0002831847 0.009318278 -0.046641957 0.028768733 -0.033231817
0.06488088 -0.066012666 -0.002646804 -0.038117565 0.03189796 -0.032761075 0.059990246 -0.066145055
-0.02811834 -0.054791287 -0.018607976 0.016572684 -0.019670278 -0.088854365 -0.14489214 0.012041776
-0.043683108 0.0014868872 -0.032687522 -0.088558726 -0.10518212 -0.09859206 -0.05582307 -0.019652477
-0.0074463887 0.045104463 0.03653802 0.025636917 0.025188563 -0.057535455 -0.061722524 0.009074014
-0.04897537 -0.07223468 -0.05341918 -0.010205938 -0.019878304 -0.041720163 -0.0756592 0.021195276

lstm.bias_hh_l0 f4 [800]
00000000: e37a 6c3d 7032 1c3d d51f 463d eedc 2a3d
00000010: 7fd6 063c 47c2 c93c 5de3 783d 7d8f a03c
00000020: 9906 81bd e4b9 d5bc 3e0a 3fbc 113a e8bc
00000030: 6123 57bd e4c1 293d 6817 d3bc 3a9f bcba
00000040: 8f8c 82bb 649a 063e 59a5 71bd 05ec acbc
00000050: d575 5d3d 904e b73c 7175 693c 518d 01bd
00000060: adfd 3d3d 0fea 24bd b3e2 4a3d 2215 ec3c
00000070: 5d94 16bd fa79 2cbc aacc af3e 0d3b 0d3c
00000080: fa07 59bc 6af2 38bd af3e 97ba da4f b6bd
00000090: 3ed7 703e 14a8 b73d 0100 163d 73a2 f9bc
000000a0: a0af 16bd d4b7 9e3d d273 ccba 0dd9 093d
000000b0: a82b 793d 4e50 3b3d fcdd 283d 76e2 0b3e
000000c0: af4a 8ebd e16d 80bc efb1 9abd 357f 7c3d
000000d0: 3bc9 ea3c f060 fa3c ae72 533d 0a1b 1dbd
000000e0: bd5f 493e ee09 c23c 051c b3bd b6d1 54bd
000000f0: b09f 5c3d 26ba 253e b7aa ecbc 34b2 ebbb
00000100: a269 7d3d f127 64bd cc6b 7c3c e620 f83c
00000110: 8c24 37bc 5155 34bc 0071 e63c 1562 a7bd
00000120: adac 0d3c d1ad 033d 0cc9 1c3d ae0d b9bb
00000130: 8a11 c7bc 3df5 92bd 943f 08bd e5ad b03d
00000140: 1798 bcbc f931 923d cda0 03bd 6700 593d
00000150: 8e65 833d 4fca 6dbd 45e6 1ebc a42a b13d
00000160: c2af 7dbd f7e9 1c3e 6e19 ab3d 9c2d 14bc
00000170: e806 e73d 0dec 95bc 89dc a6bc 7587 ea3b
00000180: c8cc 31bd 46dc 6abd 8f1d 323d 82be b93e
00000190: 9392 bf3c eca9 93bd 3d99 7b3c 63ab a13d
000001a0: 52f2 d03d dbf8 cdbd 85b0 38bd e047 a93d
000001b0: 4473 dfb9 151d a83d 7784 a7bd e348 1a3c
000001c0: dc08 843d a4d1 86bd 0c51 dcbc 5b5e 04bb
000001d0: 551f 15bc 513f f83c 3d41 2cbb 2172 1c3d
000001e0: face 8e3d bb59 0d3d 72a8 853b 77ff fa3c
000001f0: 1ec2 d73b f032 62bc 67f0 8b3d b1d1 393d
00000200: 63f7 a03d d4eb 1abd 1cad 87bd 881c 163d
00000210: 00fd afbc 41f4 8c3d b776 89bc 1095 093d
00000220: c03b 0d3e b6b5 8dbc e136 5b3d 0498 2cbc
00000230: 541f 01bb 34ca 853d e4f4 7c3d 6d56 0ebd
00000240: cedb 95bd 4dd4 8d3d 5d6f c33c 6e30 243d
00000250: 73ac 953b de72 ffbc b0e7 1bbd b4db 3e3d
00000260: d382 b43d 02ed fdbb 5a43 aebd 4620 533d
00000270: 1bcd 7b3d 2be0 42bd 4a17 22bc d960 15bb
00000280: 7770 6fbd 59fa ed3c 4545 1fbc ef03 8a3d
00000290: 33df 813c 8a8c f6bc b9aa 8a3b 33c4 b4bc
000002a0: e8ad 433d 93bf a33d 2581 ab3d caa7 a03d
000002b0: d106 e83c ccb4 393b d41c ae3d 7f5d f73d
000002c0: 9448 833d 9d3e 923d 3601 b83d 9fb2 603d
000002d0: c712 5b3d 0f09 85bc aabb 1d3d aec2 b5bc
000002e0: dd6b 6a3b 2f60 393d 0da4 de3d 1ead 113e
000002f0: 4f7d 2a3d f4f0 953b 4bc0 863c 0956 c3bc
00000300: 4416 a83c ac5f 10bb 8fcd 613d 8c02 0bbd
00000310: eba5 5fbd ea2c 8e3d 4dc2 9dbd 82b5 3a3d
00000320: efcd 4e3d f8a0 523d 0ccc 35bd 6238 87bd
00000330: 0c0d 2bbd 9681 e2bc 93d6 8dbd 36ce 5a3d
00000340: 5c43 36bd 0adc fdbc 6353 6b3d 8617 51bd
00000350: 63a6 513d e9a4 88bd 4e0c 26bd 5a1c 17bb
00000360: e69c 2a3c 88b4 ddbd bf1f 893d 0459 0c3d
00000370: 095a 92bd c1fd b93c 1e58 093d ea35 65bc
00000380: ef9b 69bd 9444 4bbb 1d85 b13c a51c 39bd
00000390: c585 ebbb dc25 353d f384 18be 3ab5 13bb
000003a0: 4db8 763d 25e4 55bd 4a60 0a3c 0b30 81bd
000003b0: f112 db3b d6e3 b7bd adef edba 7c1b 47bd
000003c0: e8ae 2dbd dc7d ff38 f1c0 8abd 2783 aebd
000003d0: 4bc5 70bc 4813 1d3d 6b33 3fba 6575 f63b
000003e0: 4ba4 cd3c 7375 63bd 6511 e6bc 7761 ddbb
000003f0: a952 e0bc 0752 48bb fef8 0d3d 1694 22bd
0.05773438 0.03813404 0.0483702 0.0417146 0.008229851 0.024628771 0.060763706 0.01959967
-0.063000865 -0.026089616 -0.011660157 -0.028348 -0.052523974 0.041444674 -0.025767997 -0.0014390715
-0.003984041 0.13144833 -0.05899558 -0.021108637 0.05406745 0.022376329 0.014249192 -0.03162891
0.046384502 -0.04026228 0.049532603 0.02881867 -0.036762584 -0.010527128 0.34335834 0.008620036
-0.013246531 -0.04515306 -0.0011539067 -0.08901949 0.23519608 0.08967605 0.036621097 -0.03047297
-0.036788583 0.07749906 -0.0015598482 0.03365426 0.06083265 0.04573088 0.041227326 0.13660607
-0.069478385 -0.015677394 -0.075534694 0.06164475 0.028660407 0.030563802 0.05162304 -0.038355865
0.19665428 0.023686375 -0.08745579 -0.05195781 0.053863227 0.16184291 -0.028889997 -0.0071928743
0.061868317 -0.055702154 0.01540656 0.030289125 -0.011178147 -0.011006669 0.028130054 -0.081730045
0.008647126 0.032148186 0.03827767 -0.0056473827 -0.024300355 -0.07175682 -0.033263758 0.08626918
-0.02302174 0.07138438 -0.032135773 0.0529789 0.064158544 -0.058054265 -0.009698455 0.08650711
-0.061935194 0.15323626 0.0835446 -0.009044077 0.11280614 -0.018301034 -0.020368831 0.007157261
-0.043408185 -0.057338975 0.04348522 0.36278158 0.023385322 -0.072101444 0.015356359 0.078940175
0.10202469 -0.10057231 -0.045090217 0.08265662 -0.00042619754 0.08208672 -0.081795625 0.009416792
0.06447002 -0.065829545 -0.026894115 -0.0020197842 -0.009101708 0.03030363 -0.0026284002 0.03819478
0.069730714 0.0345094 0.004078918 0.030639393 0.00658442 -0.01380609 0.068329625 0.045365993
0.07859685 -0.03782256 -0.06624815 0.036648303 -0.021482944 0.06882525 -0.01678024 0.033589423
0.13792324 -0.01729856 0.053519133 -0.01053429 -0.001970251 0.06532708 0.061756983 -0.03475039
-0.07317315 0.06925259 0.023856813 0.04008525 0.0045676767 -0.031182703 -0.03806275 0.046596244
0.08814015 -0.007749201 -0.0850894 0.05154445 0.0614749 -0.047577064 -0.009893248 -0.0022793321
-0.058456864 0.02905004 -0.009721105 0.067390315 0.0158535 -0.030096311 0.0042317775 -0.022066211
0.04777327 0.07995524 0.08374242 0.07844503 0.028323563 0.0028336523 0.08501592 0.1207838
0.064103276 0.07140849 0.08984606 0.054857846 0.053484704 -0.016239671 0.03850905 -0.022187557
0.0035769858 0.045257743 0.10871134 0.14226195 0.04162341 0.004575843 0.016449114 -0.023844736
0.02051843 -0.002202968 0.055127677 -0.033937976 -0.05460159 0.069421604 -0.077030756 0.045583256
0.050489362 0.051423043 -0.044384047 -0.06602551 -0.04176049 -0.027649682 -0.069256924 0.053419314
-0.044497833 -0.030988712 0.05745257 -0.051047824 0.05118407 -0.06672079 -0.04053908 -0.002305767
0.010413384 -0.10825449 0.06695508 0.03426458 -0.07146079 0.022704007 0.0335313 -0.013989905
-0.057033475 -0.0031016218 0.021669919 -0.045193333 -0.0071875774 0.04422556 -0.14894466 -0.002253844
0.060234357 -0.05221953 0.008445809 -0.063079916 0.0066856076 -0.08979003 -0.0018153094 -0.048610196
-0.04240313 0.00012182791 -0.06775082 -0.08521109 -0.014695476 0.038348466 -0.00072937337 0.0075213187
0.025102755 -0.05553193 -0.028084466 -0.0067560035 -0.027383165 -0.003056647 0.034661286 -0.039692007

linear.weight f4 [1, 200]
00000000: 1194 0e3d 20b2 b5bd 26b6 a93d 5940 bf3c
00000010: 2b15 5abc a9ba 51bd 8254 493d 7568 1b3c
00000020: 65ac 3bbd 5794 dbbd 9034 1b3c 6d92 053d
00000030: 0c89 0cbd 453f 74bd f110 783d 6939 6b3d
00000040: e402 a43d c456 d73d 1cf4 6dbd b45b bd3d
00000050: 250d 81bd c979 a0bd c8b4 093d 23a4 8e3d
00000060: d79d a9bd 5506 893d 4885 8bbd 8644 1cbd
00000070: 4790 8e3d 8a74 6e3c b3b0 07be 546d 99bd
00000080: 885a 8b3d d7d4 87bd 5bf8 be3d 51ef f63c
00000090: c005 e2bd 4255 64bd f42c 9fbd 7e0d 863d
000000a0: 2835 55bd 46c3 f03d 6d01 113d 0582 383d
000000b0: 4794 b1bd 45f4 a6bd dfc9 8ebd 9e3e c2bd
000000c0: 0a3f 493c ffd1 c13d 3a15 d33c 31d9 df3d
000000d0: 60e0 93bd 700e 113d 79df be3c 83c9 c6bc
000000e0: 71f9 cb3d 1d57 8cbd a873 de3c 2e08 433d
000000f0: ec61 5bbd 6a7f 973d a8c7 a63d dd42 b3bd
00000100: 7a6d 953d 144e 56bd cf1d 87bd 28ba 933d
00000110: 3228 ca3c 97d7 ca3d a835 b2bd fc59 903c
00000120: 7bdf d6bd 86d4 0ebc f842 cfbd b841 e53d
00000130: 6ded 373d 4116 2dbd 5f80 00bd 1693 e63d
00000140: 43a6 a93c 9683 51bd 933a a73d 9114 62bd
00000150: b137 ae3d 614d 633c e1c0 173c a70a a3bd
00000160: 660f 623d 0648 debd 6751 70bd ba20 d0bd
00000170: 441d afbd 7062 a7bd 2033 b9bd 27a2 693d
00000180: 5ec4 8a3d e92c 48bd c77d b13d bdcc 27be
00000190: 4dc9 453d 550d 1b3d 294f 0a3d 89ef a5bd
000001a0: 653a a23d 67d1 1cbc 1ef1 24bd a6ab a93d
000001b0: 5e4c a63d 1e8c b5bd 4987 f03c 0307 3f3d
000001c0: ed7f 143d d718 ef3b fc20 af3d fbf2 a5bd
000001d0: 1906 88bd db26 78bd be97 26bd e1af 4a3d
000001e0: 981c 933d 25be c7bc 87e7 a8bd f1ce a7bd
000001f0: 0b8f 32bd 3df8 b1bc 74e8 8a3d 6e74 913d
00000200: edee b53d b48c 293c c384 713d 23a0 8abd
00000210: 51a0 54bc df29 f1bc e839 a3bd 2813 613d
00000220: 6dbb f73d 7ae3 873d 4c3d 863d c81c 1c3d
00000230: 2b6a d1bd 52a3 a73d 52f6 88bd 1332 c3bc
00000240: f116 98bb 1029 c13d 4896 45bd f33c 3cbd
00000250: f0d0 5ebd fb1a 8b3d a441 f6bc 125c 2ebd
00000260: 1cee 8fbd cac8 423d 61e5 683d bca8 9ebd
00000270: d35d 8fbd d5d3 01bd d9eb 2e3d adc7 7c3d
00000280: 890c 47bd 5112 e33c 8a6a 863c abce 54bd
00000290: 80ee 9ebd fd45 57bd 4d32 91bc f468 8d3c
000002a0: abd4 58bd 5316 133e bd14 b1bd 9d93 d5bd
000002b0: 052f a8bd 895b b639 1189 00be ae49 87bd
000002c0: 378c 75bd 5c01 50bd 8629 cf3d 578a b03d
000002d0: 2773 bc3d 2d96 34bd 5184 0bbd aeb3 653c
000002e0: 1e54 45bd 2a2e d5bc bbe0 cb3d 16ca cabd
000002f0: 00a4 9f3d 5fe9 a03d 4b45 e7bd 2474 623d
00000300: 5fc1 083d 9fed 06be 4af6 4fbd 1de0 9dbd
00000310: 1763 903d 4179 893d bf32 7b3d 586c 573d
0.034809176 -0.08871865 0.08286695 0.023346113 -0.013310711 -0.051203404 0.04915286 0.009485354
-0.045818705 -0.10721653 0.009472981 0.032610346 -0.034310386 -0.05963065 0.06056303 0.057427797
0.08008364 0.10514596 -0.05809413 0.092460066 -0.06301335 -0.07835729 0.033619672 0.069649
-0.08282059 0.06690661 -0.06812531 -0.038151287 0.069611125 0.014554152 -0.13250999 -0.07491556
0.06804377 -0.06632393 0.09324714 0.030143412 -0.11036253 -0.05574537 -0.07772246 0.06545542
-0.052052647 0.117559955 0.03540175 0.04504587 -0.0867086 -0.081520595 -0.069720976 -0.094845995
0.012283096 0.09463882 0.025766958 0.10930098 -0.072205305 0.03541416 0.02329992 -0.02426601
0.099596865 -0.06852553 0.027154759 0.047615223 -0.053560182 0.07397349 0.0814355 -0.087529875
0.072962716 -0.052320555 -0.065974824 0.07213241 0.02467737 0.09904402 -0.0870164 0.017621033
-0.10491844 -0.008717662 -0.10120195 0.111941755 0.04490416 -0.04225755 -0.031372424 0.11258523
0.020709163 -0.05115088 0.08165469 -0.055195395 0.08506716 0.013873429 0.0092622945 -0.07961016
0.055190466 -0.10853581 -0.05867138 -0.10162492 -0.08550504 -0.08173072 -0.090429544 0.057039406
0.06775735 -0.048870955 0.08666568 -0.16386695 0.04828768 0.03785451 0.0337669 -0.08102328
0.07921294 -0.00957141 -0.04026901 0.082846925 0.08120035 -0.08864616 0.029361384 0.046637546
0.036254812 0.0072966623 0.08551213 -0.081029855 -0.06641788 -0.06058393 -0.040672056 0.049484137
0.07183188 -0.02438266 -0.08247285 -0.08193768 -0.043593448 -0.021724815 0.06782618 0.07102285
0.08883462 0.010348488 0.058964502 -0.06768825 -0.012977676 -0.029438911 -0.07970029 0.05494991
0.120962955 0.066351846 0.0655466 0.038113385 -0.10225328 0.08185448 -0.06687607 -0.023827588
-0.0046414067 0.0943166 -0.048239022 -0.045956563 -0.054398477 0.067922555 -0.030060597 -0.042568274
-0.07027838 0.04755477 0.056859378 -0.07747027 -0.070003174 -0.03169616 0.04270539 0.061713863
-0.04859594 0.027718695 0.016408224 -0.051954906 -0.07760334 -0.05255698 -0.01772418 0.01726196
-0.05293719 0.14363985 -0.08646534 -0.104285456 -0.08212093 0.00034781944 -0.12552287 -0.0660585
-0.059948172 -0.050782546 0.10115342 0.08620136 0.09201651 -0.04408853 -0.034061734 0.01401989
-0.048175924 -0.02602299 0.09954973 -0.09901826 0.077949524 0.07857012 -0.112925135 0.05528654
0.033387538 -0.13176583 -0.05077199 -0.07708762 0.0705015 0.067125805 0.061327692 0.05259356
