models/RELIANCE.NS/reliance_lstm_final.pth (torch, 392485 bytes, 5 tensors)

lstm.weight_ih_l0 f4 [600, 10]
0.02056674 0.05706621 -0.07339149 -0.021593442 0.07323321 0.030834688 0.066812105 -0.018507864
0.07715556 -0.025003398 0.06255391 0.002439295 0.038638074 0.026994415 -0.026987694 0.04436665
0.022324404 0.1145599 -0.047970545 0.011101473 -0.0018095539 0.09201947 0.07513943 0.041872647
0.05957962 0.05081541 0.0695175 0.048089497 0.059822936 0.006968377 -0.036692042 0.008188597
-0.06821925 -0.007133414 0.044622988 0.060604423 0.01382065 -0.024805093 -0.006868916 -0.075961724
0.008012349 0.022649894 0.0014550511 0.089032695 0.096930906 -0.06470451 0.07366513 0.045089323
0.0015497874 0.018124321 0.008139485 -0.058750723 0.07843625 0.10231997 0.022697873 0.07394436
0.021320483 0.022923822 0.02554309 -0.015195299 0.020640548 0.07387693 -0.042949483 0.059747964
0.099633045 0.03424188 0.04887216 -0.04123608 -0.03739954 -0.03889679 0.094486825 -0.047582373
0.04841305 0.045213077 -0.06089463 -0.04210773 0.010650244 0.0008370102 -0.05403059 -0.039890647
0.06669944 -0.07004374 -0.021967784 0.041074827 -0.016981754 0.04452839 0.011796679 0.050033666
-0.068863295 -0.0041362224 0.025117584 0.028703244 0.031616528 -0.035724908 0.0059311646 -0.024036108
-0.019011632 -0.04994575 0.034493394 0.02703198 -0.08966846 -0.12292041 0.06403533 -0.06479685
0.024198726 -0.027082292 0.068471886 -0.027678844 0.02565448 -0.0445679 0.025882157 -0.0057951226
-0.028434046 -0.017548606 0.012115162 0.0226921 0.085501276 0.050925754 0.037282437 -0.07582615
0.0488658 -0.04716845 0.060799673 -0.039169967 0.048368577 0.026980441 0.08744221 0.09782643
0.05105806 -0.050315455 0.07094247 -0.02682792 -0.03147664 0.13092329 0.13326445 0.06380779
-0.027019221 0.1506032 0.012596173 -0.023976104 0.007150995 -0.035384424 -0.036191143 0.042966254
-0.059382167 0.059195258 0.039113924 -0.05460298 0.0780328 0.064549714 0.010829563 0.038879007
0.02931423 0.043804638 -0.01662716 -0.002460718 -0.040624004 0.001325898 -0.012364889 0.011837345
0.089440584 0.04180648 0.07575974 0.17355317 0.07362376 0.020426529 0.14584129 0.18834814
-0.0058584963 0.020297678 -0.010823239 -0.07886317 0.07601742 0.019713722 0.060480013 -0.024444347
0.006942045 -0.036865477 0.021558128 -0.02192298 -0.025412139 0.014886078 0.015588903 0.08194223
-0.03627572 0.087394185 0.047416344 0.012986555 0.0708412 0.06939893 -0.06913229 0.036615644
-0.0493344 0.02160871 0.023285069 0.019107366 -0.06164962 -0.036623728 0.049590126 0.049702078
0.040388044 -0.043820955 -0.051844645 -0.01419146 0.04980538 -0.06880911 0.041907802 0.0045162877
-0.009259316 0.06534419 0.06881464 0.1061672 0.06970871 0.11647239 0.035965774 -0.032163497
0.026043842 0.030256158 -0.002455357 -0.06052355 0.015842827 -0.007242733 0.07926153 -0.0012369752
-0.058102287 0.053243626 0.016887221 -0.07137466 0.057912104 -0.027941965 0.039161827 0.0048302226
-0.005336549 0.0053155045 0.018926408 -0.009744046 0.04145931 0.038336575 -0.06869406 0.07368507
0.077415854 0.08553877 0.014768444 0.05343272 0.098110706 0.053446323 0.003129221 0.00119086
-0.02391199 -0.050588425 0.059150115 -0.012130683 0.09573321 0.07751607 0.07526121 0.10096088
00000000: 947b a83c 42be 693d 474e 96bd bbe4 b0bc
00000010: 4bfb 953d 0799 fc3c c9d4 883d ce9d 97bc
00000020: bc03 9e3d edd3 ccbc 441c 803d 94dc 1f3b
00000030: f542 1e3d 6423 dd3c 4c15 ddbc ceb9 353d
00000040: abe1 b63c 619e ea3d c37c 44bd f4e2 353c
00000050: 8e2e edba b474 bc3d b4e2 993d a782 2b3d
00000060: c209 743d d223 503d 315f 8e3d 7ef9 443d
00000070: e508 753d fc56 e43b 654a 16bd 7729 063c
00000080: 89b6 8bbd 6abf e9bb 98c6 363d 583c 783d
00000090: 0270 623c 0d34 cbbc a514 e1bb d291 9bbd
000000a0: 3a46 033c 458c b93c 6ab7 be3a c656 b63d
000000b0: b683 c63d cc83 84bd bedd 963d 95af 383d
000000c0: 3c22 cb3a 7579 943c 795b 053c 99a4 70bd
000000d0: 2fa3 a03d 228d d13d e4f0 b93c 2470 973d
000000e0: 4ba8 ae3c bdca bb3c be3f d13c b4f5 78bc
000000f0: 5e16 a93c ca4c 973d cceb 2fbd 48ba 743d
00000100: 690c cc3d 3741 0c3d 2d2e 483d 2ae7 28bd
00000110: 4330 19bd 3e52 1fbd 4f82 c13d bce5 42bd
00000120: c34c 463d 5931 393d a66c 79bd 2879 2cbd
00000130: 5c7e 2e3c ce6a 5b3a 2e4f 5dbd 6064 23bd
00000140: b799 883d 1873 8fbd c8f5 b3bc 143e 283d
00000150: 521d 8bbc 6763 363d dc46 413c 1af0 4c3d
00000160: 3308 8dbd 2689 87bb 64c3 cd3c 1123 eb3c
00000170: 5580 013d 4854 12bd 375a c23b 5fe7 c4bc
00000180: 48be 9bbc ea93 4cbd f248 0d3d 2c72 dd3c
00000190: 19a4 b7bd b2bd fbbd f524 833d 36b4 84bd
000001a0: 683c c63c afdb ddbc fd3a 8c3d bebe e2bc
000001b0: 5829 d23c d58c 36bd d106 d43c 03e5 bdbb
000001c0: 84ee e8bc 18c2 8fbc ac7e 463c c8e4 b93c
000001d0: 4b1b af3d 8697 503d 78b5 183d be4a 9bbd
000001e0: 8127 483d b433 41bd 1409 793d b070 20bd
000001f0: 211e 463d 1606 dd3c e714 b33d 3959 c83d
00000200: 4222 513d 9417 4ebd 494a 913d 3ac6 dbbc
00000210: a6ed 00bd c110 063e 7a76 083e a9ad 823d
00000220: 6a57 ddbc ba37 1a3e 2e60 4e3c 8969 c4bc
00000230: e552 ea3b 42ef 10bd 2a3d 14bd 62fd 2f3d
00000240: b73a 73bd ba76 723d ec35 203d 60a7 5fbd
00000250: a9cf 9f3d a432 843d 7b6e 313c 983f 1f3d
00000260: 6524 f03c 7e6c 333d af35 88bc ff43 21bb
00000270: 5b65 26bd c1c9 ad3a 1a96 4abc 6cf1 413c
00000280: a02c b73d 463d 2b3d ec27 9b3d ecb7 313e
00000290: 0ec8 963d 8955 a73c 6b57 153e 56de 403e
000002a0: a1f8 bfbb 5147 a63c f453 31bc 0483 a1bd
000002b0: 05af 9b3d ac7e a13c e4b9 773d 833f c8bc
000002c0: 187a e33b 4100 17bd ac9a b03c d297 b3bc
000002d0: 1e2d d0bc bde4 733c 9968 7f3c 54d1 a73d
000002e0: d995 14bd b9fb b23d a437 423d 8fc5 543c
000002f0: 3115 913d 0721 8e3d 3b95 8dbd 49fa 153d
00000300: de12 4abd c004 b13c 54c0 be3c 0d87 9c3c
00000310: 5084 7cbd c302 16bd 041f 4b3d 6894 4b3d
00000320: ef6d 253d 9a7d 33bd 0d5b 54bd 4c83 68bc
00000330: ba00 4c3d caeb 8cbd 84a7 2b3d 5efd 933b
00000340: 63b4 17bc 2dd3 853d b1ee 8c3d 306e d93d
00000350: 71c3 8e3d 1489 ee3d d950 133d dfbd 03bd
00000360: e559 d53c c3db f73c 0eea 20bb 8be7 77bd
00000370: d1c8 813c 7354 edbb de53 a23d 0022 a2ba
00000380: aafc 6dbd fd15 5a3d 1257 8a3c e12c 92bd
00000390: 3e35 6d3d 8ce6 e4bc 2768 203d d846 9e3b
000003a0: 38de aebb af2d ae3b 8e0b 9b3c 7ea5 1fbc
000003b0: 3dd1 293d d006 1d3d 79af 8cbd 33e8 963d
000003c0: 348c 9e3d f32e af3d 58f7 713c 45dc 5a3d
000003d0: 44ee c83d 88ea 5a3d 9e13 4d3b a216 9c3a
000003e0: 14e3 c3bc cf35 4fbd 6447 723d c6bf 46bc
000003f0: c60f c43d bfc0 9e3d 8d22 9a3d 94c4 ce3d

lstm.weight_hh_l0 f4 [600, 150]
0.07473397 -0.05318366 -0.02290342 0.043400448 -0.014014566 0.04545279 -0.013271463 -0.04947506
0.046243254 0.03162012 0.022048509 0.0708648 -0.017322112 0.04279586 -0.071265645 -0.04953017
-0.041549165 -0.025672281 0.0046833665 -0.0527319 0.047478843 0.06352034 0.04279568 0.07840695
-0.012662519 0.04762802 -0.016231589 -0.015105696 0.06449369 0.002365858 -0.091887034 0.037509263
0.05078494 0.025169965 -0.048429113 0.06282763 -0.06744812 0.0349898 0.05508147 -0.027412253
-0.007586126 0.069606125 0.04637638 -0.049831364 -0.04155409 -0.03605632 -0.033178173 0.025301388
0.0033535943 -0.08296352 -0.07122012 -0.0105352765 -0.052720334 -0.08363372 -0.06282571 -0.05247899
-0.10015309 0.004057324 0.02808263 0.054713134 -0.06503159 0.090472214 0.06298031 0.025756702
0.020385228 0.040220134 -0.039800495 -0.01918914 -0.02088057 -0.050918616 -0.004308204 0.050109528
-0.041970957 0.0071216556 -0.03817514 0.06839189 0.06388278 -0.069142714 0.067361966 -0.021653417
-0.061464455 -0.0019391886 -0.021076994 -0.010112309 0.019973772 0.031499885 0.009445134 -0.030342229
0.017800938 0.067165695 0.004919619 0.047944576 0.06094171 0.0038503704 -0.058098104 0.056669828
0.07165424 0.07388981 -0.06623097 0.013373988 0.023083746 -0.0015676568 -0.069544084 0.0097746495
-0.043138277 0.07515534 -6.232617e-05 0.039088774 0.018706374 -0.024061022 0.079260625 -0.050293032
0.028930748 -0.024178527 -0.034750786 0.04301714 -0.029324396 0.049649272 0.030744493 0.02231873
0.06571404 -0.04290746 0.055387445 -0.0625039 -0.001239998 0.013879353 -0.034456808 0.06497015
-0.049895886 0.06553121 -0.07276133 -0.062106505 0.09244853 0.03744314 0.06876274 0.06914721
-0.019856049 -0.038477898 0.007902638 -0.039583392 -0.00043784274 0.056611296 0.01375275 -0.0355165
-0.055195455 -0.024352731 -0.0125613175 -0.0009385938 -0.03517013 -0.062057324 0.035665866 0.0031691135
0.03624928 0.10049011 -0.029036228 0.02698813 0.011433675 -0.023052778 0.03645488 0.04399657
0.023419127 -0.031820998 0.094211705 -0.034931995 -0.028682366 0.009905211 -0.0640613 0.010636666
-0.08374785 0.055232625 -0.036185447 0.04214746 0.024329934 -0.014494121 -0.036864456 0.012584582
-0.008241098 0.05924612 -0.021949211 -0.07667025 -0.04213654 0.00563427 -0.06773812 0.058970775
-0.08603398 -0.0002925666 0.008604814 0.0324339 -0.01454968 -0.039896343 0.049361866 0.00463114
0.032701537 0.034418993 0.03020295 -0.020646652 -0.004527908 0.10335376 0.056683596 -0.01808479
-0.033206243 0.023654582 0.008741054 0.016557861 0.03225939 0.052132595 0.114522494 0.05810754
-0.048021466 0.024320198 0.07224541 -0.084776305 -0.06292235 0.055117946 0.01574975 -0.012986522
0.00013988512 -0.023858875 0.022681477 0.05925241 -0.090127334 0.060211215 -0.0504994 0.0012773492
-0.011039151 -0.035385586 0.0062838485 0.057849094 -0.06595367 0.095171295 -0.02440668 0.051989704
-0.089894705 0.112867154 -0.060552344 -0.05792873 -0.10144045 0.006115723 -0.056541663 0.004072126
0.06422418 -0.04711013 -0.036648303 0.07827984 0.060752343 -0.07321163 0.08135057 0.056208964
0.023730593 0.02818638 -0.010068557 -0.01813694 -0.022973077 0.020527603 -0.0008916908 -0.057796933
00000000: 200e 993d 1cd7 59bd f49f bbbc abc4 313d
00000010: 5a9d 65bc b42c 3a3d 8d70 59bc 5ca6 4abd
00000020: 9169 3d3d 1984 013d 139f b43c 9021 913d
00000030: 1ae7 8dbc b64a 2f3d b9f3 91bd 26e0 4abd
00000040: 752f 2abd ad4e d2bc ed76 993b 68fd 57bd
00000050: 2d79 423d f416 823d 864a 2f3d d393 a03d
00000060: 7476 4fbc 9915 433d 1cf8 84bc e27d 77bc
00000070: 4515 843d 830c 1b3b 452f bcbd 50a3 193d
00000080: df03 503d 3e31 ce3c 9b5d 46bd c6ab 803d
00000090: 3d22 8abd 7751 0f3d 1c9d 613d a98f e0bc
000000a0: 0a95 f8bb a88d 8e3d 29f5 3d3d f91b 4cbd
000000b0: 9f34 2abd cbaf 13bd d6e5 07bd db44 cf3c
000000c0: fac7 5b3b c7e8 a9bd dbdb 91bd 279c 2cbc
000000d0: 47f1 57bd 2848 abbd c4aa 80bd 36f4 56bd
000000e0: 101d cdbd 4df3 843b 8b0d e63c e11a 603d
000000f0: 482f 85bd 7f49 b93d d2fb 803d b8ff d23c
00000100: ecfe a63c debd 243d d805 23bd 8b32 9dbc
00000110: bb0d abbc 0a90 50bd d62b 8dbb a63f 4d3d
00000120: bde9 2bbd c75c e93b 895d 1cbd 0c11 8c3d
00000130: fad4 823d b29a 8dbd 12f5 893d 8262 b1bc
00000140: 27c2 7bbd 5f2c feba a9a9 acbc 19ae 25bc
00000150: 09a0 a33c 0606 013d c3bf 1a3c 4490 f8bc
00000160: 46d3 913c 2b8e 893d c134 a13b 8861 443d
00000170: 049e 793d 7f56 7c3b 47f8 6dbd 9f1e 683d
00000180: 75bf 923d 8a53 973d 1aa4 87bd 921e 5b3c
00000190: 201a bd3c d579 cdba 216d 8ebd da25 203c
000001a0: c3b1 30bd 0beb 993d 1cb5 82b8 8d1b 203d
000001b0: 1c3e 993c 9f1b c5bc 6553 a23d 1100 4ebd
000001c0: 2d00 ed3c 0c12 c6bc d756 0ebd be32 303d
000001d0: b739 f0bc 095d 4b3d e0db fb3c c5d5 b63c
000001e0: 1595 863d bcbf 2fbd f2dd 623d 0b02 80bd
000001f0: 6e87 a2ba 3a66 633c 9522 0dbd 120f 853d
00000200: a15f 4cbd 3a35 863d e403 95bd 6463 7ebd
00000210: a855 bd3d fa5d 193d 7bd3 8c3d 0d9d 8d3d
00000220: 27a9 a2bc 009b 1dbd 117a 013c 3222 22bd
00000230: 428e e5b9 3fe1 673d 3753 613c c079 11bd
00000240: a114 62bd 617f c7bc fccd 4dbc f70b 76ba
00000250: 8e0e 10bd d22f 7ebd 5f16 123d e7b0 4f3b
00000260: 207a 143d c2cd cd3d 62dd edbc 3616 dd3c
00000270: 4f54 3b3c 2ed9 bcbc b651 153d bf35 343d
00000280: 78d9 bf3c bc56 02bd 11f2 c03d da14 0fbd
00000290: 48f7 eabc 7749 223c 9232 83bd 6945 2e3c
000002a0: fe83 abbd 9b3b 623d 3137 14bd d1a2 2c3d
000002b0: 924f c73c c078 6dbc 2fff 16bd 902f 4e3c
000002c0: ac05 07bc 0fac 723d d5ce b3bc 4b05 9dbd
000002d0: 5d97 2cbd af9f b83b 49ba 8abd 578b 713d
000002e0: 9532 b0bd a063 99b9 35fb 0c3c 69d9 043d
000002f0: c861 6ebc 596a 23bd ab2f 4a3d d1c0 973b
00000300: 0cf2 053d eefa 0c3d 2d6c f73c 2b23 a9bc
00000310: d85e 94bb 23ab d33d 0f2d 683d 8e26 94bc
00000320: 4503 08bd 41c7 c13c a336 0f3c 5aa4 873c
00000330: 6c22 043d fd88 553d c58a ea3d 2c02 6e3d
00000340: 28b2 44bd 273b c73c 67f5 933d 339f adbd
00000350: 6fdd 80bd 5bc3 613d 9f05 813c 6cc5 54bc
00000360: 20ae 1239 b073 c3bc 81ce b93c a8b2 723d
00000370: ae94 b8bd 09a0 763d 75d8 4ebd ba6c a73a
00000380: 8edd 34bc 7af0 10bd bee8 cd3b 2cf3 6c3d
00000390: b812 87bd 2be9 c23d 85f0 c7bc 28f3 543d
000003a0: b71a b8bd e526 e73d bc05 78bd ad46 6dbd
000003b0: 03c0 cfbd 6766 c83b 3b98 67bd 786f 853b
000003c0: f887 833d 8df6 40bd 881c 16bd 2e51 a03d
000003d0: 73d7 783d fbef 95bd 219b a63d 5f3b 663d
000003e0: a966 c23c 20e7 e63c 97f6 24bc ec93 94bc
000003f0: 0932 bcbc 8129 a83c 5bc0 69ba 7abc 6cbd

lstm.bias_ih_l0 f4 [600]
0.02273035 0.04680663 -0.0043571 -0.083662376 0.06010803 -0.043885417 0.05148567 0.012126712
-0.012469111 0.082430586 -0.068899855 0.05791762 0.030016797 0.05767822 0.03191409 -0.057949908
-0.017866936 0.051944606 0.006331768 0.035547957 0.075647615 0.08826021 -0.05824673 0.049208056
-0.04244006 -0.053958483 0.08713352 -0.02819494 -0.0020020185 -0.010891646 -0.078510486 0.017535815
-0.045025297 -0.010252526 -0.053701334 0.08172947 0.07129947 -0.036671575 -0.03799465 0.00088019867
-0.06637626 0.063040204 0.027972408 0.033488564 0.05269138 -0.017800108 0.03836408 0.0041620107
0.031649396 0.05990622 0.039902505 0.034905896 0.049268596 0.038174186 0.059097487 -0.008937307
-0.041847292 -0.08911863 0.07050559 -0.08563748 -0.009232071 0.078727394 -0.07322053 0.033957306
-0.01815178 -0.011852098 0.026081447 0.045868065 0.0032104345 -0.02015573 0.15552689 0.008538425
0.08215433 -0.086720034 -0.029722666 -0.04186153 -0.020665377 0.042216428 -0.04830051 -0.08648519
0.010918214 0.08780839 -0.0094251335 -0.05981227 -0.038333505 -0.052093033 -0.015730837 0.0034803057
0.02465258 0.02543341 -0.020620132 -0.05075828 -0.063110724 0.004808496 0.09238595 0.08043152
-0.0007716167 -0.06682544 0.074246205 0.0051128184 -0.045641977 0.05141354 0.012941364 -0.068094194
0.03050262 -0.016677218 -0.0031504922 0.07946854 0.04272582 -0.022842064 -0.031834036 -0.018374335
-0.045606792 0.00086448353 0.051856022 -0.073032916 -0.032792624 -0.06251006 -0.018034846 0.08358168
-0.024295492 -0.054021187 -0.0033729589 0.08243188 -0.026650518 0.012364925 -0.032944478 -0.015087745
-0.02523084 0.079260714 -0.05949688 -0.05412767 -0.023866685 -0.04736694 0.08376653 0.01533614
-0.042059902 0.03550146 -0.018829355 -0.07281901 -0.049350068 0.01203594 0.0093152365 -0.031719223
0.0056564654 -0.04964167 -0.047086447 -0.08116686 -0.0054195756 -0.07285049 0.0448129 0.0018165427
0.07394513 0.057353653 -0.009728399 -0.020906249 0.060624007 0.009287102 -0.014309119 0.032571327
-0.0015050063 -0.035734326 -0.014171628 0.0022771705 -0.025516178 -0.07725182 -0.094255395 -0.032190382
0.030863157 0.06607603 0.00025738333 -0.023744866 0.014204773 0.021420775 0.089437805 0.0111314235
-0.06339656 0.025076471 0.08569763 -0.08070703 0.023401193 -0.02010825 0.030511217 -0.05686315
0.012471972 0.0631282 0.0077696657 0.08200295 0.03933624 -0.087848164 -0.062370013 -0.020003648
-0.02107149 -0.06826181 0.07989829 -0.034155186 -0.040540013 0.04686665 0.073358655 -0.018566635
-0.049847037 -0.056866806 0.030397404 0.0025413134 0.028391862 0.030382972 0.050997723 -0.07310318
0.04624388 -0.0255415 0.025991658 -0.08879317 -0.03642728 0.056938868 0.004989162 -0.03532762
-0.054404773 0.06971451 -0.040265966 0.053439863 -0.049644634 -0.0011202561 -0.033841908 0.07421255
0.017792936 0.024687223 0.07250284 -0.05911523 -0.079962626 -0.0077908346 -0.049563274 -0.032864373
-0.038248476 -0.02730116 -0.014828023 -0.027705256 -0.038131453 0.06631078 -0.0029341534 0.017484011
0.06845426 0.067006946 0.018770738 -0.053639907 -0.0011705147 0.004546524 0.0248047 -0.037599254
0.055227328 -0.040839333 0.06314387 -0.0011117618 -0.0016294691 -0.06021002 -0.0633129 -0.061504025
00000000: 0035 ba3c 4fb8 3f3d 01c6 8ebb 2e57 abbd
00000010: d633 763d 32c1 33bd a3e2 523d 1eaf 463c
00000020: 3e4b 4cbc 5ed1 a83d 5e1b 8dbd 073b 6d3d
00000030: c9e5 f53c ff3f 6c3d 59b8 023d e25c 6dbd
00000040: ae5d 92bc dec3 543d b87a cf3b bc9a 113d
00000050: 23ed 9a3d c5c1 b43d 2094 6ebd 638e 493d
00000060: a1d5 2dbd 9203 5dbd 0f73 b23d 13f9 e6bc
00000070: 4c34 03bb e072 32bc 1bca a0bd 45a7 8f3c
00000080: 726c 38bd 36fa 27bc eef5 5bbd c861 a73d
00000090: 7505 923d ef34 16bd 47a0 1bbd 22bd 663a
000000a0: 47f0 87bd 391b 813d 6426 e53c 4e2b 093d
000000b0: ebd2 573d 88d1 91bc a723 1d3d 7a61 883b
000000c0: cca2 013d 3960 753d cf70 233d 7cf9 0e3d
000000d0: decd 493d 895c 1c3d 3510 723d c86d 12bc
000000e0: 1168 2bbd d483 b6bd 3c65 903d b462 afbd
000000f0: 1d42 17bc d43b a13d a5f4 95bd d116 0b3d
00000100: 0bb3 94bc 4d2f 42bc c2a8 d53c 27e0 3b3d
00000110: 2766 523b a11d a5bc 7142 1f3e c0e4 0b3c
00000120: 8840 a83d 469a b1bd f37c f3bc ff76 2bbd
00000130: 704a a9bc 22eb 2c3d c1d6 45bd 261f b1bd
00000140: 4fe2 323c e3d4 b33d e06b 1abc b6fd 74bd
00000150: 9803 1dbd 815f 55bd f5dd 80bc d715 643b
00000160: 35f4 c93c ba59 d03c 8deb a8bc eae7 4fbd
00000170: 3240 81bd 9790 9d3b d834 bd3d 48b9 a43d
00000180: 5246 4aba c7db 88bd 650e 983d 6e89 a73b
00000190: 15f3 3abd 0197 523d 0408 543c f874 8bbd
000001a0: a1e0 f93c a99e 88bc 7d78 4ebb 67c0 a23d
000001b0: 4501 2f3d 481f bbbc 6864 02bd c685 96bc
000001c0: 30ce 3abd 829e 623a fb66 543d 4892 95bd
000001d0: 8f51 06bd 4605 80bd d0bd 93bc df2c ab3d
000001e0: 5707 c7bc 5245 5dbd dc0c 5dbb 0cd2 a83d
000001f0: 3052 dabc 4196 4a3c caf0 06bd 9732 77bc
00000200: e8b0 cebc 7153 a23d 00b3 73bd fab4 5dbd
00000210: 1184 c3bc d603 42bd c98d ab3d 6f44 7b3c
00000220: 0147 2cbd fb69 113d 0540 9abc 2222 95bd
00000230: 4c23 4abd 6432 453c ef9e 183c 04ec 01bd
00000240: df59 b93b 1055 4bbd b8dd 40bd d03a a6bd
00000250: b296 b1bb a332 95bd bb8d 373d 0f19 ee3a
00000260: 8b70 973d aaeb 6a3d dd63 1fbc 9543 abbc
00000270: e150 783d ee28 183c cc70 6abc 8369 053d
00000280: a243 c5ba 285e 12bd 1e30 68bc 953c 153b
00000290: 4e07 d1bc 3436 9ebd f908 c1bd 10da 03bd
000002a0: bbd4 fc3c df52 873d 68f1 8639 9884 c2bc
000002b0: 23bb 683c 9f7a af3c 2b2b b73d 9360 363c
000002c0: 0ed6 81bd 2c6d cd3c 3d82 af3d ba49 a5bd
000002d0: dcb3 bf3c 0fba a4bc a9f2 f93c 56e9 68bd
000002e0: 3e57 4c3c 5c49 813d ae98 fe3b 2af1 a73d
000002f0: 0a1f 213d bde9 b3bd b377 7fbd b1de a3bc
00000300: 1e9e acbc d9cc 8bbd b7a1 a33d 4fe6 0bbd
00000310: 490d 26bd 3ff7 3f3d 103d 963d 0e19 98bc
00000320: 682c 4cbd 2bed 68bd fa03 f93c 2a8c 263b
00000330: 0d96 e83c b6e5 f83c fde2 503d 1fb7 95bd
00000340: 396a 3d3d 683c d1bc 75ec d43c 32d9 b5bd
00000350: c634 15bd bb38 693d 207c a33b b2b3 10bd
00000360: 8ad7 5ebd 7bc6 8e3d eded 24bd c2e3 5a3d
00000370: 2c58 4bbd 8fd5 92ba d09d 0abd c0fc 973d
00000380: 7ec2 913c dc3c ca3c 5e7c 943d d022 72bd
00000390: 72c3 a3bd 424a ffbb dc02 4bbd cb9c 06bd
000003a0: 6faa 1cbd afa6 dfbc 3cf1 72bc 22f6 e2bc
000003b0: ba2f 1cbd f2cd 873d ed4a 40bb a13a 8f3c
000003c0: bf31 8c3d f03a 893d 17c5 993c 85b5 5bbd
000003d0: f56b 99ba 02fb 943b 3a33 cb3c ad01 1abd
000003e0: 0d36 623d 2547 27bd 9351 813d 89b8 91ba
000003f0: e993 d5ba c89e 76bd 32aa 81bd a5eb 7bbd

lstm.bias_hh_l0 f4 [600]
-0.09157462 -0.035532948 0.014495251 -0.003606838 0.08320417 -0.0030189645 0.019088682 0.012357382
0.021218752 0.06882198 -0.04901124 0.0130324215 0.039906446 0.05679828 -0.03887624 -0.016852586
-0.01220397 0.04710766 0.05489312 0.016087499 -0.029500198 0.020656545 -0.054084916 0.013265618
-0.022260072 0.084434226 -0.022138579 -0.03119002 -0.056237668 0.05678251 -0.07792682 0.08020167
0.043272793 -0.0003543286 0.035422713 -0.06647585 -0.019554256 -0.05825815 -0.051136408 -0.07038478
0.0036058654 -0.02560409 0.015023926 -0.019008292 0.03983822 0.07393777 0.02428274 0.021528129
0.06158928 0.057826787 0.008070572 0.024531456 -0.016266894 0.06785661 0.040224753 -0.063273236
0.066414006 0.03860024 -0.07169747 -0.058827683 -0.009222594 0.08466326 -0.052346934 0.052608002
0.04431901 -0.065991186 -0.064725816 0.065496065 0.0069755376 -0.059026755 0.0568263 -0.06369517
0.003887705 -0.07029986 -0.04778678 0.026244506 -0.020153236 -0.04199019 0.07641352 -0.044599425
0.038880266 0.07208348 0.015785994 0.055413723 0.0154627105 -0.04820179 0.07523047 0.008565355
0.047604382 -0.020599008 -0.049381115 -0.037183773 0.047915023 -0.059000395 0.05788903 -0.009096231
0.059435043 -0.05414358 -0.06563506 0.07495334 0.03825164 0.045093436 -0.071036614 0.026711678
0.03190146 -0.06733237 0.11060983 -0.033455893 -0.07190855 0.067685805 0.0062250677 -0.062451195
-0.028482271 0.067201495 -0.012687274 0.066985145 -0.0148706185 -0.039942045 0.0980538 0.091156535
0.054662198 -0.03176917 0.063944764 -0.021514472 -0.04470533 -0.07451794 0.039014656 0.03579499
0.083665945 -0.031145792 0.04450316 -0.015677245 -0.0011793491 -0.063767396 0.009251904 0.024413336
-0.007080411 0.0043043285 0.03750897 -0.061506856 0.05704347 0.026714703 0.039607722 0.034610853
-0.043693677 -0.0040713623 0.033909112 -0.044381943 0.013026294 -0.041598007 0.018049655 0.07448273
0.0039016264 -0.07129968 0.01652863 -0.0077492893 -0.05305094 -0.072577186 -0.044730835 -0.061393443
0.059549272 0.06392177 -0.024641942 0.012035523 0.011520629 -0.07239196 0.023660688 0.016273966
-0.03668528 0.061659995 -0.00035702673 0.03531737 0.00014044484 -0.0089419875 -0.036033966 0.06175083
0.031024195 -0.06546404 0.00935922 -0.0015697136 0.055163503 -0.03527823 -0.029412886 -0.042129777
0.007890847 0.022699479 0.075174205 0.07810837 0.07115714 -0.05316124 -0.02768227 -0.060705516
-0.056381993 0.064684615 0.052589014 -0.019225497 -0.034047533 -0.0307549 -0.0761904 -0.025855465
-0.07411872 -0.0016019766 -0.033021078 -0.044090744 -0.072724886 0.030017659 -0.04913729 -0.08141907
0.05967285 -0.027728602 -0.054326877 -0.02342357 -0.06776027 0.08646037 0.073421046 0.037490726
-0.057111215 0.067767195 0.04655452 -0.033020876 -0.011594236 -0.030147241 -0.07294396 -0.03946187
-0.058996134 0.014514732 -0.079400584 0.0014626188 0.015643016 -0.014893515 0.061651256 -0.003001169
-0.059672426 -0.06969694 -0.08077985 -0.0062860777 -0.08183416 -0.04848909 0.025869237 0.05963102
0.053425632 -0.054282505 0.014681843 0.03782555 0.06727914 -0.039205 0.044331748 -0.049883008
0.03644647 0.05430818 -0.06892204 -0.09746461 0.018831111 0.03931365 -0.10677477 0.006189851
00000000: 798b bbbd ff8a 11bd 7d7d 6d3c b360 6cbb
00000010: f366 aa3d d2d9 45bb de5f 9c3c 9e76 4a3c
00000020: f3d2 ad3c 8af2 8c3d 03c0 48bd f085 553c
00000030: f174 233d 50a5 683d b13c 1fbd 6f0e 8abc
00000040: 29f3 47bc f6f3 403d 9cd7 603d eec9 833c
00000050: 66aa f1bc ea37 a93c 2588 5dbd 0958 593c
00000060: c15a b6bc daeb ac3d f75b b5bc 3682 ffbc
00000070: 7859 66bd c794 683d 1998 9fbd c640 a43d
00000080: d03e 313d 2ec5 b9b9 6817 113d 7e24 88bd
00000090: 3f30 a0bc 19a0 6ebd 6974 51bd e525 90bd
000000a0: 6250 6c3b abbf d1bc ea26 763c 47b7 9bbc
000000b0: 672d 233d b06c 973d 99ec c63c c25b b03c
000000c0: 0a45 7c3d c8db 6c3d 6f3a 043c 31f6 c83c
000000d0: 2642 85bc 68f8 8a3d b6c2 243d 6695 81bd
000000e0: 1104 883d 491b 1e3d 20d6 92bd 4cf5 70bd
000000f0: 5d1a 17bc ee63 ad3d bd69 56bd 7d7b 573d
00000100: da87 353d 6326 87bd f88e 84bd cd22 863d
00000110: 0d93 e43b 0ac6 71bd b2c2 683d 9d72 82bd
00000120: dec8 7e3b 5ff9 8fbd 12bc 43bd b8fe d63c
00000130: 6618 a5bc e8fd 2bbd b17e 9c3d e3ad 36bd
00000140: ea40 1f3d 81a0 933d a151 813c 80f9 623d
00000150: 4f57 7d3c 3d6f 45bd 6f12 9a3d b455 0c3c
00000160: d0fc 423d 40bf a8bc da43 4abd 034e 18bd
00000170: 8b42 443d 66aa 71bd 0c1d 6d3d 5c08 15bc
00000180: 2972 733d a9c5 5dbd ad6b 86bd 2381 993d
00000190: c0ad 1c3d e5b3 383d a57b 91bd 73d2 da3c
000001a0: 1bab 023d 8ee5 89bd 6887 e23d 0c09 09bd
000001b0: ca44 93bd db9e 8a3d a7fb cb3b d3cc 7fbd
000001c0: a753 e9bc f0a0 893d 49de 4fbc 822f 893d
000001d0: e5a3 73bc 459a 23bd 6ed0 c83d 47b0 ba3d
000001e0: 78e5 5f3d 6420 02bd 79f5 823d 1e3f b0bc
000001f0: f01c 37bd dd9c 98bd d5cd 1f3d c49d 123d
00000200: 0d59 ab3d 7625 ffbc f248 363d 916d 80bc
00000210: 6494 9aba 7b98 82bd 4c95 173c 7afe c73c
00000220: cb02 e8bb 530b 8d3b 01a3 193d 9dee 7bbd
00000230: 6aa6 693d cbd8 da3c b53b 223d 1cc4 0d3d
00000240: 24f8 32bd 1069 85bb 48e4 0a3d d7c9 35bd
00000250: 3d6c 553c ac62 2abd dfdc 933c 678a 983d
00000260: 6eb2 7f3b 9105 92bd 0d67 873c c0ed fdbb
00000270: f14b 59bd 59a3 94bd ae37 37bd b177 7bbd
00000280: f0e9 733d 6be9 823d e6dd c9bc a430 453c
00000290: 05c1 3c3c 3c42 94bd 0fd4 c13c fb50 853c
000002a0: 4e43 16bd 318f 7c3d 512f bbb9 f2a8 103d
000002b0: 6044 1339 6a81 12bc 5a98 13bd 70ee 7c3d
000002c0: 7426 fe3c 0312 86bd 6a57 193c d9be cdba
000002d0: 20f3 613d e87f 10bd 4bf3 f0bc 4690 2cbd
000002e0: 9c48 013c 42f4 b93c eff4 993d 48f7 9f3d
000002f0: d6ba 913d 9abf 59bd eec5 e2bc 59a6 78bd
00000300: cef0 66bd 5e79 843d 9467 573d ca7e 9dbc
00000310: 6d75 0bbd b3f1 fbbc b609 9cbd d7ce d3bc
00000320: 8ecb 97bd 6af9 d1ba 1c41 07bd 7f98 34bd
00000330: c9f0 94bd 98e7 f53c 2f44 49bd 0bbf a6bd
00000340: 856b 743d 1827 e3bc dc85 5ebd c9e2 bfbc
00000350: e5c5 8abd 2212 b13d c65d 963d e08f 193d
00000360: 73ed 69bd 87c9 8a3d f4af 3e3d e640 07bd
00000370: c0f5 3dbc 59f7 f6bc a563 95bd c5a2 21bd
00000380: eea5 71bd 33cf 6d3c c69c a2bd 58b5 bf3a
00000390: c825 803c ee03 74bc 0786 7c3d 43af 44bb
000003a0: 136b 74bd 45bd 8ebd e86f a5bd 71fb cdbb
000003b0: ab98 a7bd 7f9c 46bd b9eb d33c a83f 743d
000003c0: d6d4 5a3d 5557 5ebd 1d8c 703c f7ee 1a3d
000003d0: a5c9 893d 6c95 20bd 3595 353d 2052 4cbd
000003e0: e548 153d 4172 5e3d 0027 8dbd 879b c7bd
000003f0: b443 9a3c 5a07 213d bbac dabd 3cd4 ca3b

linear.weight f4 [1, 150]
0.04138351 -0.0638558 0.040997688 -0.0018912707 0.038870577 0.054738753 -0.04047117 0.024569407
0.0074683703 -0.048246264 -0.024234407 -0.0029366969 -0.057339977 0.059772152 -0.0156247085 -0.018095175
0.084936336 -0.013768772 0.039144296 0.0017747614 0.022008302 -0.03823502 0.0030225578 -0.032541405
0.10806139 -0.057931595 0.09501283 0.08785696 -0.08803307 -0.019531123 -0.004576767 -0.07421645
0.08369712 0.05436793 0.053432234 -0.04589815 0.046343416 -0.043125834 -0.025576314 -0.029271394
-0.036829203 0.0363273 -0.06435099 0.0026178844 -0.05971921 0.07915572 0.08326508 0.035588436
0.07162952 -0.09785129 0.0374356 -0.07963985 -0.10228575 -0.03705562 -0.039390773 0.03532094
-0.059517127 -0.051230423 -0.057854366 0.028811838 0.055728883 0.079604164 -0.01254642 0.089363575
-0.08191923 0.04959686 0.026149468 0.027222823 -0.024875013 -0.087770596 0.11415445 -0.046871886
-0.06082053 -0.022975288 0.026933486 0.096772775 -0.013672497 -0.022536624 -0.056883376 -0.058666635
-0.0030265076 -0.09175601 0.03850743 -0.0011324306 0.054837305 0.07128058 0.07408399 -0.044929005
0.09926645 0.06297059 -0.085820034 -0.04891717 -0.028583655 -0.031446155 -0.07937677 -0.01678352
-0.042376313 -0.035051133 0.057217203 0.081866 -0.017387995 0.045463696 0.0014616493 0.040992558
-0.020620042 0.012553791 -0.069185816 -0.06445748 0.01647004 0.010691419 -0.01435089 0.043753475
0.03576873 0.042428236 0.009371913 0.04348895 0.0644999 0.061297145 -0.084065676 -0.053366344
-0.032430243 0.05946676 0.08639549 0.09190576 0.01186494 0.01968329 0.03989842 0.078462616
0.0152699435 0.057221122 0.015699843 -0.04463394 0.013107153 0.07197756 0.039802045 -0.061585363
-0.06250838 0.024582647 0.089862265 -0.06786924 -0.07963803 0.06324678 0.0033322442 -0.113781296
0.06876666 -0.0055873077 0.042187985 -0.0011469092 -0.011357067 -0.024889395
00000000: c181 293d d4c6 82bd 31ed 273d 84e4 f7ba
00000010: c136 1f3d be35 603d 19c5 25bd c845 c93c
00000020: 3bb9 f43b e09d 45bd 3c87 c6bc 9975 40bb
00000030: 53dd 6abd a5d3 743d c7fe 7fbc 553c 94bc
00000040: 1af3 ad3d 6a96 61bc c555 203d 1c9f e83a
00000050: c14a b43c 539c 1cbd 1b16 463b 234a 05bd
00000060: 4a4f dd3d ae49 6dbd 1696 c23d 5aee b33d
00000070: af4a b4bd bcff 9fbc b4f8 95bb cbfe 97bd
00000080: 6569 ab3d e8b0 5e3d c2db 5a3d b3ff 3bbd
00000090: 98d2 3d3d b7a4 30bd 6b85 d1bc 90ca efbc
000000a0: 38da 16bd efcb 143d 74ca 83bd d090 2b3b
000000b0: 219c 74bd 651c a23d e286 aa3d 2ec5 113d
000000c0: 7fb2 923d 4266 c8bd 1256 193d 381a a3bd
000000d0: 317b d1bd a2c7 17bd 3858 21bd b1ac 103d
000000e0: 3bc8 73bd fed6 51bd b3f8 6cbd ce06 ec3c
000000f0: f843 643d 8207 a33d 808f 4dbc 4004 b73d
00000100: 45c5 a7bd 1426 4b3d 6937 d63c 6602 df3c
00000110: afc6 cbbc 12c1 b3bd cfc9 e93d bcfc 3fbd
00000120: f31e 79bd ac36 bcbc 9da3 dc3c ce30 c63d
00000130: 9c02 60bc ba9e b8bc 8bfe 68bd 6d4c 70bd
00000140: 5f58 46bb 93ea bbbd f8b9 1d3d 116e 94ba
00000150: 159d 603d 8dfb 913d 59b9 973d 7a07 38bd
00000160: 354c cb3d baf6 803d 6ac2 afbd 5f5d 48bd
00000170: 4528 eabc afcd 00bd 4a90 a2bd 987d 89bc
00000180: c992 2dbd c791 0fbd 965c 6a3d 5da9 a73d
00000190: 4571 8ebc 2438 3a3d d094 bf3a d0e7 273d
000001a0: 5deb a8bc 6aae 4d3c 4bb1 8dbd 4902 84bd
000001b0: 2dec 863c 102b 2f3c ff1f 6bbc d836 333d
000001c0: 3b82 123d 3bc9 2d3d a78c 193c 7821 323d
000001d0: 8618 843d b712 7b3d a02a acbd ab96 5abd
000001e0: 93d5 04bd 6b93 733d 1ef0 b03d 1639 bc3d
000001f0: 2a65 423c da3e a13c 876c 233d 02b1 a03d
00000200: c92e 7a3c b260 6a3d f59c 803c 14d2 36bd
00000210: 62bf 563c f968 933d 7807 233d ef40 7cbd
00000220: 6504 80bd 8c61 c93c b509 b83d 07ff 8abd
00000230: 4319 a3bd 8787 813d c861 5a3b 2b06 e9bd
00000240: 89d5 8c3d bc15 b7bb 4fcd 2c3d e353 96ba
00000250: fe12 3abc d8e4 cbbc
