models/TATAMOTORS.NS/tata_motors_lstm.pth (torch, 168321 bytes, 5 tensors)

lstm.weight_ih_l0 f4 [400, 1]
000000 7c 61 97 3d f2 2b c5 bd 52 53 2c bd 7a 7c a4 3d
       0.073916405 -0.096275225 -0.042071648 0.080315545
000010 de 43 69 bd 10 8f 94 bb 2b e4 d0 3c f3 2f 61 3d
       -0.05694949 -0.004533656 0.025499424 0.05497737
000020 55 bb 5e bd 2a 03 97 bd 48 a9 99 3d b8 41 87 bd
       -0.054377872 -0.0737365 0.07502991 -0.06604332
000030 6b f6 e7 3c 73 cb 96 3d ec 2a 8b bd 1e a5 a8 bd
       0.028315743 0.073630236 -0.06795296 -0.082346186
000040 8a 50 3a bd 43 b9 14 bd f6 c4 b9 bd 07 98 30 3a
       -0.045486964 -0.03630949 -0.090707704 0.0006736521
000050 9a 91 c5 3d 7d 68 a9 bd b0 c0 b3 3d 9b ba 1d bd
       0.09646912 -0.08271883 0.087769866 -0.03850804
000060 a2 2c 6f bd 45 90 84 bd 6b eb 62 bc ce d8 3b bc
       -0.058392175 -0.0647283 -0.013850073 -0.0114652645
000070 46 57 b4 bd de 11 54 bd ef a1 39 be 58 11 c0 bd
       -0.088057086 -0.051774852 -0.18128179 -0.09378308
000080 7b 14 53 3d 7b 8b 6e 3d b6 6c 3d 3d 3f 5b 88 3d
       0.051533204 0.058238488 0.046246253 0.06658029
000090 9c 8b dd 3d d8 09 fc 3c e5 c9 af 3c 8a 7d aa 3d
       0.10817644 0.030766413 0.021458576 0.08324726
0000a0 df 2a 5b bc 49 44 1d bd 0a c7 5d bd 71 7b 23 3e
       -0.0133769205 -0.0383952 -0.054144897 0.15965058
0000b0 87 05 a9 bd 54 b7 00 3e d4 db 92 3b d1 db 8b bc
       -0.082530074 0.12569934 0.004481772 -0.01707259
0000c0 99 6c 41 3c 50 1a 04 bc 2b 0f d8 3d 56 d1 34 3c
       0.011805677 -0.008062914 0.10549768 0.011036238
0000d0 86 ba 43 3d fa bb 43 3d 0c 5b 8c 3b e1 b0 80 bd
       0.047785304 0.04778669 0.0042833146 -0.06283737
0000e0 ea f4 45 bd 7e 62 4c bd 87 f8 9d 3d b4 9b 82 bd
       -0.04832927 -0.049898617 0.077134185 -0.06377354
0000f0 3b 4e d3 3c 64 39 76 bb 2c 5f 03 3d d5 72 b0 3b
       0.02579414 -0.0037570829 0.032073185 0.005384783
000100 8b 5c 98 3d 55 00 9e bd d8 c6 43 3d d0 74 cb bc
       0.07439526 -0.07714907 0.047797054 -0.024835974
000110 84 02 ac bd 56 6d 80 bd 51 74 68 3d 56 6a 2d ba
       -0.08398917 -0.06270854 0.056751553 -0.00066152716
000120 dc e0 76 3d a3 c9 31 bd 42 d7 a2 bd 5d 88 f0 bd
       0.060273036 -0.043405186 -0.079512134 -0.11744759
000130 0e 1e 7e 3d 8e 62 64 bd 78 3e b2 bb 31 36 b6 bc
       0.06204038 -0.05575805 -0.0054395758 -0.022242637
000140 b9 95 ff 3c 7c 2a eb 3c 18 50 0a bd 21 88 13 3d
       0.031199323 0.028706782 -0.03376779 0.036018495
000150 2b 14 cd bd fd f3 b5 bd 17 85 04 3d f5 6c 4a 3d
       -0.10013612 -0.08884428 0.032353487 0.049420316
000160 e6 d8 3a bd ec 70 41 3d 47 b1 22 bd c3 58 a4 bd
       -0.045617007 0.04722683 -0.039719846 -0.080247425
000170 f6 73 0f bd eb 50 f0 ba 0c d0 d8 3d c6 a5 8f bd
       -0.0350227 -0.0018334662 0.10586557 -0.07014041
000180 4f f9 d9 bd b4 f0 1c 3d 34 4a ac 3d 3b aa 6e 3d
       -0.10643255 0.03831549 0.084125906 0.058267813
000190 8a 31 2c bd 2a 08 32 3d 7d ad 23 3d 5e 20 e9 bc
       -0.04203943 0.043464817 0.039960373 -0.028457817
0001a0 a9 18 f1 3c 7e d0 d5 bd fb 20 87 3c f3 4a 81 3c
       0.029430704 -0.10440157 0.016495219 0.015782809
0001b0 c4 5f d1 3b 5a a0 7a bd 1e b3 68 3b 54 33 19 bd
       0.00638959 -0.06118808 0.0035507153 -0.037402466
0001c0 2e 46 60 bd ae b0 b1 bd cf 43 bd 3d e8 36 63 3d
       -0.05475443 -0.08676277 0.09241449 0.055472285
0001d0 20 b9 52 3d dd 64 18 bd 18 77 17 3b 00 37 00 3d
       0.05144608 -0.037205566 0.0023111757 0.031302452
0001e0 53 1a 9e 3d 99 33 59 bd 97 8e bd 3d ab 0d 88 bc
       0.07719865 -0.053027723 0.092557125 -0.01660808
0001f0 94 d8 cb bd 15 bd b0 3d 90 d5 f4 3c 5f d0 d4 bd
       -0.099534184 0.086298145 0.02988699 -0.10391306
000200 1d 54 17 bd fc e5 a6 3d 17 30 19 bd d9 29 9d 3d
       -0.03694545 0.08149335 -0.037399378 0.076739974
000210 1f 96 92 3d 6f f7 98 bd 82 af d3 bd 14 d5 7f bc
       0.071575396 -0.07469069 -0.1033621 -0.015614767
000220 e3 f0 13 3d 7e da 86 3d 82 a9 8f 3d b2 2e b7 3d
       0.0361184 0.06584643 0.07014753 0.08944453
000230 a8 1d 0a 3d 01 e0 e6 bd f4 e6 e1 bd 47 c2 11 3d
       0.03371969 -0.11273194 -0.11030379 0.035585668
000240 8a 3d 09 bd 60 e4 02 bd 8c d3 73 3d 45 db 36 bd
       -0.033505954 -0.031956077 0.05952792 -0.044642705
000250 18 2b 22 3d 3f e7 c6 bd ff 47 64 bd f4 ee 60 bd
       0.03959188 -0.097120754 -0.055732723 -0.054915383
000260 77 36 56 bd 35 c4 a1 3d 45 4d a4 bd 4c 65 b3 bd
       -0.052298035 0.07898752 -0.080225505 -0.08759555
000270 08 6c 8a 3c 9e ad aa 3d 21 2e c9 bd 0f 1b cb 3a
       0.016897216 0.08333896 -0.098232515 0.0015495735
000280 9a 8a 81 ba 07 23 36 3d 4c 29 63 3d 2d 65 16 3d
       -0.0009883225 0.044467 0.055459306 0.036717582
000290 5c 83 75 3d 20 d4 3c 3d cd df 9b 3d 5e 58 43 3d
       0.059939727 0.046100736 0.07611046 0.047691695
0002a0 83 b4 af bd ac 1e 48 bd d3 ca 1f 3b 1d 5b 84 3c
       -0.08579352 -0.048857376 0.0024382367 0.016156727
0002b0 40 89 c8 3d cb 9b 9b bd 06 1f 4f bc 07 fc 2c bd
       0.09791803 -0.075980745 -0.012641674 -0.04223254
0002c0 ec c2 92 3d c6 be 96 3d c7 da 78 bd 2d 0d c3 bd
       0.07166085 0.07360606 -0.060755517 -0.095239975
0002d0 1a 35 27 3a 60 05 66 3d 33 d3 63 bd 26 92 90 bd
       0.0006378457 0.05615747 -0.055621337 -0.070591256
0002e0 e8 86 97 3d 33 c2 79 3d 94 06 98 bd 38 80 07 be
       0.07398778 0.06097622 -0.0742313 -0.13232505
0002f0 84 df c8 3d 60 5b a9 3d e3 f4 3b bb ac 6b e9 bd
       0.09808257 0.082693815 -0.00286799 -0.1139749
000300 9e a8 43 3d 57 92 69 bc b4 10 19 bd 93 d6 66 3d
       0.047768228 -0.014256082 -0.037369445 0.056356978
000310 52 14 b8 bd 40 ab 56 bd 19 16 c3 3d 80 a8 16 3d
       -0.08988251 -0.05240941 0.09525699 0.036781788
000320 7c ae 94 3c ed 72 03 3e 3a 39 9b 3c 38 af cf 3d
       0.018149607 0.1283681 0.018948186 0.10140842
000330 41 5d 2e be 81 8e e8 bc 51 26 34 3c 1a 1f 3d bd
       -0.17027761 -0.028388264 0.0109954635 -0.04617224
000340 b8 6d 3e bd 8c b6 8b bc 2e 9a ed bd c5 9e 90 bb
       -0.046491355 -0.017054819 -0.11601673 -0.004413458
000350 9b cb 77 3c a6 09 7f bd d8 39 94 bd 85 d7 ac bd
       0.015124227 -0.06226506 -0.07237595 -0.084395446
000360 09 f3 5f bd ac c7 c4 3c 6c fc d7 3d c1 bd 58 3d
       -0.054675136 0.024020992 0.105461925 0.05291534
000370 b4 ad e2 3c f0 20 43 3d 97 b6 77 bd 87 8a 1e be
       0.027670719 0.047638834 -0.060476866 -0.15482531
000380 76 e6 bc bd 03 2f 2d 3d 94 bc 77 bd b4 bf 27 3d
       -0.092236444 0.042281162 -0.060482576 0.040954307
000390 82 89 bc ba 2a 06 b0 bd 31 58 c8 ba da ab ce bc
       -0.0014384242 -0.08594926 -0.0015285072 -0.02522843
0003a0 6f 1f 15 3c 05 f7 6b 3d c1 68 97 bd aa c5 df 3c
       0.009101733 0.057608623 -0.07393027 0.027315933
0003b0 6a d5 11 3e 1a 2d 06 3e 40 ae 84 3c c3 2a f6 3d
       0.14241567 0.13103142 0.01619637 0.12019875
0003c0 22 7a a6 3c 2d 94 bd bc 7c c6 ca bd 92 0b 3b 3e
       0.02032191 -0.023141945 -0.09901139 0.18266132
0003d0 26 5f f1 3d 65 6d ef bd 84 d2 d9 3d f5 75 f4 bc
       0.11785726 -0.11690787 0.10635856 -0.029841403
0003e0 78 bc 74 bd d6 96 0d 3d 76 5a 35 bc d3 c8 34 3d
       -0.05975005 0.034567676 -0.011068931 0.044136833
0003f0 c6 6c 4c bd 0f 4d 9a 3d 66 15 cd bc a1 57 0a 3e
       -0.049908422 0.07534229 -0.025034618 0.1350999

lstm.weight_hh_l0 f4 [400, 100]
000000 e4 6a 7a bd 63 04 27 3c 9b da bb 3d de e6 5f bd
       -0.061137095 0.010193917 0.09172555 -0.05466353
000010 7f cb 0e bc 7e 7b de bb 3d 0d 4e bd a6 7d 81 bd
       -0.008715509 -0.0067896238 -0.050305594 -0.06322794
000020 5f d7 ac bd 13 0a a1 3b 50 c5 50 bd b6 d7 f4 bc
       -0.08439516 0.004914531 -0.050969422 -0.029888015
000030 eb 78 81 3b 70 29 f3 3d cc 31 ef 3c cc e2 87 bd
       0.003951182 0.11873138 0.02919855 -0.06635055
000040 09 23 27 3d 71 b7 8b bd a5 ef aa bc a3 c6 67 3d
       0.040804897 -0.06822098 -0.020866225 0.05658592
000050 7a ea a7 bc ef 1e c3 3d c1 64 23 3d 87 58 91 3d
       -0.02049755 0.095273845 0.03989101 0.070969634
000060 cf 83 64 bd 3e de ad 3d 60 82 c5 bd 4d 64 49 bd
       -0.055789765 0.08489655 -0.09644008 -0.04916792
000070 5d 45 e0 3d dd be 87 3d 3f 9a 8a bd cd b0 ce 3d
       0.1095073 0.06628201 -0.06767701 0.10092316
000080 5f 36 fc 3c 4e 14 b1 bd dc c1 3c bd 90 74 66 bd
       0.030787645 -0.08646451 -0.046083316 -0.056263506
000090 20 b8 de bd bc a9 e6 bb 59 e9 9a bd c7 56 38 bc
       -0.10874963 -0.007039277 -0.07564039 -0.011251158
0000a0 6b c2 f5 bb ad ad 9c 3c 6a 93 d1 3d 63 ff 16 be
       -0.007499983 0.019125784 0.10233195 -0.1474586
0000b0 74 f6 a1 3d 7a 63 02 bc fc e2 63 3d d1 8d 8a 3d
       0.07908335 -0.007958287 0.05563639 0.067653306
0000c0 f0 4a c7 bc 71 f9 be bd 03 52 3a bd 40 61 c9 3d
       -0.024327725 -0.09324921 -0.04548837 0.09833002
0000d0 11 98 c4 3c ca 90 f1 3c b8 d2 62 bd 4f d9 e4 bc
       0.023998292 0.029487986 -0.05537674 -0.027935652
0000e0 23 39 9f bd 2c 6c a2 bc 27 7f 66 bd 52 dc 27 3d
       -0.0777457 -0.019826971 -0.056273606 0.0409816
0000f0 c7 7e 7a 3d eb 4a 18 bd 6b 19 2d 3d 71 ab 82 3c
       0.06115606 -0.037180822 0.04226057 0.01595089
000100 37 50 0d 3d b2 3f 47 3d a8 e6 a1 3d 1b c9 37 bc
       0.034500327 0.04864473 0.07905322 -0.011217381
000110 6f 59 6c bd 08 cf 4f ba 95 e2 4b bd dc 19 b5 bd
       -0.057702478 -0.00079272734 -0.049776632 -0.08842823
000120 8a 71 97 3c ba 07 64 bd 93 2f 45 bd 7d 81 90 3c
       0.018486757 -0.05567143 -0.048141073 0.01763987
000130 37 34 a2 3d 29 51 9e bd c1 45 83 3d e6 ee 83 3a
       0.079201154 -0.07730324 0.06409789 0.0010065704
000140 b2 84 d7 bb c9 7a 52 bc be 8e a0 bd 37 4c da bd
       -0.006577098 -0.012846657 -0.07839726 -0.10659068
000150 d3 44 45 bd 6f e3 e4 bd eb 65 d2 3d c0 9a 5e 3d
       -0.04816134 -0.11176192 0.102733456 0.0543468
000160 9f bf 32 bd 54 04 28 3d 82 b5 66 b9 a8 ca a0 bc
       -0.043639775 0.041019753 -0.00022002126 -0.019627884
000170 e2 b1 8b 3d ec fb 39 bd df b3 6c bd 77 51 91 3a
       0.06821038 -0.045406267 -0.057788726 0.00110869
000180 5c 9c 41 bd e8 03 bb 3c 5d 52 5d bd af b6 e2 3c
       -0.047268257 0.022829011 -0.054033626 0.027675001
000190 09 fc a0 3c 21 3e 1c 3d f4 4c 3b be 9a 8e df bd
       0.01965143 0.03814519 -0.18291074 -0.10915871
0001a0 a8 6b 95 3d 1c 6f 33 3d b8 ad 0c 3e 08 ff aa bd
       0.072959244 0.043807134 0.13738143 -0.083494246
0001b0 b7 40 82 bd e6 e5 74 3d cf 49 1b 3e 13 af 4d 3c
       -0.063599996 0.05978956 0.15164874 0.012553948
0001c0 c7 7a b5 3c 54 c1 c1 3d 81 89 00 3e 55 e7 9d 3d
       0.022153271 0.094607025 0.12552454 0.07710139
0001d0 b3 01 3f ba b4 7b f2 bd 3a 56 fb bd 99 9a e8 3b
       -0.0007286325 -0.11840001 -0.12272306 0.0070985076
0001e0 b8 56 91 bd 46 09 8c 3d 6e 89 32 be 91 31 a1 3d
       -0.070966184 0.06837706 -0.17435238 0.07870782
0001f0 cd 91 26 bd fc 41 11 bc 32 91 a2 3c 72 99 8d bd
       -0.04066639 -0.00886583 0.019844625 -0.06914033
000200 f2 99 99 bc 5a 17 d9 3c f7 85 34 3d b4 44 1b bd
       -0.018750165 0.026500393 0.04407307 -0.037907317
000210 b2 9f cc 3d f6 3d f4 3c 06 b1 77 3a 42 f4 e8 3c
       0.09991397 0.029814702 0.0009448681 0.028436784
000220 b2 e4 0f be 7a ca a8 bd dc d6 4c 3d fc 0e 62 bd
       -0.14052084 -0.08241744 0.050009593 -0.05519007
000230 e3 b1 d9 bd 5a ba fb bd 80 bd c7 3d 39 d7 e6 bd
       -0.10629632 -0.12291403 0.09752941 -0.11271519
000240 83 df db bd 4c 36 99 3d 31 b3 19 bc 39 aa 12 3d
       -0.10735991 0.074810594 -0.0093811015 0.03580687
000250 47 73 a1 3d 6a 04 c2 bc 9f 97 1b 3d a5 6c a2 bd
       0.078833155 -0.023683745 0.037986394 -0.079308785
000260 22 08 c8 3d bc d1 1d 3d f4 2f cd 3d 35 fb 37 bd
       0.09767176 0.038530096 0.10018912 -0.044917304
000270 12 c7 4a bd d7 f0 c1 3d 18 1b 18 bd 6d d5 eb 3b
       -0.049506254 0.09469765 -0.037135214 0.007197073
000280 41 44 04 3e d1 18 dd bc 9b ed 6e 3d b3 ad e2 3d
       0.12916662 -0.026989372 0.058332067 0.11068287
000290 df b4 48 ba 12 33 4a 3c 3a 7a 35 be 61 be 05 bd
       -0.00076563464 0.012341278 -0.17722407 -0.032652263
0002a0 c9 d6 96 3d f4 ff 3e 3e d0 53 45 bd 0e 52 04 bd
       0.07365186 0.18652326 -0.048175633 -0.032304816
0002b0 e8 7b c6 3d 9f 02 9a bd cc 5a c8 bd aa f9 0c 3c
       0.09691602 -0.07520031 -0.09782943 0.008604446
0002c0 e1 d5 4e 3c 9e c5 a1 bc 32 bd cd bb 9e 33 99 3c
       0.012624235 -0.019747552 -0.0062786574 0.01870137
0002d0 b7 d5 03 3c f3 db 1d bd df 87 85 3c 15 63 e0 3d
       0.008046559 -0.038539838 0.01630014 0.109563984
0002e0 2d 98 10 3e 21 6e c0 bc 88 af 79 3d 7a 88 12 3d
       0.1412055 -0.023490014 0.060958415 0.035774685
0002f0 fb e3 01 3c 94 1f f8 3c 42 4b 70 3d 59 56 0e bd
       0.00792789 0.030288495 0.05866552 -0.034750316
000300 a4 f0 e6 bd 47 33 e8 bd 2b b5 80 3d c4 63 a3 bd
       -0.11276367 -0.113379054 0.06284555 -0.07978013
000310 8c 65 ab 3c 40 a2 d0 bd dc f2 0d be 62 22 9a 3c
       0.020922445 -0.10187197 -0.13862175 0.018815223
000320 cc 49 96 bd 39 3c a4 bc 34 0e 1a bd f4 c9 8b 3d
       -0.073382944 -0.020048248 -0.0376112 0.06825629
000330 49 8b 67 bc 10 df c6 3d 6e f3 24 bd 57 19 bd bc
       -0.014132329 0.097105145 -0.040271215 -0.023083372
000340 17 65 22 bc 5b 09 e4 bd 30 71 11 be 71 55 a1 3d
       -0.009911797 -0.11134597 -0.14203334 0.07877625
000350 72 8e 4b 3d 74 f4 20 3d 95 f0 2b 3c cf ac ce bd
       0.049696393 0.03929563 0.010494371 -0.100915544
000360 76 a7 b4 bd 40 1d b1 3d 88 21 c6 3d c8 7e cb 3d
       -0.08821003 0.08648157 0.09674364 0.09936291
000370 1d 1c 2e bd 8c 0b 85 3b c3 35 90 3d 27 44 36 bd
       -0.04250728 0.0040602144 0.07041504 -0.04449859
000380 34 ac 30 bc 0f c6 95 3c 93 b9 50 bd 2b dc d9 3d
       -0.010783244 0.018282918 -0.050958227 0.10637697
000390 86 ce ef 3c d6 d2 a9 bd 85 32 95 bd cb eb a4 3b
       0.029273283 -0.08292167 -0.072850265 0.0050329915
0003a0 11 2f 00 bd d5 ab c0 bd 23 7a 1c 3c 2d f1 1b 3d
       -0.031294886 -0.09407774 0.009550604 0.0380718
0003b0 53 05 8e 3d 00 97 d5 3c c2 cc 57 bd 81 bb 85 3c
       0.06934609 0.026072979 -0.052685507 0.01632476
0003c0 1f 99 85 bc 16 dc 49 bd d8 39 29 be 80 e2 12 3e
       -0.016308365 -0.049282156 -0.16525972 0.14344215
0003d0 73 eb 56 bc 6c f7 36 bd cc 65 15 bd ad c7 bc bd
       -0.013117659 -0.044669554 -0.036474034 -0.09217773
0003e0 2e a1 86 3c b5 8e 82 3d c1 1f d8 bd 2c 58 bf 3d
       0.016434278 0.063748755 -0.105529316 0.09342989
0003f0 71 9e 73 3c 89 e9 83 bc 7b 43 3d 3d e9 a7 f0 3c
       0.014869318 -0.01610257 0.046206933 0.02937694

lstm.bias_ih_l0 f4 [400]
000000 f8 42 b8 bc b6 fa 9d 3d 7c ad b4 3c b2 3b c4 bc
       -0.02249287 0.07713835 0.02205538 -0.023954246
000010 9c c2 ea bc f9 a6 95 bd e9 ba 92 3b 81 c7 1a bd
       -0.02865725 -0.07307238 0.004477848 -0.037787918
000020 f2 44 73 3d 58 2d ae bd 53 3b 9f 3d 5a dd fa bc
       0.059391923 -0.085047424 0.07774987 -0.030623127
000030 c7 a7 c0 3d 9d 22 6a bd 62 e0 93 bd 22 6e 00 be
       0.09407001 -0.057161916 -0.07220532 -0.12542012
000040 e6 c2 f6 3c b4 3d eb bc 04 26 61 3c 0c ec 99 3d
       0.030122232 -0.028715946 0.013741974 0.075157255
000050 74 a5 4f 3d 62 33 9b bc bf d3 be bd 89 cf d6 3b
       0.050694898 -0.0189454 -0.09317731 0.006555502
000060 e5 92 ed bd 60 7c 11 bc 1f 5b 97 bc 13 f9 f3 bc
       -0.116002835 -0.008879751 -0.018476067 -0.029781854
000070 1c aa f6 3c b5 7f e1 3c bb 82 ad bd eb 6b e4 bd
       0.030110411 0.027526716 -0.084722005 -0.11153396
000080 0c 68 c7 bc 6f 2f 13 3b 37 d2 9e 3d ea 40 07 3d
       -0.024341606 0.0022458693 0.07754939 0.03302089
000090 09 44 50 bd aa 00 50 3d 52 f6 69 bd 28 91 ca bd
       -0.050846133 0.050781883 -0.057119675 -0.098909676
0000a0 33 32 d9 3c b3 cc a7 bd c0 15 9f bb 9a 86 29 3e
       0.026513195 -0.0819334 -0.0048548877 0.16555253
0000b0 ee 46 6a 3d ad dd 27 3d a3 c7 77 3d 45 42 99 bd
       0.05719655 0.04098289 0.060493123 -0.07483343
0000c0 ab 42 05 3d 7f 20 b9 3b 44 d9 e2 bb d0 3d 4b bb
       0.032534283 0.005649626 -0.0069228727 -0.0031012185
0000d0 be 7b 5d bd 9c 26 b8 3d 54 18 34 3d a7 b7 42 bd
       -0.054073088 0.08991739 0.043968514 -0.047538426
0000e0 f9 0e c9 bd 32 1f 2d bd 47 22 04 bd a6 e6 7b bd
       -0.09817309 -0.04226608 -0.032259252 -0.06149926
0000f0 6c 78 18 3d 03 6c 41 3d f7 48 59 3d ba 78 85 bd
       0.03722422 0.04722215 0.0530481 -0.065171674
000100 32 78 51 bd 33 88 f9 3b 2a 6a e6 bd 77 57 aa bd
       -0.051140018 0.007615113 -0.11250718 -0.08317464
000110 fc 77 2a 3d 76 00 3e 3d 4d 06 ed bd a0 85 cb bd
       0.041618332 0.04638716 -0.115734674 -0.09937596
000120 e7 81 f0 bc ef a1 34 be e2 39 57 3d b1 8e 45 bd
       -0.029358817 -0.17639898 0.052545436 -0.048231784
000130 8e a1 b9 bd a3 e1 01 3d 04 91 2f bd c0 1f b5 bc
       -0.09064017 0.031709325 -0.042862907 -0.022109866
000140 4d 80 a0 bd 30 47 d8 bd 69 a8 2a 3d d6 cb 59 bd
       -0.078369714 -0.10560453 0.041664515 -0.05317291
000150 21 73 f4 bc 16 a4 05 bd 62 96 ba bd 7b 44 6e bb
       -0.029840054 -0.032627188 -0.091107145 -0.0036356736
000160 79 02 db 3d 52 f5 0e bc 7a ff bf bd e2 91 2b 3d
       0.10693831 -0.008725481 -0.093749 0.04188717
000170 77 3a bb 3d 6d d7 05 bd 8e a4 76 bd 5e 2b 3e 3c
       0.09142011 -0.03267615 -0.060215525 0.011607019
000180 d1 74 1d 3d 93 e4 b9 bd c6 97 12 3d c7 2b 8a 3d
       0.038441483 -0.090768 0.035789274 0.06746631
000190 09 e1 a0 bd 66 20 1d bd 0e 82 21 bd cb d8 cc 3c
       -0.07855422 -0.038360976 -0.03943067 0.025005719
0001a0 93 be 99 3d cc 1a d2 3c e3 b4 1c bd 66 07 af bd
       0.07507052 0.025647543 -0.038258445 -0.08546333
0001b0 d5 ea 76 3c 00 4a a1 bd 6b de a5 bd b6 ae 92 bd
       0.015070637 -0.078754425 -0.080990635 -0.0716223
0001c0 8c 2f da bc e0 c0 ae 3c 01 cc a5 3d a9 af fd bd
       -0.026634 0.021332204 0.08095551 -0.1238702
0001d0 d3 8a df bd cf b3 c4 bd f2 d8 14 bd 5b 71 eb bd
       -0.109151505 -0.09604608 -0.036339708 -0.1149623
0001e0 1b 81 ca bc c5 58 9e 3c 6d dd ed bd 9d e3 2c bd
       -0.024719765 0.019329438 -0.11614499 -0.042209256
0001f0 27 3e 11 bd fd 12 c1 3c e7 12 31 bd e6 75 a4 3d
       -0.035459664 0.023568625 -0.043230917 0.080303
000200 cb 29 34 bd 6c 56 66 bc dc e4 62 bc 38 0c ad bd
       -0.04398517 -0.0140586905 -0.01384851 -0.08449596
000210 80 d2 6e bb 83 5d 0d bd 6b cc 13 3d ff 5d 87 3c
       -0.0036441386 -0.034513008 0.03608362 0.016524313
000220 dd 84 37 3d ee 68 09 3d 4d 32 4d 3d cc 17 2a bc
       0.044804443 0.033547334 0.0500968 -0.01038165
000230 18 aa 39 3b 02 ec 42 bd 1b 5c a7 bd 09 b7 83 bc
       0.0028330144 -0.047588356 -0.081718646 -0.016078489
000240 78 4c b9 bc 1a f5 a8 3c 30 6d 66 3d f7 c6 e1 bc
       -0.022619471 0.020624686 0.056256473 -0.027560694
000250 9f 69 f8 3c c2 8f a8 3d b5 5c 79 bd 59 79 67 bd
       0.030323802 0.082305446 -0.060879428 -0.05651221
000260 5d 0b 39 3d d9 0b bf 3c d3 65 c2 bd 9f 27 0e be
       0.045176852 0.02332108 -0.09492078 -0.13882302
000270 c2 a4 05 be 86 4e aa bd c5 1f 26 3d 93 bd 84 3d
       -0.13051131 -0.083157584 0.04055764 0.06481471
000280 4d 00 bb bd 83 a2 c1 3c 96 ab ee 3b 10 ee bd bd
       -0.09130917 0.023637062 0.007283638 -0.092739224
000290 c2 67 b9 bd 14 a4 6c bd 00 0e 51 bd 1d 1a 99 bc
       -0.09052993 -0.057773665 -0.051038742 -0.01868921
0002a0 e0 d9 2e 3d 70 f9 7a 3b ba 37 59 3c be 11 d8 bc
       0.04268825 0.003829565 0.013257915 -0.026375648
0002b0 5d 5a b4 3d af cc 22 bd 49 e5 65 3d b4 df 89 bd
       0.08806298 -0.039745983 0.056126866 -0.06732121
0002c0 7c e2 d4 bd ef 71 24 bc 7f 9b 9f bd 3c ea 79 3d
       -0.10394761 -0.0100369295 -0.077933304 0.0610144
0002d0 bc 4e 69 3d 67 e3 0b 3d 6d 1f 46 3b 7d 9d 04 3d
       0.056959853 0.034152415 0.0030231134 0.032376755
0002e0 32 b8 95 3d 8d a7 85 3d 4d 23 0d 3d 23 5c af bc
       0.07310523 0.065260984 0.034457494 -0.021406239
0002f0 cd f5 23 bc ac 29 80 bd 23 ee cb bd 6f 95 e2 bd
       -0.010007334 -0.06257948 -0.0995753 -0.110636584
000300 f6 2c b4 bc 18 57 9d bd 97 cf 99 bd e4 c2 f2 bd
       -0.021994095 -0.076826274 -0.07510298 -0.11853579
000310 0b 65 23 3c 86 7d 38 3d 05 d3 af bd 90 e0 23 3d
       0.009972821 0.045041583 -0.08585171 0.04000908
000320 c8 73 07 3d df d3 f4 3d 40 2e 15 bd 99 39 a5 bc
       0.033069402 0.11954474 -0.03642106 -0.020169066
000330 db 12 83 bd 88 5c 77 3c 3d dc 18 be 57 f8 80 bc
       -0.06400081 0.015097745 -0.14927764 -0.015743418
000340 e8 a2 25 bc 3e a8 48 3d 37 d4 af bd c6 2a e2 3c
       -0.010109641 0.048988573 -0.08585399 0.027608287
000350 7f f2 82 3d c7 b4 17 be a9 6f 86 bd c5 41 a1 3b
       0.06393909 -0.14815055 -0.06564266 0.0049211704
000360 4a 99 9c 3d 43 fb 6c 3d 44 06 07 3e eb 5d d3 3b
       0.07646425 0.05785681 0.13185984 0.006450405
000370 96 ae 3b bd f9 71 6c bd 04 37 05 bd 0d ba 07 be
       -0.045820795 -0.05772588 -0.03252317 -0.13254566
000380 6f 3e 83 bd a4 43 43 bd c5 f4 ae 3d e6 69 3a bd
       -0.06408393 -0.04767193 0.0854278 -0.04551115
000390 cc 75 88 bd f1 f7 b0 bd 9e 3e 8a 3d 7c da 11 3d
       -0.06663093 -0.08641041 0.067502245 0.035608754
0003a0 3a 2e e4 3c 2c 45 88 bd 95 ef ec bd 10 b6 d7 bd
       0.027854074 -0.066538185 -0.11569134 -0.105327725
0003b0 2a 24 b4 3d 11 e0 76 bd 98 1d 48 bd f6 2c 46 3c
       0.0879596 -0.06027228 -0.048856348 0.01209568
0003c0 37 30 2f bd 28 b7 76 bd b2 d4 16 3d d7 82 47 3e
       -0.04277059 -0.060233265 0.036823936 0.19483505
0003d0 da 28 ed 3d 88 3d 05 be 01 ba ed 3c 26 13 0c be
       0.115800574 -0.13011754 0.029019358 -0.1367918
0003e0 7b e5 50 3d b7 a0 22 3c 8c d4 2f 3c 6a f9 c4 bd
       0.0510001 0.009926013 0.0107318275 -0.096178845
0003f0 37 fa 6e 3d 43 21 af bc 1c d2 8f bc 72 fc d6 3c
       0.058344092 -0.021378165 -0.017556243 0.026243422

lstm.bias_hh_l0 f4 [400]
000000 59 41 80 bd 7c b0 34 3c 40 29 89 3d a3 43 8f 3d
       -0.06262464 0.011028405 0.06697321 0.069953226
000010 dd 50 a4 3d 66 08 a6 3d 39 5e c2 bd 37 f4 1c 3c
       0.08023236 0.081070706 -0.09490628 0.00957971
000020 8c 3d e6 bd 85 3f 41 3d e8 a1 96 bd e0 e6 81 3d
       -0.11242208 0.047179718 -0.073551 0.06342864
000030 b0 c0 3a bd 53 04 8c 3d fd b3 85 3d 50 27 62 bd
       -0.045593917 0.06836762 0.06528471 -0.055213273
000040 40 4c 18 bd 64 34 51 bd b8 40 ad bb 88 e5 9a 3d
       -0.037182093 -0.051075354 -0.005287256 0.07563311
000050 34 b6 5c bd 8e b0 ea bd b8 ef 29 3d 58 ef ff 3b
       -0.0538847 -0.114594564 0.04148838 0.0078105144
000060 63 c8 9c bd e3 e0 b1 3c 39 da 20 3d f1 eb d8 bd
       -0.07655408 0.02171368 0.039270613 -0.10591877
000070 62 3a d8 bc 86 50 ca 3d 17 94 9d bd d0 f2 2b 3d
       -0.026395027 0.0987864 -0.076942615 0.04197961
000080 8c 9d 68 bd df ac 6a 3c 94 48 3e bc 5e 29 59 bd
       -0.056790873 0.014323442 -0.011613984 -0.053017966
000090 e1 8e 3c bd dd e1 fd bd e2 0a 1b bc 83 6f 7b 3d
       -0.046034697 -0.123965956 -0.009463044 0.061385643
0000a0 d0 28 4b bd 05 21 d0 bb 70 0f eb bb 19 19 d2 3d
       -0.04959947 -0.0063515925 -0.007173471 0.10258693
0000b0 c8 70 a1 bd 8b c4 d2 bb 09 e5 bd bd a7 39 95 bd
       -0.078828394 -0.006432121 -0.092722006 -0.07286387
0000c0 85 61 e6 3b c8 a2 51 b8 fa b4 7d 3d aa e8 d9 bd
       0.007030668 -4.9981085e-05 0.06194017 -0.1064008
0000d0 a8 9a ef 38 03 a4 0a 3d 8a 6c 85 bd 4b 35 ff 3c
       0.00011425215 0.03384782 -0.06514843 0.031153342
0000e0 c4 1d de bd d7 c5 d7 bb db 89 96 bd be 12 99 3d
       -0.10845521 -0.0065848636 -0.073505126 0.07474278
0000f0 b5 b8 10 bc 30 79 74 bc 91 11 c1 bd 33 55 82 bd
       -0.0088331 -0.0149214715 -0.09427179 -0.06363907
000100 3c 4a 64 bd b5 30 4c bd be 02 7e bd 15 e2 9e bd
       -0.055734858 -0.04985114 -0.062014334 -0.077579655
000110 ce b5 4c bd d2 1c 86 3c 7f db fc bc 9b 52 0f be
       -0.04997807 0.016371164 -0.030866383 -0.13996355
000120 d7 0a b0 3d ab 4c 35 be 86 88 6f 3d 84 de 8f bd
       0.085958175 -0.17705028 0.05847981 -0.07024863
000130 92 06 b2 bc ea c1 94 bd 5f 4c 04 3d 72 e1 48 bd
       -0.021731649 -0.07263549 0.032299396 -0.049043126
000140 b4 78 b1 3d c6 ea 2a bd e3 ac a5 bd dc 14 dd bd
       0.086656004 -0.041727804 -0.08089616 -0.10794994
000150 0a 8b 31 bd 35 c8 49 3c 17 db 39 bd f1 90 a3 bd
       -0.04334549 0.0123157995 -0.045374956 -0.0798663
000160 4d 31 81 3c db a0 8f bd de 69 06 3b 0b c4 57 3c
       0.015770579 -0.070131026 0.002050988 0.013169299
000170 b1 43 2d bc af 25 a6 bd 2a e9 1c bd 4f f2 d7 bd
       -0.010575221 -0.08112656 -0.0383083 -0.105442636
000180 ff 78 52 bd 13 8c 11 be ae b1 1f bd f7 fa 29 bd
       -0.051384922 -0.1421359 -0.038987808 -0.041499104
000190 7b b6 8f bd 15 f1 81 bd bf 73 96 bc 99 da eb bc
       -0.07017227 -0.06344811 -0.018365739 -0.028790759
0001a0 f9 69 6a bd ff 8b 29 3c 1d 34 4a 3d 7d f8 c1 bc
       -0.05722997 0.010348319 0.049366105 -0.023678059
0001b0 33 80 fd bd d3 ec 00 be b4 f7 09 bd 2c e2 2e bb
       -0.12377968 -0.12590341 -0.033683494 -0.0026685102
0001c0 38 fc fd 3b 36 f7 64 bd 85 c7 f9 bc d3 77 0a 3d
       0.007751014 -0.05589982 -0.030490646 0.03380568
0001d0 c7 64 5b 3d 48 ef 23 3b 3b 4c 9d bd b9 06 b7 bc
       0.053562906 0.002501445 -0.076805554 -0.022342073
0001e0 f6 7c bd 3d fa 79 7a 3d 77 0a 11 bd b4 a5 9a bb
       0.0925235 0.061151482 -0.03541037 -0.0047194604
0001f0 cb d3 31 bd 21 54 8b bd 59 56 c9 3c 38 cd 6d 3d
       -0.043414872 -0.06803156 0.024577307 0.05805704
000200 f6 ff 06 bd 44 ed c5 bd 8a 8c 50 bd 29 21 c8 3c
       -0.032958947 -0.096643955 -0.05091528 0.024429874
000210 4a d2 53 bc 28 b4 c7 bb 4a a4 6f 3c b9 d7 0c 3c
       -0.012928555 -0.0060944743 0.014626572 0.008596354
000220 36 77 af bd f1 c2 cf bd 7b c2 82 bd b0 3c 02 bd
       -0.085676596 -0.10144604 -0.063847505 -0.031796157
000230 1b 8a 80 3c d2 39 e4 bd db 3c a8 bd e8 9d 6c 3d
       0.015690854 -0.11143841 -0.08214732 0.05776778
000240 85 40 cd bd 22 f9 98 3d 3d 9c 5e bd 31 0d b3 3c
       -0.10022072 0.07469393 -0.05434822 0.021856876
000250 24 20 69 bd dc 8c 9c 3c 1e ed f8 3c 9c ed 47 3c
       -0.056915417 0.019110136 0.030386504 0.012202647
000260 15 7b 76 bd ff 73 92 3d 72 da cd bc 79 81 2a 3d
       -0.060175974 0.07151031 -0.025128577 0.04162738
000270 50 12 00 be a2 94 6d bd de b5 6e 3d 29 52 4d 3d
       -0.12506986 -0.058003075 0.05827891 0.050127182
000280 42 82 2b 3d 4a ca b7 3d 93 d2 2a 3d 34 41 0c 3d
       0.04187227 0.089741305 0.041704725 0.03424187
000290 50 19 20 3c 36 a9 45 3d 42 f5 70 bd 5e c5 b6 bd
       0.00977166 0.048257075 -0.058827646 -0.089243636
0002a0 4e 48 f8 3c e8 14 00 3d 92 a2 a9 bd a4 64 ff bb
       0.030307915 0.031269938 -0.08282961 -0.0077939797
0002b0 86 2c 1a bc d0 b0 9f bb fd f8 42 3c e8 9f 05 bd
       -0.009410029 -0.0048733726 0.011900184 -0.0326232
0002c0 fe 1e 70 bc 37 73 db bd a3 e4 80 ba e1 4c 85 bd
       -0.014655827 -0.10715335 -0.0009833764 -0.06508804
0002d0 80 5c a2 bd 00 29 f6 bd 3c 9f 96 3d 34 86 80 bd
       -0.07927799 -0.12019539 0.0735459 -0.06275597
0002e0 40 6b 91 3c 55 6c 05 3b 51 e9 ac bd 55 87 e2 bd
       0.017751336 0.002035876 -0.08442939 -0.11060969
0002f0 ff 4a d5 bc b0 fc 2b 3d 98 23 e4 3b c9 8e 4d bc
       -0.026036737 0.04198903 0.006962251 -0.01254625
000300 ba 39 9f bd f3 a1 0e bd 41 bb 87 bd 16 a2 03 3c
       -0.07774682 -0.034822416 -0.06627513 0.00803425
000310 0d ef c4 bd 57 62 f4 bd c5 21 1c 3d be 05 10 3d
       -0.09615908 -0.11932819 0.038118143 0.035161726
000320 25 73 54 bb a3 a0 c7 ba 7e 5d 73 bd 90 be 42 bd
       -0.0032417264 -0.0015230369 -0.059415333 -0.047545016
000330 28 40 04 be 96 da f8 bc 46 a1 4b bd ce 9f a1 bd
       -0.12915099 -0.030377667 -0.04971435 -0.078918085
000340 7f 9f a8 3d 2d 60 f3 bd 50 3e 35 3d de 96 04 be
       0.082335465 -0.118835784 0.04424888 -0.12948176
000350 68 09 16 3e 0c c6 c2 bd de b1 05 be 8f e6 89 bd
       0.14652026 -0.09510431 -0.13056132 -0.06733429
000360 f4 4a a3 bd a3 ab 88 3d b9 d3 34 bd 51 b1 cc 3d
       -0.079732805 0.06673362 -0.044147227 0.09994758
000370 a0 e7 47 3d 87 b5 c9 bd 47 0b fa bb d4 35 ec bd
       0.04880488 -0.09849077 -0.007630739 -0.115337044
000380 9f 1d 92 bd 3c d1 9a 3d 27 7d a2 3d 09 9b c8 3d
       -0.07134556 0.075594395 0.07934027 0.097951956
000390 fc 42 49 bc 80 42 09 be 44 ef 8d bd 11 cc a6 bd
       -0.012284037 -0.13404274 -0.06930402 -0.08144391
0003a0 6a 53 83 bd 6d 78 82 3d 2c 16 34 bd 0c 95 b2 bd
       -0.06412394 0.06370626 -0.043966457 -0.08719835
0003b0 26 9b 23 3e 43 fd ac 3d fd 0d 5c bd 7e 05 01 3e
       0.15977153 0.08446743 -0.053724278 0.12599751
0003c0 88 44 42 bd 91 73 04 bd 30 1b b5 3c 60 0f 43 3e
       -0.047428638 -0.032336775 0.02210769 0.19048834
0003d0 4f 43 68 bd 10 6f 25 be f4 a3 9e 3d ff 16 e9 bd
       -0.056704815 -0.16155648 0.07746115 -0.11381339
0003e0 a4 a7 63 3c d6 83 3d 3d 7c 9e f5 bd aa da 4d 3b
       0.013894949 0.046268307 -0.11993119 0.0031410852
0003f0 ce c3 d9 bd cc 04 8e 3d 92 5d 9f bd 20 4f a8 37
       -0.1063305 0.06934509 -0.07781519 2.0064006e-05

linear.weight f4 [1, 100]
000000 e9 a0 38 bd d4 8b 8e 3d 86 1a 9a 3d 05 8b b8 3d
       -0.04507533 0.06960264 0.0752459 0.09010891
000010 34 67 16 be bc fa b5 3c 52 cc ce bd 42 89 2c 3d
       -0.14687806 0.022214286 -0.10097565 0.042123087
000020 ad ed 8a 3d a8 31 95 bd 40 99 d7 bd d3 a2 4e bd
       0.06783614 -0.07284862 -0.10527277 -0.05044825
000030 bd 58 f9 3d b0 a4 d4 bd aa ff 06 be a3 4b c5 bd
       0.121751286 -0.10382974 -0.13183466 -0.09633567
000040 86 1f c8 bc 55 16 1d 3d 69 6c 44 3d 8b 62 05 3d
       -0.024429094 0.038351376 0.04795495 0.03256468
000050 71 ff 3d 3c 93 d9 9f bc b7 36 8a 3d 9f d4 14 be
       0.0115965465 -0.019512927 0.06748717 -0.14534234
000060 d6 6f b5 bc 24 71 88 bd c5 9c 96 bd bb ba 12 3d
       -0.022148054 -0.06662205 -0.0735412 0.03582261
000070 38 b8 f1 bc c1 f7 b3 bd 12 4b 8e bb 9d 09 3b bd
       -0.029506788 -0.0878749 -0.004342445 -0.045663465
000080 7c 1f 86 3c f9 c4 82 bc 9f 9d 63 bd 0f ab 9c bd
       0.016372435 -0.015963065 -0.05557024 -0.07649814
000090 e7 45 e3 3d 5d f9 89 3d 04 13 41 3d 09 d7 d6 3d
       0.11097317 0.067370154 0.047137275 0.104902335
0000a0 b6 cd 89 3d f7 20 65 3d cb ed a3 bd a6 6a 50 3e
       0.067286894 0.05593964 -0.0800434 0.20353183
0000b0 22 66 18 3d 41 01 fe bd fc 57 8c 3d c3 b6 11 be
       0.037206776 -0.12402583 0.06852719 -0.14229874
0000c0 6c 06 37 bb bb 21 81 3c 53 1b ab bd 03 07 aa 3d
       -0.0027927412 0.015763154 -0.08354821 0.08302119
0000d0 56 43 7a bd 30 fa ec bb 41 86 56 3c 02 79 56 3d
       -0.061099373 -0.007231973 0.013093532 0.052361496
0000e0 4e 25 25 3d 0e 00 d8 bd f3 97 95 bd 9a 44 10 bd
       0.04031878 -0.105468854 -0.07304373 -0.035221674
0000f0 d4 83 8f bd 40 d9 1b 3b 68 0c 3d bc 96 c0 02 bd
       -0.07007566 0.0023780614 -0.011538602 -0.031921946
000100 a2 34 d8 bd cf e9 ae 3b 40 52 08 3e 1f 5c 89 3d
       -0.10556914 0.0053379308 0.13312626 0.06707024
000110 dc cc df bc e3 ca 6a bd df 07 9c 3d a8 77 57 bd
       -0.027319364 -0.057322394 0.07618689 -0.052604347
000120 7b 34 1e be 8c da 5a 3d 7f c8 ce 3d 59 19 e1 bc
       -0.15449707 0.05343108 0.10096835 -0.027477907
000130 de c3 99 bd 6c 20 18 bd 4e 45 ce bd 75 a0 2c bd
       -0.07508062 -0.037140295 -0.100718126 -0.04214521
000140 2b d1 d9 3d 14 c7 93 3d 08 c2 cb bb 42 49 63 bc
       0.10635599 0.072157055 -0.0062181987 -0.0138724465
000150 09 27 64 bd c9 ea 9d 3d 28 cf e5 3b 21 aa 6e 3d
       -0.05570129 0.07710797 0.0070132203 0.058267716
000160 d5 95 f4 bd f1 1b 95 3c 5b 4d 19 3c 6f 77 11 bd
       -0.11942641 0.0182018 0.009356822 -0.03551429
000170 fe c9 dd 3d c7 cf 97 3d 95 17 f7 bd 4f 7b 85 3d
       0.108295426 0.07412677 -0.12065045 0.0651766
000180 b9 05 a6 bd 7c 55 a9 3b 3f 32 a0 3d 74 5f e4 3d
       -0.0810656 0.0051676612 0.07822084 0.11151019
