models/TATAMOTORS.NS/TATAMOTORS.NS_s60_h200_e75_b32_lr0.001.pth (torch, 682633 bytes, 5 tensors)

lstm.weight_ih_l0 f4 [800, 10]
000000 96 bf ae 3d 4a 6b f0 3e 39 c2 88 3d ff 40 c3 3d
       0.08532636 0.46956855 0.0667767 0.095338814
000010 fb 8f 27 3d ce 25 00 3e 6a 61 03 3e 6e 01 26 3e
       0.040908795 0.12514421 0.1283013 0.16211483
000020 d3 e8 8f bc ed 7f cd 3d 0d 40 c0 3c 67 51 95 bd
       -0.017567074 0.100341655 0.023468042 -0.07290917
000030 55 5a 38 3d 3f b5 04 3d c3 54 5c bd 68 3b 06 3c
       0.045008022 0.032399412 -0.053791773 0.0081928745
000040 27 08 0d bd 6c d3 a8 bc 50 9a 0a 3d 96 e8 62 bd
       -0.034431603 -0.020608626 0.03383857 -0.055397592
000050 08 3c b0 3c 89 7e 0e 3d fd 0a 46 3d 17 a0 6a 3c
       0.021513 0.034788642 0.048350323 0.014320395
000060 17 dc e1 3c 70 38 87 bd 2a 74 9e 3d fb e7 64 39
       0.027570767 -0.066025615 0.07737 0.00021830194
000070 a2 a1 a0 bb 52 e6 04 bd ee be 53 bd 94 0f f6 bc
       -0.0049020806 -0.032446213 -0.051695757 -0.030036725
000080 88 49 8a 3d eb b6 72 3d 23 6d d0 3c 80 84 b3 3c
       0.06752306 0.059256475 0.025442665 0.021913767
000090 26 2a 28 bd 6d ff 8c 3b af 40 43 b9 7f df 89 3c
       -0.04105582 0.00430291 -0.00018620746 0.016830204
0000a0 d9 9b c5 3d 58 b1 ea bd 8a 92 57 3d ec 5d 81 3d
       0.09648866 -0.11459607 0.052629985 0.06316742
0000b0 94 48 c9 3d 8d cb 1b bb 01 49 30 3d 91 2a 86 3c
       0.09828296 -0.0023772449 0.043038372 0.01637772
0000c0 e9 46 dc bc fe ea 52 bc 08 37 92 3e bb 83 a6 3e
       -0.026889281 -0.012873409 0.2855761 0.32522377
0000d0 0d 69 61 3e f7 c7 9b 3e f1 dd 80 3e 3d 74 2d 3e
       0.2201273 0.30426 0.25169328 0.16938873
0000e0 3b de 62 3e 8d df 13 3e 49 b0 cf 3d f3 de 31 3e
       0.22155087 0.14440747 0.101410456 0.17370205
0000f0 04 8d 02 bb 9f 10 c2 3b 14 2e e8 3c b0 5f d7 bc
       -0.0019920478 0.0059223915 0.028342284 -0.026290745
000100 e8 cb 90 3d 00 89 1e 3c 25 ec 7d 3c e8 81 a9 bc
       0.07070142 0.009676218 0.015498196 -0.020691827
000110 12 bf 4b 3d 84 bd da 3c ee 1b bd bd 3e e6 0c be
       0.049742766 0.026701696 -0.09233843 -0.13759705
000120 ab 06 af bd c6 2a 70 bd 42 d8 86 bd ae 88 3b bd
       -0.08546194 -0.058634542 -0.06584217 -0.045784645
000130 76 1a df bc 1b a5 32 bd 2f d4 59 3d 9b 77 90 3c
       -0.027234297 -0.043614488 0.05318087 0.017635157
000140 19 4b 07 3d 29 bc 1a 3d 2d 08 42 3d a2 53 65 3d
       0.033030603 0.0377771 0.04737108 0.05598796
000150 d7 db 9f bc 20 0f f7 3c 51 86 19 bd be fc a5 bc
       -0.019514007 0.03015858 -0.03748161 -0.020262118
000160 e8 72 31 bd b4 1a 1a bd 39 25 97 bc 39 b3 96 bc
       -0.043322474 -0.037623122 -0.018450366 -0.018396007
000170 fb 3f a3 bd eb 23 b3 3b 5c e2 92 bd eb 0f 99 bd
       -0.07971188 0.0054669282 -0.07172081 -0.07473739
000180 d3 83 01 3d ea 3c c9 3c 7f c0 52 3d ba de 1d 3b
       0.031619858 0.024565179 0.05145311 0.0024089054
000190 9f fd 62 3d 92 95 f5 3d ff 64 51 3d 15 31 c1 3d
       0.055417653 0.11991419 0.051121708 0.0943319
0001a0 08 1d 8c 3d 7e 3d 07 bb 25 0e 7f 3d a8 d3 b5 3d
       0.06841475 -0.0020636017 0.06226935 0.08878261
0001b0 b1 f9 fb bb 43 86 42 3d 2a 74 75 3d b5 9e c9 3c
       -0.0076896776 0.047491323 0.059925236 0.02461181
0001c0 a9 89 d6 3c 0a ad a1 3d 6f 4e da 3d 4d 8a d9 bb
       0.026188688 0.07894333 0.10659491 -0.006638801
0001d0 71 66 3b 3d f7 9d 56 bd a9 31 20 bd da 5d 20 bd
       0.045751993 -0.05239674 -0.03910986 -0.039152004
0001e0 16 83 38 bc f2 dd c0 bd 5a c6 d8 bd 5c 7b 8e 3c
       -0.011261722 -0.09417333 -0.105847076 0.017392807
0001f0 98 e7 cf bc d4 e9 4c bc b6 38 3e bc 03 f9 2f 3d
       -0.025378987 -0.012506921 -0.011610201 0.042962085
000200 be 96 c8 3c bb cb a8 3c 91 05 1e 3d 63 e4 72 3d
       0.024485942 0.020604959 0.038579527 0.059299838
000210 44 17 80 3d ab 31 93 bc 62 1a 90 bc 1a fa a3 bb
       0.062544376 -0.01796802 -0.017590705 -0.0050041797
000220 aa ec fb 3c 93 39 a5 3a fa f5 7a 3b e5 ce ac bc
       0.030752499 0.001260566 0.0038293586 -0.021094749
000230 48 79 85 3c eb 0e b9 3d 13 87 1e 39 63 68 16 3d
       0.016293183 0.090360485 0.00015118373 0.036720645
000240 c6 34 9b bc 1d bb 1e ba 32 2b 12 bd 56 29 b9 bc
       -0.018946063 -0.0006055104 -0.035685726 -0.022602718
000250 54 15 ba bc 14 2b 06 bd 1c 2a 88 3a 25 98 2e bc
       -0.022715248 -0.032755926 0.0010388526 -0.010656391
000260 7b 7f b3 bb 6f 83 05 bd 18 25 ab ba 1f ff 5b bd
       -0.0054778433 -0.032596048 -0.001305732 -0.0537101
000270 ce f8 fc bc 1b 92 88 bd 35 a5 c5 ba 5a 7c 25 bd
       -0.030880358 -0.066684924 -0.0015079143 -0.040401794
000280 1f 3f 6f 3c 62 f7 81 3e 45 08 a7 3d 87 fa 8a 3d
       0.014602452 0.2538405 0.08155874 0.067860655
000290 72 cb ec 3d f2 e6 92 3b 50 38 53 3d 4c 0a 65 bd
       0.115622416 0.0044830972 0.051567376 -0.055918023
0002a0 ec f7 26 bd 48 44 12 3d 34 9e 4f 3d ff 86 90 3c
       -0.04076378 0.03570965 0.050687984 0.017642496
0002b0 37 30 51 3c d0 d7 fe 3c d7 cd 56 3c 1a 4f a8 bc
       0.012767843 0.031108767 0.0131105995 -0.020545531
0002c0 be 56 6b bd be 63 c1 3c 2d 1a 05 3d 87 bd 03 3d
       -0.05745577 0.023607131 0.032495666 0.03216317
0002d0 53 ec 96 3d 3e 23 5e 3c b5 e9 f9 bc 84 0c 57 3c
       0.07369294 0.013558207 -0.030506948 0.013125543
0002e0 76 b7 c1 3d 37 0c 9d 3d 96 9a 9f bc df f9 b7 3d
       0.094588205 0.076683454 -0.019482892 0.08983206
0002f0 5b 4a c6 3b c5 72 92 3c 76 04 d0 3d 4a 17 70 bd
       0.0060513443 0.017876992 0.10157101 -0.05861596
000300 15 93 56 3d b0 a6 dd bc 83 33 94 3d e8 05 92 3d
       0.052386362 -0.027057022 0.072363876 0.07130033
000310 bb 6d d2 bc d1 fa 93 3d 21 3a 90 bd 01 1f c5 3c
       -0.02568709 0.07225574 -0.07042337 0.024062635
000320 04 6d b3 3d a9 0d 42 be b2 95 ce bb 66 7b c7 bb
       0.087610275 -0.18950523 -0.006304466 -0.0060877083
000330 e2 9c cb 3d ca be 65 3d f0 42 51 bb 21 52 16 bd
       0.099420324 0.056090154 -0.0031930767 -0.036699418
000340 b6 79 11 bd d3 c2 11 3b 7d 40 c1 3b 97 17 c8 3d
       -0.035516463 0.0022241368 0.00589758 0.097701244
000350 72 f0 dd bd a1 e3 f5 bb 14 86 02 bd dd 4b c4 bd
       -0.10836877 -0.007503942 -0.031866148 -0.09584782
000360 5d 0b 8e bd 2e 83 1f bd ef 78 90 3c e5 90 d8 3c
       -0.06935761 -0.038943462 0.01763579 0.026436279
000370 3e 73 dc 3d 0b ef b9 3d 3e 01 61 3d 57 dd 86 3d
       0.10764168 0.09078797 0.054932825 0.06585186
000380 a1 99 06 3e c6 b1 b7 bc fc 02 87 3d 9d 2b 7d 3d
       0.13144542 -0.022423636 0.06592366 0.06180917
000390 80 99 c8 39 2a 9a e2 bc 40 c3 2c 3e b3 f6 a0 3e
       0.0003826134 -0.027661402 0.16871357 0.31438217
0003a0 f9 8c 16 3e 56 c2 52 3e 8f 48 39 3e 3c 01 ae 3d
       0.14702214 0.20581946 0.18094085 0.08496329
0003b0 75 ad fc 3d 76 39 23 3e ed a8 14 bc 73 bc a6 3d
       0.12337772 0.15939888 -0.009073478 0.081414126
0003c0 33 54 9b 3d 3f 1f e0 3e 2a 49 a1 b9 3f 6c 89 3b
       0.07584419 0.4377384 -0.00030762824 0.004193812
0003d0 d8 37 d6 3d 84 5f c9 3d 28 2a b9 3d de 49 a3 3b
       0.1045987 0.09832671 0.09041244 0.004983171
0003e0 84 fa 7d bd 2d 75 cb 3c fb 87 92 bc 03 74 91 3d
       -0.06200649 0.024836147 -0.017887106 0.071022056
0003f0 cb 12 9b 3d da 6e 02 bd 37 a2 22 bd 95 01 1a bd
       0.07571944 -0.031843998 -0.03970548 -0.037599165

lstm.weight_hh_l0 f4 [800, 200]
000000 da 02 9f bd 4d 75 5c 3c 01 ad 04 bc f5 79 8f bc
       -0.07764216 0.013455701 -0.008097888 -0.017514208
000010 b9 97 0d bd b2 f1 ee bc 76 4e b4 3d d8 c8 be bd
       -0.034568522 -0.029167984 0.08804028 -0.09315652
000020 b3 38 7a 3c 34 d0 4e 3e 76 db a1 bd 7c 59 5a bc
       0.015272307 0.2019661 -0.07903187 -0.013326999
000030 d5 0d ff 3d 92 7e 66 3d 6c 4d b1 bd c1 91 ba bd
       0.1245381 0.05627305 -0.08657345 -0.091098316
000040 39 cb a0 3d 03 b4 2d bc 48 15 5e bb b2 78 49 bc
       0.07851262 -0.010602 -0.0033887196 -0.012296842
000050 5e 46 93 3d 71 ca 25 bd de 61 a5 bb 55 c4 c4 3d
       0.07191156 -0.040476266 -0.005047067 0.0960776
000060 4c 6c b3 3d 9f dc 93 3d a0 32 3e 3b fc 9a d8 bd
       0.0876089 0.072198145 0.0029021874 -0.10576436
000070 9d 13 06 bd 86 ae a4 bd 16 58 be bd 8c 70 be 3d
       -0.03273355 -0.080411 -0.09294145 0.0929881
000080 37 46 c1 bd 81 cf 19 3d 36 e6 b9 3d b2 3b 1b bc
       -0.094372205 0.037551407 0.090771124 -0.009474682
000090 60 46 f3 bc e0 21 26 3e c7 64 07 bd 24 b6 3b bd
       -0.029696643 0.1622386 -0.033055093 -0.045828
0000a0 1f ef a8 3c bc bf 95 3c ff 17 d1 bc da 68 5d 3c
       0.020621834 0.018279903 -0.025524138 0.013513768
0000b0 d7 7d cc 3c 79 fa 0d 3e d4 20 8a bd 01 6e 20 bd
       0.024962349 0.13865079 -0.06744543 -0.039167408
0000c0 a9 34 57 bd 31 fd 68 bc 56 14 71 3d bc 8f 83 3c
       -0.052540455 -0.014220522 0.058857284 0.016059749
0000d0 b7 61 9b bd 97 18 24 3c f8 82 eb bb 79 c9 93 bc
       -0.07586997 0.010015628 -0.0071872436 -0.018040406
0000e0 7a ec 4b bb 16 4d 4f bd dd 0e a6 3d 1e 79 f7 bd
       -0.0031116293 -0.050610624 0.08108304 -0.12083648
0000f0 df 37 4a 3d 25 9e 87 bd 00 d8 a0 3d ec 34 84 3d
       0.04936969 -0.066219606 0.07853699 0.064554065
000100 4a 97 84 3d 03 0f 1d be b4 3a 69 bd e3 5b f7 bd
       0.064741686 -0.15337758 -0.05694075 -0.12078073
000110 a4 36 81 bd a9 4a 8b bc 83 42 0e bd 38 6e ae 3d
       -0.0630925 -0.017003374 -0.0347314 0.08517116
000120 03 fd 0b 3d 7a c8 35 be 82 01 74 bd e5 47 ae bd
       0.034176838 -0.17752257 -0.05957175 -0.085098065
000130 e5 96 29 3c 99 a9 4e 3c 1f db 72 bc c2 49 b6 bd
       0.0103509175 0.012613677 -0.01482275 -0.08900787
000140 ed d5 73 bd 84 6d 1e bc 62 79 22 3d 0a 85 d6 bc
       -0.059530187 -0.009669665 0.03966654 -0.026186485
000150 c3 20 fa 3c 27 3b d8 bd cb aa bb 3c 23 a1 ce bb
       0.0305332 -0.105581574 0.022908589 -0.00630583
000160 54 5f 1d 3e 18 b0 10 3e 69 67 3c 3a 9b f8 15 3d
       0.15368396 0.14129674 0.000718704 0.03661404
000170 f8 c3 97 3d 4d d8 2b 3d 53 7b e9 3c a0 63 9f bd
       0.07410425 0.041954327 0.028501188 -0.07782674
000180 b0 1c 73 3b a0 23 e4 3d 8d ce 25 bc 75 cf 42 bc
       0.0037095957 0.111396074 -0.010120046 -0.011890282
000190 eb 79 46 3d 60 a6 9c 3d d0 e4 ad 3c 73 43 da bd
       0.048456114 0.07648921 0.02122727 -0.10657396
0001a0 eb 76 8d 3d 5e 65 d5 bd df 4d cc bd 33 46 61 3d
       0.069074474 -0.10419725 -0.0997579 0.054998588
0001b0 10 20 ad bd 8e 53 4b 3d 72 ea 16 bd e8 20 99 3d
       -0.08453381 0.04964023 -0.03684468 0.074769795
0001c0 92 b0 17 bc 94 b8 a5 3c 68 7e 68 3d 07 74 b6 bb
       -0.009258406 0.020229615 0.056761175 -0.0055680308
0001d0 d6 27 17 bc 1b ef 6f 3d 95 67 c7 bd 99 6b 54 3c
       -0.009225806 0.058577638 -0.097365536 0.012965106
0001e0 c2 66 d6 bb 6a 7e 27 bd 73 ad 8a bd cb 7b f3 3c
       -0.0065430114 -0.040892042 -0.06771364 0.029722115
0001f0 51 ad 5a 3e 59 d4 eb bc 14 f5 1b 3d f0 25 0f bd
       0.21355177 -0.028787779 0.03807552 -0.03494829
000200 28 87 d6 3d 05 91 1b be 45 4a a7 3c e5 ef d9 3c
       0.10474998 -0.1519204 0.020421157 0.026603648
000210 c9 a5 39 bc e0 e1 7f bd 5d 3c fa 3d 9c c6 bc 3b
       -0.01133103 -0.06247127 0.12218545 0.005760981
000220 6e 3f ec bd 84 ef 85 bd 30 49 b8 bd 56 e0 28 bc
       -0.11535536 -0.065398246 -0.089983344 -0.010307392
000230 81 49 23 bd ef 96 78 3c f9 37 9e bd 21 03 95 bd
       -0.03986502 0.015172704 -0.0772552 -0.072759874
000240 77 00 ac 3d 00 5f 2a bc 31 df a0 bc 57 b1 24 bb
       0.08398526 -0.010398626 -0.019637676 -0.0025130117
000250 df c1 5a 3d 5c 88 ec 3b ea 4c 27 bd d3 ba 10 bc
       0.053407546 0.0072184037 -0.040844835 -0.008833605
000260 24 ad af bd 1e 06 0f 3b e4 5c 68 3d 82 92 12 3e
       -0.08577946 0.0021823714 0.056729212 0.14313701
000270 4f 79 86 bd d8 77 9e bb b4 0b 4a bd f2 e5 0a 3c
       -0.065661065 -0.004836064 -0.049327567 0.008477675
000280 8e c7 50 bd 22 4f 63 bc 90 e2 c2 bd c7 d8 24 bd
       -0.05097156 -0.013873847 -0.095158696 -0.040245797
000290 06 f2 ad bc 0a 2d 8f bc 4d a9 87 3d 08 7d 04 bd
       -0.02123357 -0.017477531 0.066240884 -0.0323458
0002a0 84 1e 54 be ec 1e 9e bc 0b 4c f8 3c 48 25 46 be
       -0.20714766 -0.019301854 0.030309698 -0.19350159
0002b0 ec 20 87 3d b1 23 fb 3b 29 25 82 bd f3 b2 26 3d
       0.06598076 0.007664167 -0.06354744 0.040698003
0002c0 26 60 03 be cc cd 6b 3b df b5 8b 3d f0 19 be 3d
       -0.12829646 0.0035980819 0.068217985 0.09282291
0002d0 6b 32 d5 bc 4e fb a8 bd 7f fb 6f 3d 4b 0a 78 bc
       -0.026025018 -0.082510576 0.058589455 -0.015139173
0002e0 de d5 ba 3d 70 db 07 3c 77 17 5f 3e 89 be c9 bd
       0.09122823 0.008292064 0.21786295 -0.09850795
0002f0 0b 0c a4 3d fa 1a 40 bb 3d 6f 1d bd 9f 90 a6 3d
       0.080101095 -0.0029312954 -0.038436163 0.08133053
000300 bd b9 19 bd 33 c1 86 bd b9 40 55 3c fa c7 e2 3d
       -0.03753065 -0.065798186 0.013015919 0.11073299
000310 1d 13 ad 3c 1a ec 60 3c b5 1f bd 3c 6d 82 da 3d
       0.021127278 0.013728166 0.023086408 0.10669408
000320 eb 8e 40 3d 9e 75 4f 3b 01 32 8b bd 44 3e e3 b9
       0.047011297 0.0031655799 -0.06796647 -0.00043343205
000330 21 e8 3e 3c cf 91 b2 bc 54 b9 c1 3c c0 cc 99 bd
       0.0116520235 -0.021798043 0.023647942 -0.07509756
000340 14 c0 87 3d 73 78 48 bd 21 4d 27 bd 81 6e 1c 3c
       0.06628433 -0.048942994 -0.04084504 0.009547831
000350 b8 b8 59 bd 97 70 bd 3c a6 ac 03 3d 56 d4 ff bc
       -0.053154677 0.023124976 0.032147072 -0.03122918
000360 97 a2 cf 3c 7a 41 4d bd 2d d6 15 ba f3 c0 7e bd
       0.025346084 -0.05011127 -0.00057158136 -0.06219573
000370 7c 3f 6e 3c 9f db e6 bc e5 9a ca 3d e3 95 96 bd
       0.014541503 -0.028180895 0.09892825 -0.073528074
000380 5c 5f 84 3c 4a 08 09 bc b0 6d aa bc 89 a9 31 bc
       0.016158752 -0.008363793 -0.020804256 -0.010843643
000390 89 a8 9e bc 1c 09 23 3d 82 95 8e bd d8 5a 55 3d
       -0.019367473 0.03980361 -0.0696211 0.05208859
0003a0 db 6f 85 3d 9d 00 e2 bc 67 73 81 bd 8a a5 32 bd
       0.06515475 -0.027588183 -0.063208394 -0.0436149
0003b0 e0 52 45 bc 1b 41 3d 3d 76 23 9a bc 49 b4 a1 3b
       -0.012043685 0.046204668 -0.018815737 0.0049348217
0003c0 d0 1d 94 3d 1a 80 da 3b 12 4b 92 3d 0f 5a 4b 3d
       0.07232249 0.006668103 0.07143225 0.049646433
0003d0 fc 43 8a 3d 8f 86 94 3d 4a 71 ec 3b dc c2 36 3d
       0.06751248 0.072522275 0.0072156535 0.044619426
0003e0 ac cb 50 3c 6f 09 8b 3d ad b8 80 3d e7 9e 6f bd
       0.012743872 0.06788909 0.06285224 -0.05850115
0003f0 f0 0c 9c 3c e7 45 c1 bc b9 27 5e ba 73 f3 c5 3c
       0.019049138 -0.023592902 -0.0008474547 0.024163937

lstm.bias_ih_l0 f4 [800]
000000 3e 82 d8 3d b4 60 97 bd 18 c0 92 bc 63 5d 35 3c
       0.10571717 -0.073914915 -0.017913863 0.011069628
000010 e5 79 92 3d ee 43 34 3e 00 8e 35 bd a4 a8 5f 3c
       0.07152156 0.17604038 -0.044324875 0.013651047
000020 50 38 78 bd 0b a4 40 3d bd 02 af 3d ea 97 1f bd
       -0.06060058 0.047031444 0.08545444 -0.038963236
000030 30 e5 25 3d 2e d8 21 bc 91 e8 7f bc f4 28 0c bc
       0.040501773 -0.009878201 -0.015619413 -0.008554686
000040 d0 f2 d3 bc 63 fd 6a 3d f6 de 04 3d db c3 0a bc
       -0.025872618 0.057370555 0.032439195 -0.008469547
000050 b6 a5 a0 3c fb e1 86 bc 2f 28 3e bd 99 de 07 3e
       0.019610267 -0.016465178 -0.04642504 0.13268508
000060 41 df 9b 3d 85 f6 1a 3c af 6e 2e bd 3e 35 95 bd
       0.07610942 0.009458189 -0.042586025 -0.07285546
000070 3e 10 4c 3d 6b 5f c4 bb 7a cf fd bc 43 49 16 3d
       0.049820177 -0.00599282 -0.030982722 0.03669096
000080 8d 09 4a 3d e9 79 71 bd 34 58 5d bc 22 79 91 bc
       0.049325515 -0.058954153 -0.013509799 -0.017757956
000090 b9 e8 0c bd c6 73 6e 3d a5 9f a7 3c 17 e6 bd 3d
       -0.03440163 0.05821588 0.020461867 0.09272402
0000a0 9a 71 85 3d 42 08 44 bb b6 04 df 3d 7a 66 7a bd
       0.065158084 -0.0029912149 0.108895704 -0.061132886
0000b0 d0 f7 96 bc 7b 94 c7 bc 7e e1 71 3d 3e 6f 1c 3d
       -0.018428713 -0.024362793 0.059052937 0.038192026
0000c0 0b ea b7 bc 56 11 bf 3d c6 91 7b 3d 3a 9d a7 bc
       -0.022450468 0.093294784 0.061418317 -0.020460714
0000d0 c6 a7 26 3d 82 10 48 3c 26 09 a7 bb a0 dd 73 3d
       0.040687345 0.012210967 -0.005097526 0.05953753
0000e0 d5 07 95 bc 7d a3 35 3d 33 c2 21 3d 86 49 0d bd
       -0.018192211 0.044345368 0.039491843 -0.034493946
0000f0 5d 14 a4 bc e9 4e ed 3d a7 85 19 bd c3 56 d2 3b
       -0.020029241 0.115873165 -0.037480976 0.006419034
000100 dd 54 b2 bc 1b d5 23 3d 33 b4 1b 3d 80 83 8c 3c
       -0.021768982 0.039998155 0.03801365 0.017152548
000110 be a1 07 3c 84 77 8a 3c fd 73 bb 3c 1a 6b 02 3e
       0.008278308 0.016902693 0.022882456 0.12736169
000120 f6 37 62 3d 79 ae d2 bc af 9b d0 3c 40 78 91 bb
       0.05522915 -0.02571796 0.02546486 -0.0044393837
000130 ab 41 38 3b 82 7f 46 3c 9b a6 21 3d 3d 6c 58 bc
       0.0028115313 0.012115361 0.039465528 -0.0132094
000140 f5 a0 60 3d a5 dd 76 3d d4 85 e8 bc 94 1e b0 3d
       0.054841 0.06026997 -0.028384127 0.08599582
000150 92 cd a2 3d ec dd 1a bc df 3a 27 3d 3d e5 8e bd
       0.07949366 -0.009452324 0.04082763 -0.069773175
000160 a4 61 fd 3c 94 79 ae bd 8c bf 6c 3d f4 dd 20 3d
       0.030930348 -0.08519283 0.05779986 0.03927417
000170 8c 9d 2f 3d 7d 78 48 3d 87 d4 f8 3c 68 e6 7b 3c
       0.042874858 0.04894303 0.030374778 0.015374757
000180 cc c1 96 3d b5 0f 1a bd 7b e4 04 bb 07 4b 19 3d
       0.073611826 -0.037612636 -0.0020277787 0.037425067
000190 9e c5 05 3c d2 bb e9 3d ac 50 b7 3d 46 19 82 bd
       0.008164791 0.11412777 0.08950934 -0.06352477
0001a0 81 2b 07 3d f9 b7 b2 3d f8 a3 86 3b 42 9a c2 bb
       0.033000473 0.08726496 0.004108902 -0.005938799
0001b0 e8 96 52 3e 83 27 4a bc e4 fb 3c bd 4e f0 26 3d
       0.20565379 -0.012338522 -0.04613866 0.040756516
0001c0 c6 95 bb bc cd 95 a0 3d 5e ce 58 3d ba 55 4f 3d
       -0.022898566 0.07841072 0.052931182 0.050618865
0001d0 03 59 72 3d d0 ba d5 3c b9 b5 9b 3c fc e2 86 3d
       0.05916692 0.026090056 0.01900755 0.065862626
0001e0 f8 69 c7 3d 0a 4d d0 3c a7 78 09 3d 66 6a 44 bd
       0.09737009 0.02542736 0.03356233 -0.047953032
0001f0 a7 b3 77 bd c9 7b 36 bc 02 3e 7a 3d eb 3b 67 3d
       -0.060474064 -0.011137911 0.06109429 0.056453627
000200 24 87 1c bd f7 61 c4 bc 34 e7 14 bd 07 da 58 bd
       -0.038214818 -0.023972495 -0.036353305 -0.052942302
000210 db eb 09 3e 92 ac 6e 3d 20 f3 47 bd 4c b1 74 bd
       0.13468878 0.058270045 -0.048815846 -0.059739396
000220 5a 32 90 ba b3 58 8d 3d c7 57 1a 3d 0b 0f 69 3c
       -0.0011001334 0.06901684 0.037681367 0.014224778
000230 c6 3d 7f 3d 9a 9e 89 bb 75 1e cb 3c ca a1 2a 3d
       0.06231477 -0.004199815 0.024794796 0.0416582
000240 ad db f1 bc 1d 6c b8 3b 42 b2 88 3d e2 6f 4c bb
       -0.029523695 0.0056281225 0.06674625 -0.0031194617
000250 f2 2b 77 3d 5e 48 cc 3c ca 2f 75 bc a4 39 4f 3d
       0.060344644 0.024936851 -0.014965007 0.05059208
000260 dc b5 da bc e8 94 01 3e 06 86 36 3d bc a0 17 bd
       -0.026698045 0.1265446 0.04456141 -0.037018523
000270 f0 15 77 bc ab e7 59 bd 72 2a bd 3b b6 fd dc bc
       -0.015080914 -0.05319945 0.005772882 -0.026976448
000280 40 ac 32 3c 94 7c 6f 3d 0d 63 6e bc 09 b7 56 3d
       0.010905325 0.058468416 -0.014549983 0.05242065
000290 d5 63 2b bd 08 1c 84 bc e1 46 0c bc b5 ab d7 3d
       -0.041843254 -0.016126648 -0.008561821 0.105307974
0002a0 b3 d3 1d 3d 43 ce a6 3d 58 f6 ca 3d 7a 80 93 3d
       0.03853197 0.0814481 0.099102676 0.07202239
0002b0 af de 4e bd d4 ad 6e bd 9e a7 6d 3d de ca 9c bd
       -0.050505336 -0.058271244 0.05802118 -0.07655881
0002c0 4a 2e dd 3b 5d b1 a3 bd 2d 05 da 3d 50 dd 40 bd
       0.006749903 -0.07992814 0.106455185 -0.04708606
0002d0 20 d3 3c bd ff 4a be bd 1e 33 3b 3c d8 df 8e 3d
       -0.046099782 -0.09291648 0.0114257615 0.069762886
0002e0 da 8b 5f bd 5f 46 2e bd 84 36 7a bd 69 19 50 bd
       -0.054576732 -0.04254758 -0.061087146 -0.050805483
0002f0 bd 52 bd bc bf a7 4f 3d 4a 57 86 bd 4b c1 0f bd
       -0.023110742 0.050697085 -0.06559618 -0.035096448
000300 d5 f8 e7 3d 54 64 d0 bc 5f 6b 1a bb 2e 5e ae bc
       0.11326758 -0.025438465 -0.0023562533 -0.021285143
000310 d7 5e 2a 3d dc 85 17 bd 38 14 87 bd ee f6 94 bb
       0.041594353 -0.036992893 -0.06595653 -0.004546038
000320 32 29 a4 bd 7d 47 60 bd b0 ac 1f bd 1f be 65 bd
       -0.0801567 -0.054755677 -0.038983047 -0.056089517
000330 26 15 89 3c 62 ba c8 bd cf 52 31 bd 95 46 da 3c
       0.016733717 -0.09801175 -0.043291863 0.026644984
000340 aa 1f 60 bd dc b8 a0 bd d5 c9 15 3d e3 d2 1e 3c
       -0.054717697 -0.07847759 0.036569435 0.009693834
000350 d5 06 ae bd 27 c2 b3 bb 35 0e 30 3d 1d ae 4c 3d
       -0.08497397 -0.0054857912 0.0429823 0.049970735
000360 82 4c ea 3b 8a 5c 20 3d 32 33 98 3d 9b 61 49 bd
       0.0071502337 0.039150752 0.0743164 -0.04916535
000370 0c 03 6e 3d cc 69 df bb 3e 3d 27 3d 19 07 30 bd
       0.058108374 -0.006818032 0.04082989 -0.04297552
000380 31 97 66 bd d9 2d 64 3c 84 31 ea 3c a3 45 72 3d
       -0.05629653 0.013926947 0.028588064 0.059148442
000390 ea fb 5f bd 45 24 c4 bc 80 dc 8b bd 12 97 63 3d
       -0.054683603 -0.023943076 -0.068291664 0.055563994
0003a0 05 43 87 bd e7 f1 dd bc 4b 6f 82 3c fc fd 96 bd
       -0.0660458 -0.027092887 0.01592221 -0.073726624
0003b0 21 10 9a 3c 44 06 61 bd 53 1b 1c 3d 36 9d b2 3a
       0.018806519 -0.054937616 0.038111996 0.0013627175
0003c0 97 bc a8 3c ff 10 26 3c b7 f6 22 3c 11 af 82 3c
       0.02059774 0.010135888 0.009946517 0.015952619
0003d0 d0 93 d1 bc 52 bb 98 bd 0f e1 27 bd ec 47 2d bd
       -0.025583178 -0.074576035 -0.040986117 -0.04230492
0003e0 fc 67 80 bd bd ad 1b bd 78 3e 5a bd 71 fe 58 bb
       -0.062698334 -0.038007487 -0.05328223 -0.0033110643
0003f0 83 7e 87 bd 18 32 3e bd ff 35 44 3c 57 16 8b 3c
       -0.06615927 -0.046434492 0.011975764 0.016978426

lstm.bias_hh_l0 f4 [800]
000000 1e f1 80 3d 53 03 68 3a 21 8d 5d bd f9 73 25 bd
       0.062959895 0.0008850593 -0.05408967 -0.040393803
000010 42 72 33 bd e3 3d 37 3e 98 16 fc 3c bd 8f 84 bd
       -0.043810137 0.17894702 0.030772492 -0.064727284
000020 e6 5a 69 bc a4 a3 b4 bc 89 9e 9f 3d f5 f8 c4 bc
       -0.014242863 -0.022050686 0.0779391 -0.024044493
000030 5d 0f 02 bd 34 24 09 bd 4d 8c 23 bc 88 25 3c 3d
       -0.031752933 -0.03348179 -0.009982181 0.04593423
000040 1d cf 58 bd 75 ef 90 bc 10 bd 4f 3d 13 12 2c 3c
       -0.052931894 -0.017692307 0.050717413 0.010502356
000050 b7 58 17 bd ef d4 2d 3d 20 51 7a 3d 73 08 f5 3d
       -0.03694984 0.042439397 0.061112523 0.11964502
000060 f1 ce 99 3d 38 27 95 bd 4c a2 ca bc a9 29 71 3b
       0.07510174 -0.07282871 -0.024735592 0.0036798513
000070 fe 69 64 3c fe 20 87 bd c0 57 8a 3d 49 60 36 3d
       0.013941286 -0.0659809 0.06755018 0.04452542
000080 e7 ef 2d bd e6 d6 19 bd ee 43 3a bc f8 d4 ce 3d
       -0.042465117 -0.03755846 -0.011368735 0.10099214
000090 cc b2 90 3d 40 2d 5c bd d7 21 11 bc 45 5c 7c 3d
       0.07065353 -0.05375409 -0.008858166 0.061611433
0000a0 0b 06 4a 3d 3c 8c 2a bb 9a b8 a8 3d c8 f5 55 bd
       0.04932217 -0.0026023528 0.08238335 -0.05223635
0000b0 ac ce 7c 3d 8d d1 5a 3d 9d de e9 bc 23 50 98 3b
       0.061720535 0.0534225 -0.028548533 0.004648225
0000c0 d5 da f8 3a a2 20 02 3d a0 2f 3f bc f2 a5 b2 3c
       0.0018986115 0.031769402 -0.0116690695 0.021807645
0000d0 8a 6a 56 bd 1b 56 f4 ba d3 87 89 3d a3 1f 85 3d
       -0.052347697 -0.0018641384 0.067153595 0.06500175
0000e0 4b ee 26 3d e9 c7 54 3d f3 51 54 bd a3 66 40 3c
       0.040754598 0.05194846 -0.051835965 0.0117432205
0000f0 19 44 8a 3c d9 c7 ac 3d 01 ee 20 bc 86 63 7c bd
       0.016878175 0.084365554 -0.00982237 -0.06161835
000100 45 f2 c5 3c 65 af 26 bd 31 6e 56 3d c6 3b 4a 3c
       0.024163375 -0.040694613 0.05235118 0.012343353
000110 a1 23 97 bd 17 0a ae 3d ab 36 78 bd 9e 3a 93 3d
       -0.073798425 0.08498018 -0.06059901 0.07188915
000120 00 e1 4a bd f5 1e 81 3c 52 8a 62 bc 2a 1d 07 bd
       -0.049530983 0.015761832 -0.013826923 -0.032986797
000130 b9 f0 9b 3d 52 46 d8 3c e9 6f a7 3c a5 89 35 bd
       0.076142736 0.026400719 0.020439105 -0.04432072
000140 cb 30 f1 3c a3 48 95 3d d6 25 19 3d c4 8b aa 3d
       0.029442212 0.07289245 0.0373896 0.083274394
000150 38 e6 8e 3d c1 1a 96 bd 57 f2 9e 3d 85 53 cd 3c
       0.069775045 -0.07329322 0.077610664 0.02506424
000160 42 4a af bc f2 37 50 3d ac e0 aa 3d bc 4e 35 3d
       -0.021397714 0.050834604 0.08343634 0.04426454
000170 68 be 15 3d b3 70 77 bd 32 4b 51 3d f3 50 88 3b
       0.03655854 -0.060410213 0.051097102 0.0041600405
000180 15 ac b2 3c 3e 65 a5 bd c7 c9 19 3d 70 73 1b 3c
       0.02181057 -0.08075951 0.037545945 0.009487972
000190 4b e5 54 3d e4 f0 c0 3d 1a 5a be bc 8d 6c 64 bd
       0.051976483 0.09420946 -0.023236323 -0.055767585
0001a0 8b 64 7d 3d 1e af 45 3d 9a ff 8d bd 67 7b 91 bd
       0.061863463 0.048262708 -0.06933518 -0.07103615
0001b0 8c 79 29 3e c3 f4 d0 bb b4 98 6c 3d 50 b0 4e 3d
       0.16550273 -0.006376834 0.057762817 0.050461113
0001c0 00 2a c6 3c 5b ce 5c 3b d5 65 f1 bc 4f 83 6b bc
       0.024189949 0.0033692333 -0.029467503 -0.014374568
0001d0 2e 1f 9c 3d 17 34 6a bc ae 30 2a 3c 67 21 38 3d
       0.076231346 -0.014294646 0.010387583 0.04495373
0001e0 75 e7 87 3d 8a 9a 83 bd 6b 7a 75 bd b7 35 3b 3c
       0.06635944 -0.0642596 -0.0599312 0.011426381
0001f0 67 0d b6 bd 0b 50 f6 bc d4 af a7 3c 86 00 db bc
       -0.08889275 -0.030067464 0.020469584 -0.026733648
000200 96 14 4e 3d 94 1c 53 3c 14 10 32 3d 75 09 44 3d
       0.0503126 0.0128852315 0.043472365 0.04786058
000210 bf a5 0f 3e bf ad a1 3c 26 31 69 bd a5 d2 b6 3c
       0.14028071 0.019736169 -0.056931637 0.02231724
000220 cb 0a ca bc ea a7 8d bd 67 ca 23 3d bd 93 9c 3c
       -0.02466335 -0.06916793 0.039987948 0.019113416
000230 d6 25 6f 3d a8 0c da bc 65 7d 81 bd ee d2 50 3d
       0.058385693 -0.026617363 -0.06322745 0.05098241
000240 a9 ed 01 bc de 82 36 3d 6b 23 4a 3d be a0 53 3c
       -0.007930198 0.0445584 0.049350183 0.012916742
000250 0e 0a 24 bd 46 cf d6 bc 5c 8e 3d 3d e4 e0 c7 3c
       -0.04004865 -0.026221883 0.046278343 0.024399228
000260 26 11 33 bd cb 2b 45 3d 07 c7 2b bc 42 fd 23 3d
       -0.043717526 0.048137467 -0.010484464 0.040036447
000270 a9 be 13 3b 15 71 9b bc 63 1b 56 3c 1a 46 18 bd
       0.0022544062 -0.01897482 0.013068053 -0.03717623
000280 f9 4b 14 3d 62 64 2e 3d 99 55 ce bc 43 ae 48 bd
       0.036205266 0.0425762 -0.0251873 -0.048994314
000290 55 f2 60 3d f1 be ff bb 76 30 03 3d 9d 2c 9f ba
       0.054918606 -0.0078047444 0.032028638 -0.0012144033
0002a0 89 2a a8 bc cd d3 98 bb 24 85 c0 bb 1f fb 4a 3d
       -0.020528095 -0.0046639205 -0.0058752466 0.049555894
0002b0 c9 52 5d bd 6a 19 e3 3c 32 f2 71 3c 0f 1e 48 bd
       -0.05403403 0.02772208 0.0147672165 -0.04885679
0002c0 be e9 38 3d c5 9a 5b bd a8 93 eb 3c 8c bd 60 bd
       0.04514479 -0.053614397 0.028756931 -0.054868266
0002d0 50 6f 51 3c d5 56 52 bc b6 2f a3 3c 6e 08 d4 3b
       0.012782887 -0.012838085 0.019920211 0.0064707315
0002e0 58 a1 8a bc e1 f0 14 3d 85 1d 8e 3d 41 ca 77 bd
       -0.016922638 0.036362533 0.06939224 -0.06049562
0002f0 64 12 82 3d 37 0c 39 3d 9b f8 0e bc 4d ed 19 bd
       0.06351164 0.045177665 -0.008726264 -0.037579823
000300 43 32 f1 3d cb aa 2c 3d 21 39 fd bc 16 06 b4 3a
       0.11777165 0.04215507 -0.03091103 0.0013734724
000310 cf 98 0a bc 23 32 8b bc e6 43 27 bd 67 3f b4 3a
       -0.008459284 -0.01699168 -0.040836237 0.0013751806
000320 b4 1e ce bd e3 9e 9d bd 31 84 07 3d 87 2c 17 3d
       -0.1006445 -0.07696321 0.033085052 0.0369077
000330 4a 6f 92 bc c0 d4 fc bd 5c 29 b0 bc bc 34 37 3b
       -0.017875332 -0.12345266 -0.021504097 0.0027955016
000340 d4 00 1c 3d 1e 8a 56 3d 49 dd 57 bd 4c cf cb bc
       0.038086727 0.052377813 -0.05270127 -0.02487912
000350 cc f9 ac 3b 92 94 82 3d 31 98 68 3d 22 1f b5 3c
       0.0052788015 0.06375994 0.056785766 0.022109572
000360 8c 0a ab bd 04 05 56 bd c1 b2 4c 3c d7 6d 81 bd
       -0.08351621 -0.052250877 0.01249379 -0.063197784
000370 a2 f6 5b bd bc 12 63 3c e9 5e 96 bd cb f0 c5 bd
       -0.053702004 0.013859447 -0.073423214 -0.09665068
000380 1a b9 02 bd 67 32 56 bd 07 25 62 3d 23 73 3d bd
       -0.031914808 -0.05229416 0.055211093 -0.04625238
000390 01 7e 69 bc f1 e4 40 bc 91 35 2c bd a6 73 1d bd
       -0.014251233 -0.011773334 -0.042043272 -0.03844037
0003a0 e9 36 31 3d 75 05 d0 3c 19 b1 98 bd 9e 2f cf 3c
       0.043265257 0.025393227 -0.07455654 0.02529126
0003b0 1d 13 ba 3c 56 fe 46 bd 9f 38 62 bc aa 6f 16 3d
       0.022714192 -0.048582397 -0.013807445 0.036727585
0003c0 65 80 da 3c b1 ef ca 3c f1 05 10 3d 47 88 10 bd
       0.026672551 0.024772497 0.035161916 -0.035286214
0003d0 82 2c 0a 3d 0b ed 79 bd 39 c9 ab 3c b6 9b 23 3d
       0.033733852 -0.061017077 0.020969974 0.03994342
0003e0 76 e8 77 bd a5 22 49 bd 01 86 c4 bb 8b 97 91 bd
       -0.060524426 -0.049105305 -0.00599742 -0.07108983
0003f0 1d 14 9a 3b 0d ca ea 3c 0e bc 8f bd cf fa cc 3c
       0.0047021047 0.028660798 -0.070182905 0.025021939

linear.weight f4 [1, 200]
000000 db 62 ea bd 29 49 04 3d f3 6e c1 3c 83 4b 07 3c
       -0.114446364 0.032296333 0.023612475 0.0082577495
000010 eb 6e a8 3d d6 91 e7 bd 89 26 02 3c a6 82 b8 bc
       0.08224281 -0.11307113 0.007943758 -0.022523236
000020 29 e3 73 bd 1f c1 9b 3c 41 d9 9b 3d 28 dc 2b 3d
       -0.05954281 0.019012986 0.07609797 0.041958004
000030 57 1c c7 3c ee 5a 98 3d c6 34 e2 3b dd d6 3b bc
       0.024305506 0.074392185 0.0069032637 -0.011464802
000040 47 ca 0a 3d 02 ab 2f 3b 5a f3 ba bd bf 1e 46 bd
       0.033884313 0.002680481 -0.09128447 -0.048369166
000050 ad f1 36 3d d1 97 9d ba a4 fd a1 3d 2b 2d 48 3d
       0.044664074 -0.0012023394 0.07909706 0.0488712
000060 2c b6 08 be b6 9f c8 3c 5d b1 fe bc fe cd f2 bb
       -0.13350743 0.024490219 -0.031090433 -0.00740981
000070 c5 00 2d 3d 1c 59 65 3c 5b 67 85 bd c3 58 63 3d
       0.042237062 0.013998296 -0.06513854 0.05550457
000080 51 c3 43 bd 14 7e bd 3c 66 b6 e1 3a 64 4e 8a bd
       -0.04779369 0.023131408 0.0017220497 -0.06753233
000090 92 12 c9 bd e1 9b 33 bd 66 81 81 3c e4 a4 8d bd
       -0.09817995 -0.04384983 0.015808772 -0.06916216
0000a0 e3 d5 dd 3b 77 3e 45 3c ce 91 dc bd a0 49 8b bd
       0.006769882 0.012038819 -0.107699975 -0.06801152
0000b0 dc e2 8b bc c8 85 7b 3d 02 7d 92 bd 02 34 9f bd
       -0.017075948 0.06140688 -0.071527496 -0.077735916
0000c0 92 65 5e bd 1a dd a9 3d 70 20 8e 3d c7 ae 26 bd
       -0.054296084 0.08294125 0.06939781 -0.040694024
0000d0 25 3a 29 3d ed d0 26 bd 33 96 99 3d 41 04 82 bd
       0.041315217 -0.04072659 0.07499351 -0.063484676
0000e0 9e 8e 21 bd ea 2a 58 bd c0 a0 4f bd 21 cd 18 bd
       -0.03944265 -0.0527753 -0.050690413 -0.037305
0000f0 20 3d ea bb ee 07 98 bd c3 83 92 3c ba 75 3d bd
       -0.0071484 -0.074233875 0.017885095 -0.04625485
000100 99 22 d7 3c 41 68 e8 bc 0c a3 38 bd 13 eb 98 bd
       0.026261615 -0.028370025 -0.04507737 -0.07466712
000110 e9 d5 35 3d 1b bd 89 3d 2b 07 a8 bc 24 39 b7 bd
       0.044393454 0.06725522 -0.02051123 -0.089464456
000120 49 a0 51 bc 75 3b 62 bd 80 86 8a bc 71 7e 27 bd
       -0.012794563 -0.055232484 -0.016909838 -0.04089207
000130 49 9b a7 bd 80 2d 44 bd 9b d8 cb 3d 0d 55 be ba
       -0.08183915 -0.047894955 0.099534236 -0.0014521197
000140 30 ce cd bd 0a c1 8f bd d4 a2 54 3d 21 3e 14 bd
       -0.10049093 -0.07019241 0.051913098 -0.036192063
000150 e1 5b 73 3d 02 eb 76 bc 7d 6f af bd ce 05 31 bd
       0.059413794 -0.015070679 -0.085661866 -0.043218426
000160 74 ca f3 39 95 67 a3 3c bb 4b 91 3d 9a 86 a6 3d
       0.0004649941 0.019946853 0.070945226 0.08131142
000170 74 f3 2c 3d 33 52 bf 3c 85 cd 4a 3d 59 83 ab bd
       0.042224362 0.023354625 0.049512405 -0.08374662
000180 e1 38 92 bd cd 60 d5 3c 7c ed e4 3b 0d 96 a4 bd
       -0.07139755 0.026047135 0.006986318 -0.080364324
000190 9a 47 c5 3d 5f f3 18 bd fd 6e d0 3d eb 5f 4d bd
       0.096327975 -0.03734147 0.10177419 -0.050140303
0001a0 6c 58 f5 3c 9a b4 c7 3d fa 0c 5a bd 39 94 e2 bb
       0.02994939 0.09751244 -0.05323503 -0.006914642
0001b0 c6 cd 93 3d 3c 04 46 bc 79 8d 4d bd 83 b0 f0 3c
       0.072169825 -0.0120859705 -0.050183747 0.029381042
0001c0 73 ba 1f 3d 66 63 bf 3d 9c e8 6c 3d 95 54 03 3d
       0.03899617 0.093451306 0.05783902 0.032063086
0001d0 d8 ea 79 3d 5d 04 dc 3c 9f ca 3c 3d 65 ec 5e bd
       0.06101498 0.02685755 0.046091672 -0.054424662
0001e0 d8 57 1d be b9 6a 24 3d b3 36 3f bd b6 68 6c bd
       -0.15365541 0.04014084 -0.046683025 -0.057717048
0001f0 ac 76 35 3d 60 a7 28 3d 26 a8 29 3d b5 20 67 3d
       0.044302627 0.041175246 0.041420124 0.056427676
000200 82 c1 4d bd 25 68 29 bd d1 8a 61 3d bf bc 70 3d
       -0.05023337 -0.041359086 0.055064026 0.058773752
000210 20 ba bb 3d 5d db de 3c 31 dc 7d 3d 63 52 13 bb
       0.0916636 0.02720421 0.06197757 -0.0022479526
000220 76 60 f5 bb c7 4d 71 bd 49 3f b7 bd 20 ec 39 bc
       -0.0074883057 -0.058912065 -0.089476176 -0.0113478005
000230 d8 02 72 3d 7e 5c 57 3d e0 c3 85 3d 32 dc 9c bd
       0.059084743 0.05257844 0.06531501 -0.076591864
000240 c5 e2 a8 3d 3b a3 0d 3c 5f c0 68 bd 90 0f b9 bd
       0.08246378 0.008644874 -0.056824084 -0.090361714
000250 4b e2 39 3d 86 62 1c 3d c2 55 b0 3d 39 80 22 bd
       0.045381825 0.038179897 0.08610107 -0.039673064
000260 61 29 c7 3c fb 5d e6 3d 6e cf 15 3c 8a 0b bb 3c
       0.024311723 0.11248394 0.009143693 0.02283265
000270 de 98 a0 3d 4d 41 3f bc 21 57 e1 3d d5 52 81 3d
       0.07841657 -0.011673284 0.11002947 0.06314627
000280 43 6d 11 3d ba 63 32 bd 23 cd a9 bd 83 e3 29 bd
       0.03550459 -0.043552138 -0.0829108 -0.041476738
000290 62 c7 ef bc 1b bf ea bc 79 6e 2e 3d d2 4c c5 3d
       -0.029269878 -0.02865558 0.042585824 0.09633793
0002a0 d2 84 b8 bc 91 18 56 bd 3b b1 68 bd f0 f3 9d 3c
       -0.022524271 -0.052269522 -0.056809645 0.019281358
0002b0 49 11 a2 3d 1b d0 c1 bc 6f 3d 60 3d 17 76 be 3c
       0.07913453 -0.023658803 0.054746088 0.023249669
0002c0 f6 c4 22 bc 95 8e bd bc 21 2f a7 3d e0 75 02 3c
       -0.009934654 -0.023139277 0.08163286 0.007962674
0002d0 94 d5 4f bd f3 c7 57 bd 50 75 ca bc 92 94 92 3d
       -0.050740793 -0.05268092 -0.024714142 0.07157244
0002e0 f5 98 45 bd e1 ab 3c 3d 99 6f 87 bc 14 e1 6a bd
       -0.048241574 0.046062354 -0.016532706 -0.057343557
0002f0 2a a1 1f 3d 25 1b a0 3d 89 7b 6f 3c 7e f3 41 3d
       0.038972057 0.078176774 0.014616855 0.047351353
000300 33 54 0b 3e 08 73 99 bd 12 07 5b 3d 74 be 33 3d
       0.13606338 -0.074926436 0.05347354 0.043882802
000310 be db 53 bd 2b 12 74 3c 24 13 23 3d 2f ab 18 3d
       -0.051723234 0.01489691 0.039813176 0.03727263
