models/TATAMOTORS.NS/TATAMOTORS.NS_lstm_final.pth (torch, 682465 bytes, 5 tensors)

lstm.weight_ih_l0 f4 [800, 10]
0.008853333 0.017384112 -0.05248954 -0.0034305528 -0.010661385 0.014330659 -0.049132828 0.05566685
-0.0008751248 -0.072524324 0.09269696 0.079018086 -0.012609514 0.08866157 -0.016045634 0.037716877
0.0030574214 0.068467684 0.048677236 0.07002098 -0.008740729 0.18460211 0.037372615 0.024295658
-0.012576779 -0.058651358 0.0068605123 -0.023240719 -0.04649364 -0.034700193 0.05630305 -0.06629056
-0.014218002 -0.015129471 0.053059105 0.058721766 -0.00076035294 0.017989105 -0.012948338 0.047794316
-0.0057813264 0.046436284 -0.0130455755 -0.010666311 0.09979752 0.03458782 -0.031474505 -0.04938132
0.026647754 0.058316078 0.09185927 0.3241808 5.838248e-05 -0.004707623 0.0763685 0.020024072
0.06776835 0.011288303 0.025832912 -0.012578071 0.0096194865 -0.0691694 -0.04050774 0.065164834
0.05627449 0.043415274 -0.05009477 0.04749412 0.081270985 0.027580997 0.031829864 -0.04727103
0.04717206 0.045799103 0.023992028 -0.027814567 0.033567093 -0.0058058775 -0.06427231 0.02130653
-0.040198468 0.1270017 0.07231246 0.07653702 0.04685773 -0.05955842 0.016363516 0.044460695
-0.09471739 0.02347372 -0.05198244 -0.022170877 0.01551401 0.04273678 0.060194843 -0.03449983
0.0052943975 0.016951624 0.020918483 0.047928594 -0.02571857 0.054509062 0.037846256 0.025065461
0.047634687 0.029624833 -0.015855728 -0.003401587 0.06317311 0.01513305 -0.05035615 0.09814789
0.023620652 0.01841378 -0.05570144 -0.07360094 0.035684306 0.013534773 0.004169048 -0.07672856
-0.019238243 -0.012492345 0.035093807 -0.046742477 0.029730087 -0.027236179 -0.029745333 -0.082170136
-0.032235086 -0.062062226 0.058727626 -0.047327876 -0.067145675 0.010541811 0.066106044 0.03342865
-0.02412886 0.041747097 -0.015192954 0.039824285 0.0783854 0.06783981 0.06318879 0.09023802
0.020095797 0.064365216 0.010835995 0.02138645 0.06647721 -0.059201438 -0.0324582 -0.039859343
-0.03933524 -0.06259803 0.04309148 0.0068700123 0.02190778 0.043626588 -0.056183364 -0.084745705
-0.01203821 0.38803872 0.0054525817 0.07625857 0.012561773 -0.050976112 0.045643732 0.04034766
-0.019822137 -0.009949458 0.06275033 0.42131975 0.02088847 0.13245805 0.031712677 0.072826065
0.11110628 0.0875279 0.046614982 0.020425035 0.028574754 0.07004611 0.023088917 0.12555905
0.11600108 -0.010079896 0.11415467 0.00979872 -0.012461567 0.029031621 -0.010271227 -0.08915353
0.0034421382 0.028292371 0.08434512 0.038180303 0.06719501 -0.071459405 -0.028316587 -0.05405897
-0.031631276 -0.07693889 0.008745011 -0.10628732 -0.10105213 -0.08090065 -0.020078212 0.046154164
0.029574554 -0.057731103 -0.0032763418 0.05167278 0.06140493 0.11068409 -0.006556906 0.05860798
0.0033094708 0.034875426 0.07489407 0.011412118 -0.025320152 0.030573653 0.08623755 -0.014706561
0.08282263 -0.04262907 -0.028245483 -0.051224403 0.028597344 -0.0046870955 0.14225215 0.095327385
0.010040675 0.02756071 0.09157358 0.041541886 0.07766323 0.10978896 -0.027054312 0.09888768
0.18151304 0.32778513 0.07071725 0.17215462 0.1547031 0.013232862 0.059687953 0.1720318
-0.01973704 0.07020998 0.04686963 0.0060375836 -0.0678335 -0.058535725 0.05148735 -0.06774003
00000000: 920d 113c 2069 8e3c 46ff 56bd 20d3 60bb
00000010: 17ad 2ebc 24cb 6a3c 813f 49bd ec02 643d
00000020: a268 65ba a287 94bd e7d7 bd3d 3cd4 a13d
00000030: 2398 4ebc 3294 b53d 2272 83bc 037d 1a3d
00000040: 055f 483b c938 8c3d c861 473d 2967 8f3d
00000050: 4635 0fbc 5608 3d3e 0714 193d b007 c73c
00000060: d60e 4ebc 683c 70bd 26ce e03b 5263 bebc
00000070: 1d70 3ebd ca21 0ebd 079e 663d 58c3 87bd
00000080: 9ff2 68bc 9ae1 77bc 8154 593d 3c86 703d
00000090: 6c52 47ba e35d 933c 4425 54bc f9c3 433d
000000a0: 4871 bdbb f933 3e3d 1cbd 55bc c0c1 2ebc
000000b0: a462 cc3d f5ab 0d3d 69eb 00bd 1144 4abd
000000c0: 644c da3c d7dc 6e3d b720 bc3d 07fb a53e
000000d0: b6df 7438 6742 9abb 1767 9c3d 8609 a43c
000000e0: 22ca 8a3d 93f2 383c 8b9f d33c 4114 4ebc
000000f0: 0d9b 1d3c b0a8 8dbd 72eb 25bd 2475 853d
00000100: 1480 663d 37d4 313d 2c30 4dbd 3289 423d
00000110: 6771 a63d 8bf1 e13c 0860 023d 449f 41bd
00000120: 7d37 413d d797 3b3d ee8a c43c 60db e3bc
00000130: a67d 093d 3b3f bebb 33a1 83bd 088b ae3c
00000140: 26a7 24bd bc0c 023e 8e18 943d 71bf 9c3d
00000150: e4ed 3f3d 88f3 73bd c80c 863c 6b1c 363d
00000160: 31fb c1bd f54b c03c 8aeb 54bd b39f b5bc
00000170: 792e 7e3c c30c 2f3d de8e 763d b24f 0dbd
00000180: a07c ad3b 22de 8a3c 3d5d ab3c c650 443d
00000190: c0af d2bc e544 5f3d ad04 1b3d 1556 cd3c
000001a0: 971c 433d c7af f23c dfe3 81bc 29ed 5ebb
000001b0: e760 813d 9df0 773c 4042 4ebd c301 c93d
000001c0: 1980 c13c 7fd8 963c 3127 64bd 17bc 96bd
000001d0: b529 123d f4c0 5d3c 829c 883b dd23 9dbd
000001e0: 8599 9dbc b1ac 4cbc 86be 0f3d 0a75 3fbd
000001f0: 838c f33c 681e dfbc 7cac f3bc d148 a8bd
00000200: f008 04bd f634 7ebd 618c 703d e0da 41bd
00000210: ac83 89bd 8fb7 2c3c 9b62 873d 7bec 083d
00000220: e3a9 c5bc 01ff 2a3d deeb 78bc ca1e 233d
00000230: 8688 a03d 99ef 8a3d 2069 813d b6ce b83d
00000240: f19f a43c e9d1 833d 7589 313c a332 af3c
00000250: 3425 883d 357d 72bd e4f2 04bd 8d43 23bd
00000260: fd1d 21bd 6533 80bd b180 303d d71d e13b
00000270: f277 b33c cbb1 323d 8720 66bd 288f adbd
00000280: ea3b 45bc 03ad c63e 92ab b23b 742d 9c3d
00000290: e5cf 4d3c 54cc 50bd ecf4 3a3d 9743 253d
000002a0: 0962 a2bc 0d03 23bc 3f83 803d 39b7 d73e
000002b0: 4c1e ab3c 15a3 073e 27e5 013d d525 953d
000002c0: b08b e33d d441 b33d 5aef 3e3d 6752 a73c
000002d0: 9a15 ea3c 5674 8f3d f824 bd3c 8d92 003e
000002e0: f991 ed3d 2626 25bc ecc9 e93d cf8a 203c
000002f0: 9a2b 4cbc b9d3 ed3c a648 28bc 2096 b6bd
00000300: 7f95 613b 67c5 e73c 22bd ac3d f362 1c3d
00000310: 8a9d 893d 4f59 92bd 30f8 e7bc f06c 5dbd
00000320: cc8f 01bd 2392 9dbd 3c47 0f3c 2bad d9bd
00000330: 6bf4 cebd 3daf a5bd 107b a4bc 260c 3d3d
00000340: 5646 f23c 7377 6cbd e5b7 56bb d6a6 533d
00000350: bc83 7b3d 57ae e23d 50db d6bb ec0e 703d
00000360: b5e3 583b 89d9 0e3d 1062 993d e4f9 3a3c
00000370: 356c cfbc 9975 fa3c 509d b03d caf3 70bc
00000380: e99e a93d d29b 2ebd 1263 e7bc aed0 51bd
00000390: fa44 ea3c 3596 99bb 8caa 113e 013b c33d
000003a0: a581 243c 00c7 e13c ee8a bb3d d327 2a3d
000003b0: e60d 9f3d 09d9 e03d 01a1 ddbc a085 ca3d
000003c0: 8ede 393e 74d3 a73e 35d4 903d 4d49 303e
000003d0: 7d6a 1e3e a5ce 583c 5b7b 743d 1b29 303e
000003e0: 93af a1bc 40ca 8f3d 5ffa 3f3d ecd6 c53b
000003f0: 4aec 8abd 28c3 6fbd 66e4 523d 49bb 8abd

lstm.weight_hh_l0 f4 [800, 200]
-0.005218125 -0.0645799 0.017036915 0.07855389 -0.023859723 -0.06790221 0.0044806614 -0.053436074
-0.024643186 0.039298274 -0.055540625 -0.0043681855 -0.019158019 -0.003714639 0.033113446 0.03553855
-0.058732294 -0.06103154 -0.025550984 0.045151386 -0.03473226 0.055408794 0.030643417 0.015813937
-0.015055114 -0.0100702485 -0.009603872 -0.07557518 0.041421033 -0.009246704 -0.05227044 -0.019598458
0.018284526 0.012887643 -0.029321432 -0.050685454 0.03382224 0.06404919 -0.020737732 -0.019635634
0.013801218 0.0534077 0.043409947 0.064706415 -0.09133808 -0.06260999 -0.0066421954 -0.06258266
0.025390547 0.023893641 0.056749377 0.020470966 -0.039901216 0.077884726 -0.04676119 0.0106621785
0.027904075 -0.01865573 -0.011560438 0.019091915 0.02579007 -0.031673834 0.06703376 -0.016691053
0.04116209 0.022005636 0.05140889 0.00050677307 0.0050842725 0.039672766 -0.02644436 0.043958616
-0.028345473 -0.01545223 -0.013365259 0.04414547 0.048188318 0.055197693 -0.006951127 0.01277537
-0.03498109 -0.0348577 0.026207136 -4.080415e-05 -0.016482554 -0.021579009 0.03770886 -0.05441508
-0.07399476 -0.06387562 -0.06257394 0.022874502 -0.059752934 0.051376425 0.010002288 -0.06468046
0.026746461 0.028921649 0.010800637 0.009046986 -0.056741446 0.0049705673 -0.029084451 0.0039627682
-0.026031444 -0.037049066 -0.0044787084 0.009101025 -0.07691997 -0.009453578 0.03286958 -0.005929454
-0.024091646 0.016523398 -0.028853972 -0.07520815 0.0003366739 -0.066797204 0.019948011 0.02192955
0.0012995894 0.013659236 -0.076148815 -0.03220443 0.0549086 0.03910273 0.038430322 0.02726207
-0.051912826 -0.06677314 -0.027593201 -0.054425124 -0.02256184 0.040899202 -0.036106363 0.02423133
0.02103937 -0.060136627 0.050982706 0.036085702 0.06423205 0.05725046 -0.02083414 0.055033695
0.06352786 0.046121676 0.042444605 0.00069669716 -0.05550758 -0.018496713 0.04804761 -0.080886774
-0.049872465 0.03626823 0.013275168 -0.03678141 -0.0021658787 0.057760134 0.06337044 -0.0026005495
-0.004632172 -0.059577025 0.055283956 0.038439393 -0.05512653 -0.028476996 0.036160715 -0.018650655
0.062869035 -0.008202303 -0.03776542 -0.056463867 0.032166474 0.045557465 -0.021637237 0.058880605
-0.0058323564 -0.027025362 0.0350128 -0.057291992 0.04932625 0.010549593 -0.053453468 0.017879695
0.031822484 0.01745117 -0.061710626 -0.027502066 -0.059515778 -0.010763193 -0.08445128 -0.05558051
-0.052827884 -0.032231137 0.02277946 0.010504716 0.014264425 0.06188962 0.0561143 0.06902198
0.06696875 0.051373865 -0.057665307 0.05621797 0.02325289 0.036213856 0.02281299 0.018748686
0.04991375 -0.031920295 -0.060884807 0.03237546 -0.04186331 -0.037501477 0.034669917 -0.045871288
-0.023430213 -0.068075836 -0.008060913 -0.059860893 0.025689779 -0.003610641 -0.040809784 -0.05654159
-0.0672015 0.018114083 -0.047472153 0.07917424 -0.044893496 -0.035215918 0.061310492 0.0400606
-0.052138202 0.04094189 -0.08159462 0.05020999 0.07484262 0.038575146 0.0065232655 0.0011834311
-0.018184304 -0.0024376167 0.052344915 0.0051152026 -0.015011778 0.033691414 -0.053080287 -0.009680263
-0.025704425 -0.03714233 -0.03892757 0.02833438 0.024835391 0.042542372 0.053929675 -0.058854125
00000000: cefc aabb 7742 84bd 0091 8b3c dde0 a03d
00000010: 7775 c3bc 5010 8bbd 83d2 923b c9df 5abd
00000020: 82e0 c9bc 3af7 203d 917e 63bd ff22 8fbb
00000030: 47f1 9cbc 4d71 73bb f7a1 073d df90 113d
00000040: 4691 70bd 35fc 79bd 4c50 d1bc a9f0 383d
00000050: 6a43 0ebd 55f4 623d e707 fb3c 3b8c 813c
00000060: baa9 76bc affd 24bc 8f59 1dbc 29c7 9abd
00000070: 1aa9 293d 7d7f 17bc 8719 56bd f28c a0bc
00000080: 6ec9 953c b126 533c 8033 f0bc 8d9b 4fbd
00000090: 3089 0a3d 392c 833d 2de2 a9bc e9da a0bc
000000a0: 811e 623c 08c2 5a3d a1ce 313d cc84 843d
000000b0: 760f bbbd ab39 80bd c6a6 d9bb 562b 80bd
000000c0: d6ff cf3c 99bc c33c 0972 683d bab2 a73c
000000d0: 756f 23bd 0782 9f3d a988 3fbd 6bb0 2e3c
000000e0: 1697 e43c e7d3 98bc fe67 3dbc a666 9c3c
000000f0: b245 d33c 6cbc 01bd ff48 893d adbb 88bc
00000100: 9499 283d 2a45 b43c 2192 523d f7d8 043a
00000110: f899 a63b e97f 223d d8a1 d8bc f30d 343d
00000120: c434 e8bc 5a2b 7dbc f6f9 5abc e1d1 343d
00000130: 1d61 453d fa16 623d 48c6 e3bb c94f 513c
00000140: 5548 0fbd f3c6 0ebd 59b0 d63c 1f25 2bb8
00000150: 6c06 87bc 76c6 b0bc 9b74 1a3d 59e2 5ebd
00000160: 918a 97bd 39d1 82bd c426 80bd 4f63 bb3c
00000170: 7ebf 74bd 1670 523d a3e0 233c 3077 84bd
00000180: 651b db3c 18ed ec3c 28f5 303c cf39 143c
00000190: b869 68bd 24e0 a23b 8442 eebc 1cda 813b
000001a0: e53f d5bc c3c0 17bd 21c2 92bb 771c 153c
000001b0: 3888 9dbd 2ee3 1abc 41a2 063d de4b c2bb
000001c0: d85b c5bc 145c 873c 2a5f ecbc bb06 9abd
000001d0: 9b83 b039 f9cc 88bd 036a a33c 9aa5 b33c
000001e0: fc56 aa3a fdca 5f3c e9f3 9bbd cbe8 03bd
000001f0: d7e7 603d 2f2a 203d 1d69 1d3d b454 df3c
00000200: 8ba2 54bd 5bc0 88bd 230b e2bc e1ec 5ebd
00000210: 9cd3 b8bc ec85 273d 44e4 13bd c880 c63c
00000220: c25a ac3c d351 76bd 3ed3 503d 9ace 133d
00000230: 188c 833d 757f 6a3d 5cac aabc 036b 613d
00000240: e51a 823d 15ea 3c3d 65da 2d3d 8ea2 363a
00000250: eb5b 63bd 6b86 97bc 92cd 443d f7a7 a5bd
00000260: 1247 4cbd ff8d 143d 1780 593c 1ba8 16bd
00000270: 6af1 0dbb e495 6c3d 5cc8 813d fb6d 2abb
00000280: 7ac9 97bb 0a07 74bd 6e71 623d a072 1d3d
00000290: 5bcc 61bd 9748 e9bc 421d 143d 42c9 98bc
000002a0: 7bc1 803d f462 06bc eaaf 1abd a846 67bd
000002b0: fec0 033d 779a 3a3d 9340 b1bc ca2c 713d
000002c0: 5a1d bfbb 4b64 ddbc 9569 0f3d 02ab 6abd
000002d0: 520a 4a3d 33d8 2c3c 06f2 5abd 7078 923c
000002e0: 4b58 023d c2f5 8e3c 48c4 7cbd 034c e1bc
000002f0: d1c6 73bd 1a58 30bc cbf4 acbd 64a8 63bd
00000300: 0d62 58bd cc04 04bd fd9b ba3c f91b 2c3c
00000310: 56b5 693c f87f 7d3d 1cd8 653d 655b 8d3d
00000320: e926 893d 676d 523d 7532 6cbd d044 663d
00000330: d87c be3c fb54 143d 4fe2 ba3c d896 993c
00000340: 5c72 4c3d dbbe 02bd 5962 79bd 219c 043d
00000350: dd78 2bbd 269b 19bd 0b02 0e3d 88e3 3bbd
00000360: b8f0 bfbc 586b 8bbd eb11 04bc b230 75bd
00000370: 5f73 d23c 81a0 6cbb 2928 27bd 2798 67bd
00000380: f1a0 89bd fc63 943c 2972 42bd 1b26 a23d
00000390: 3ee2 37bd 913e 10bd b620 7b3d 9516 243d
000003a0: de8e 55bd afb2 273d 151b a7bd fea8 4d3d
000003b0: 1647 993d f900 1e3d 1ec1 d53b 5c1d 9b3a
000003c0: 40f7 94bc 6cc0 1fbb 9f67 563d 6e9d a73b
000003d0: f6f3 75bc 0200 0a3d b76a 59bd f799 1ebc
000003e0: 1692 d2bc 8e22 18bd 8472 1fbd 801d e83c
000003f0: 9773 cb3c e940 2e3d 5de5 5c3d 0611 71bd

lstm.bias_ih_l0 f4 [800]
-0.055366825 0.07150408 0.04000096 0.04933957 0.062834546 0.056150135 0.066508286 0.040762216
-0.06908204 0.040728696 0.025760693 -0.04819434 -0.049916502 -0.036305297 0.026606545 -0.06562693
0.092664875 0.047555894 0.07548226 -0.01940275 -0.06426676 0.027304484 -0.03649391 0.0035366877
0.014502245 -0.05337007 0.045348242 -0.041122973 -0.027846815 -0.029397968 0.0005366494 0.045909163
0.009081038 0.026137535 0.046031266 0.011223294 0.053251654 -0.067834504 -0.05482684 -0.06781338
0.046260763 0.033278767 -0.06056708 0.04347255 -0.02153097 0.034979254 0.016080357 0.031551253
-0.006187799 0.03907367 0.049539864 -0.010817991 0.052932996 0.06321839 0.032286666 0.022850065
0.10226288 0.04950624 4.1923886e-05 -0.01834723 -0.008187433 0.026154784 0.04362662 0.08412449
0.028105773 -0.025185237 0.009701537 0.009843952 -0.064273015 0.09250828 0.009049177 0.04630995
0.04242375 -0.08784627 -0.00026407637 -0.0056765713 0.04116956 0.030384948 0.0026443521 -0.008314071
-0.052302975 -0.036733773 -0.05078306 0.00874267 0.086656705 0.02957449 0.038744867 -0.057306927
-0.042960707 -0.0008725294 0.025721526 -0.046670526 -0.059047326 0.016927466 -0.009028481 -0.030815503
-0.0064680353 0.040669486 0.0631488 0.01396062 0.055718582 0.009855864 0.07106209 -0.010217029
-0.0062189335 0.042513955 0.021387542 -0.025215387 0.047585234 -0.04312918 -0.06295017 0.05123297
0.044116285 0.040083535 0.07371952 0.058134638 0.047039118 0.08026843 0.018837195 0.01501116
-0.030356964 0.036008082 0.009875558 -0.039497264 -0.04394099 -0.06605378 0.022417597 0.047590256
0.0465676 0.019509142 -0.055091765 0.007954042 0.076980166 -0.026301563 0.078944154 -0.04277492
0.0016600249 -0.008249159 0.0073492564 0.06357358 -0.015304796 0.07624112 0.052676782 0.023210231
0.020410256 0.0557043 -0.06552165 0.027306058 0.027049666 -0.06745262 -0.04610809 -0.08175364
-0.06320019 0.04227173 0.020859344 -0.0069121025 -0.010476891 0.05433797 0.04814022 0.028968425
0.06743681 -0.049806014 0.0039244327 0.059090074 -0.05442166 0.061903592 0.018769637 0.034295864
0.015358501 0.030723562 0.043203544 0.003922973 -0.016122589 0.060974218 0.017406717 0.044256944
-0.004945598 0.025373805 0.02863947 0.07407494 -0.046765458 -0.0045107966 0.12832683 -0.03855154
-0.011086457 0.043319985 0.028661788 0.018115766 0.008095652 0.006282108 -0.012273554 0.05258423
0.029748973 0.059175447 -0.050884947 -0.04953573 0.027816212 -0.00093589124 -0.04453418 0.023964237
-0.041602675 -0.015929367 -0.028307088 0.064570345 0.051849194 0.031505767 -0.06647983 -0.04703824
0.054091875 0.07138038 0.0014169228 -0.017853241 -0.0048711537 0.022828862 -0.021051887 -0.011428236
0.019765895 0.0042734956 -0.05600031 -0.041887425 -0.08141751 -0.021917878 -0.0116369175 0.06709191
-0.059961352 0.0072189397 -0.061861645 0.06200579 0.07119417 -0.034762036 0.02040742 -0.018606506
-0.06605861 0.024638534 -0.067864574 -0.052329026 0.026506778 -0.04162991 0.0020752263 0.05007986
0.035545588 -0.030361487 -0.07423426 -0.0073557952 0.049999487 0.017737214 0.05453467 0.03346886
-0.021588005 0.030438729 0.056114316 -0.080598496 0.019276107 -0.049158808 -0.0036726268 0.0040072403
00000000: 53c8 62bd bb70 923d 0cd8 233d 4a18 4a3d
00000010: 66af 803d affd 653d 7f35 883d 48f6 263d
00000020: e27a 8dbd 22d3 263d 1708 d33c 6e67 45bd
00000030: 3f75 4cbd ddb4 14bd f8f5 d93c 6967 86bd
00000040: 15c7 bd3d f8c9 423d 7196 9a3d 84f2 9ebc
00000050: 4b9e 83bd a7ad df3c a37a 15bd c6c7 673b
00000060: d39a 6d3c 939a 5abd 14bf 393d 9070 28bd
00000070: 011f e4bc 02d4 f0bc eead 0c3a 3f0b 3c3d
00000080: a2c8 143c 621e d63c 488b 3c3d e8e1 373c
00000090: 681e 5a3d d1ec 8abd 1c92 60bd bee1 8abd
000000a0: ed7b 3d3d 514f 083d 3015 78bd 4610 323d
000000b0: b861 b0bc 6846 0f3d f4ba 833c e33b 013d
000000c0: 05c3 cabb b60b 203d 50ea 4a3d f13d 31bc
000000d0: 45d0 583d a578 813d 063f 043d 0f30 bb3c
000000e0: 336f d13d 0ec7 4a3d 6ed7 2f38 ee4c 96bc
000000f0: 9524 06bc 8f42 d63c d4b1 323d 7649 ac3d
00000100: 143e e63c 4551 cebc 32f3 1e3c 8748 213c
00000110: 92a1 83bd fb74 bd3d 0043 143c 81af 3d3d
00000120: 87c4 2d3d bfe8 b3bd bb73 8ab9 8802 babb
00000130: 6aa1 283d dbe9 f83c de4c 2d3b be37 08bc
00000140: a53b 56bd 2776 16bd e601 50bd 6a3d 0f3c
00000150: 1279 b13d 3346 f23c f0b2 1e3d abba 6abd
00000160: 91f7 2fbd 75ba 64ba f3b5 d23c 9829 3fbd
00000170: 9cdb 71bd 78ab 8a3c 32ec 13bc cb70 fcbc
00000180: d0f1 d3bb 0c95 263d 2854 813d 16bb 643c
00000190: 2b39 643d 7d7a 213c 0089 913d 5365 27bc
000001a0: 32c8 cbbb 1d23 2e3d ed34 af3c 8090 cebc
000001b0: bce8 423d 39a8 30bd 05ec 80bd aad9 513d
000001c0: 47b3 343d a22e 243d 42fa 963d 961e 6e3d
000001d0: 17ac 403d c663 a43d 7650 9a3c 5ef1 753c
000001e0: 2baf f8bc 367d 133d 18cd 213c e2c7 21bd
000001f0: 78fb 33bd 3447 87bd 1ca5 b73c 00ee 423d
00000200: abbd 3e3d a3d1 9f3c e7a7 61bd ac51 023c
00000210: c7a7 9d3d 6076 d7bc 79ad a13d c134 2fbd
00000220: 3195 d93a 7b27 07bc 08d2 f03b dd32 823d
00000230: f8c0 7abc 4e24 9c3d 9cc3 573d 6223 be3c
00000240: 6933 a73c 312a 643d 3730 86bd f4b0 df3c
00000250: 4397 dd3c 9924 8abd d6db 3cbd 746e a7bd
00000260: 1a6f 81bd 1f25 2d3d 37e1 aa3c eb7e e2bb
00000270: 44a7 2bbc 7e91 5e3d ae2e 453d 314f ed3c
00000280: 4f1c 8a3d 6401 4cbd 8798 803b 6f08 723d
00000290: 3fe9 5ebd 9f8e 7d3d c8c2 993c d279 0c3d
000002a0: 39a2 7b3c fbaf fb3c 33f6 303d 488c 803b
000002b0: 8513 84bc 1ac0 793d 8898 8e3c c546 353d
000002c0: af0e a2bb badc cf3c 529d ea3c 9ab4 973d
000002d0: 238d 3fbd 4ecf 93bb 1c68 033e 38e8 1dbd
000002e0: f9a3 35bc 4c70 313d 20cc ea3c 8467 943c
000002f0: a0a3 043c 24da cd3b 0417 49bc 9062 573d
00000300: 1eb4 f33c f461 723d bc6c 50bd fae5 4abd
00000310: d3de e33c 9956 75ba 7969 36bd a650 c43c
00000320: 9167 2abd 4e7e 82bc 44e4 e7bc 753d 843d
00000330: d25f 543d 310c 013d 9426 88bd 2bab 40bd
00000340: 718f 5d3d e02f 923d 0ab8 b93a f640 92bc
00000350: 339e 9fbb 9803 bb3c 0275 acbc 7f3d 3bbc
00000360: 16ec a13c ae08 8c3b 9560 65bd 2692 2bbd
00000370: 39be a6bd 1f8d b3bc c5a8 3ebc 7c67 893d
00000380: 099a 75bd db8c ec3b a362 7dbd c9f9 7d3d
00000390: 40ce 913d a362 0ebd 762d a73c ac6c 98bc
000003a0: bd49 87bd c0d6 c93c 95fc 8abd f656 56bd
000003b0: be24 d93c 2084 2abd 8500 083b 8a20 4d3d
000003c0: 4098 113d a7b8 f8bc 2208 98bd e208 f1bb
000003d0: 43cc 4c3d a24d 913c bf5f 5f3d a516 093d
000003e0: 54d9 b0bc a45a f93c 20d8 653d d310 a5bd
000003f0: ede8 9d3c bf5a 49bd 74b0 70bb 2b4f 833b

lstm.bias_hh_l0 f4 [800]
-0.078321226 0.025904976 -0.021648284 0.018774303 0.03481305 0.06945171 -0.002851405 0.06568947
-0.04798989 0.0876229 -0.048177272 0.06056173 -0.035009537 -0.0791963 0.050417833 -0.05690823
0.08914965 0.012236756 0.005014688 0.025731122 0.0033587955 0.08145178 -0.026762558 0.0140164485
0.0018209319 -0.018350624 -0.09454134 -0.011873975 0.036903925 -0.008210428 0.004707225 -0.019174077
-0.042783976 0.013981846 0.07683427 0.06200795 0.049731523 0.052068304 0.021956192 -0.06965268
0.036416855 0.026452057 -0.07340004 0.031769283 0.06713489 -0.0666136 0.050493114 -0.024183188
0.025197832 -0.009232639 -0.031004807 -0.017333914 0.060812708 0.07947939 0.04140541 -0.011547033
0.025260227 0.05293902 0.07131732 -0.064521216 -0.05510441 0.054751135 0.045034893 -0.04158877
0.008986073 0.06377988 0.05671674 0.046527483 -0.0016706346 0.0119804535 -0.03125087 0.013766136
0.051406566 -0.053510707 0.021496356 -0.004725755 0.03974337 0.093361795 -0.045024227 -0.05602907
-0.023254853 0.013527706 -0.015426892 -0.0058992803 0.025309237 -0.051553506 0.0014341783 -0.027999446
-0.026918078 -0.05727663 0.05254135 0.055555128 0.03181816 -0.035744436 -0.060020972 -0.011816627
0.05011485 -0.045406446 0.035680823 -0.020066457 0.0001975665 -0.008099315 0.09401238 -0.017620131
-0.017833149 0.047227394 0.041516453 -0.046668336 0.04186213 -0.04272786 -0.043339718 0.01835791
0.055005874 -0.025898064 -0.03921265 0.049558915 -0.078275755 0.097227946 -0.05572003 0.018307349
0.012078508 -0.018594861 0.021948362 -0.0030620391 -0.03070896 -0.06947717 0.034524653 -0.04194697
-0.06269766 -0.040262386 -0.060210507 -0.028679222 -0.050270997 0.0023579388 0.004498304 -0.030891398
0.028031204 0.0124929445 0.050249215 0.07908531 -0.039392643 0.052018728 0.009992027 -0.036830634
-0.059637964 -0.07474713 0.043794494 0.041045032 0.06465528 0.020784048 -0.041537456 0.048529744
-0.078983344 -0.056790393 0.015386739 0.030327445 -0.021178521 0.0038179443 0.060038112 -0.0113529945
0.016166301 0.055980057 -0.045628656 -0.06244433 0.054075215 -0.020869544 0.07134067 0.010002263
0.023556257 -0.010382858 0.050406378 -0.006152707 -0.02740676 -0.029635921 0.048913002 -0.06895526
-0.07113607 -0.04600557 0.05014181 0.13226978 0.06511947 0.038437195 0.086139806 -0.004198776
0.017339412 0.04425139 -0.018595949 0.048780438 -0.05443731 0.018965764 0.051779203 -0.012952141
0.031046 -0.020694025 0.0650397 0.045652322 0.01368096 0.010293095 0.04707339 -0.05581257
-0.06627834 0.024216112 0.00670403 0.0022293304 -0.07347998 0.04639937 -0.065477796 0.030984199
-0.0233215 -0.046616696 -0.031150332 -0.074783415 -0.0012349681 -0.057258394 0.01872914 -0.081034355
-0.017949024 -0.044427294 0.0021457076 0.0503831 -0.078693725 -0.012410068 -0.01604322 0.039128706
-0.0019733848 0.016422605 0.05268438 0.013223138 -0.013518952 -0.024497373 0.024471374 0.059469998
-0.051147275 -0.039461978 -0.025157666 0.020729655 -0.023253217 0.03689048 0.0032340882 0.0009213751
-0.029848658 -0.031930067 4.0362644e-05 -0.00870337 -0.012479475 0.051293418 0.053758364 0.0051854886
0.069714926 0.03711076 -0.0020740828 0.020582188 0.06510147 -0.016244246 0.015432137 -0.025374943
00000000: e166 a0bd ac36 d43c be57 b1bc 91cc 993c
00000010: 2198 0e3d b33c 8e3d a3de 3abb 3388 863d
00000020: 0c91 44bd a373 b33d 8855 45bd 940f 783d
00000030: 2966 0fbd ab31 a2bd ee82 4e3d 9b18 69bd
00000040: 1794 b63d ad7c 483c 4052 a43b 13ca d23c
00000050: 3d1f 5c3b 31d0 a63d 273d dbbc 3fa5 653c
00000060: 56ac ee3a 0c54 96bc e49e c1bd 108b 42bc
00000070: 9228 173d 0885 06bc 113f 9a3b f412 9dbc
00000080: 403e 2fbd 1d14 653c 495b 9d3d 0cfc 7d3d
00000090: 48b3 4b3d 9345 553d 79dd b33c 10a6 8ebd
000000a0: d729 153d fcb1 d83c c352 96bd 8220 023d
000000b0: 047e 893d b66c 88bd ded1 4e3d d21b c6bc
000000c0: af6b ce3c 7f44 17bc cbfd fdbc daff 8dbc
000000d0: bf16 793d 17c6 a23d b898 293d c42f 3dbc
000000e0: 89ee ce3c 96d6 583d d10e 923d b323 84bd
000000f0: 29b5 61bd ba42 603d 8276 383d fc58 2abd
00000100: 523a 133c 079f 823d d04f 683d 9a93 3e3d
00000110: 32f9 daba aa49 443c ea00 00bd 5c8b 613c
00000120: b18f 523d 0b2e 5bbd 2019 b03c 82da 9abb
00000130: f2c9 223d 7834 bf3d 536b 38bd bd7e 65bd
00000140: f680 bebc 50a3 5d3c 13c1 7cbc c04e c1bb
00000150: 5155 cf3c c529 53bd 0afb bb3a 185f e5bc
00000160: 4d83 dcbc e69a 6abd 9935 573d c68d 633d
00000170: c253 023d c268 12bd 8dd8 75bd 879a 41bc
00000180: 3b45 4d3d 1cfc 39bd 0e26 123d 6962 a4bc
00000190: db29 4f39 fdb2 04bc 9089 c03d 1858 90bc
000001a0: d316 92bc 8371 413d 280d 2a3d 4c27 3fbd
000001b0: a077 2b3d 6903 2fbd fd84 31bd 5463 963c
000001c0: d74d 613d 2d28 d4bc 729d 20bd 4afe 4a3d
000001d0: 0a4f a0bd 721f c73d b03a 64bd 4bf9 953c
000001e0: efe4 453c 4054 98bc 0dcd b33c 7eac 48bb
000001f0: 5b91 fbbc 0c4a 8ebd b969 0d3d 96d0 2bbd
00000200: a167 80bd 2cea 24bd 4b9f 76bd b0f0 eabc
00000210: f6e8 4dbd a687 1a3b 8266 933b f50f fdbc
00000220: b2a1 e53c 35af 4c3c 1fd2 4d3d 7bf7 a13d
00000230: 2e5a 21bd 9711 553d 99b5 233c b8db 16bd
00000240: f046 74bd 0615 99bd db61 333d d61e 283d
00000250: fd69 843d 4f43 aa3c 2e23 2abd 20c7 463d
00000260: 05c2 a1bd 0b9d 68bd a918 7c3c 4371 f83c
00000270: 947e adbc 7a36 7a3b 86ea 753d e901 3abc
00000280: 316f 843c 584b 653d 1de5 3abd a0c5 7fbd
00000290: f97d 5d3d 9bf6 aabc 0f1b 923d 88e0 233c
000002a0: 0df9 c03c dd1c 2abc eb76 4e3d a69c c9bb
000002b0: 2484 e0bc 08c7 f2bc 0059 483d 6a38 8dbd
000002c0: caaf 91bd 5670 3cbd 8061 4d3d bb71 073e
000002d0: 5b5d 853d 5270 1d3d 116a b03d e395 89bb
000002e0: 620b 8e3c f240 353d 8856 98bc ffcd 473d
000002f0: a8f9 5ebd 175e 9b3c 6e16 543d 3835 54bc
00000300: 2e54 fe3c 8486 a9bc 8933 853d eefd 3a3d
00000310: 1b26 603c 5fa4 283c 07d0 403d b99b 64bd
00000320: f0bc 87bd de60 c63c 7bad db3b f519 123b
00000330: ac7c 96bd 440d 3e3d 3919 86bd 93d2 fd3c
00000340: bb0c bfbc 26f1 3ebd fb2e ffbc 0c28 99bd
00000350: a7de a1ba c787 6abd da6d 993c 57f5 a5bd
00000360: d509 93bc 65f9 35bd 009f 0c3b 825e 4e3d
00000370: 2d2a a1bd 9953 4bbc 126d 83bc 6c45 203d
00000380: e753 01bb b388 863c 94cb 573d dca5 583c
00000390: 987e 5dbc b7ae c8bc 3178 c83c d096 733d
000003a0: ce7f 51bd e2a2 21bd 7317 cebc 3dd1 a93c
000003b0: 887d bebc 791a 173d fff2 533b 7088 713a
000003c0: 2c85 f4bc 1ac9 02bd 0f4b 2938 9498 0ebc
000003d0: b676 4cbc 0c19 523d bb31 5c3d 08eb a93b
000003e0: b3c6 8e3d 7401 183d 56ed 07bb fa9b a83c
000003f0: eb53 853d a712 85bc 13d7 7c3c 1ddf cfbc

linear.weight f4 [1, 200]
-0.010975355 0.053150017 0.023735564 0.08062986 0.063144155 0.09041989 0.042157367 -0.03184948
0.026388321 0.020523895 -0.014435265 -0.023107318 0.028580341 0.026820675 -0.0777532 -0.017042307
-0.07027849 0.059921015 0.08124761 -0.034474008 -0.00015900974 -0.0735632 0.04351753 0.09018704
-0.06790306 -0.0124772 -0.034510676 -0.040472694 -0.06449875 0.03836927 -0.034931783 -0.027267415
-0.0427989 -0.08359631 -0.09630863 0.021434717 0.07716253 0.012747191 0.038232844 -0.03128
0.0347684 0.071885444 -0.009022233 -0.03918443 0.102409355 0.03954806 -0.08817594 0.048937663
0.08478145 0.084628455 -0.06934655 -0.039689805 0.015546848 -0.08046177 -0.00014932848 0.02869593
0.05939865 0.012958938 -0.07037305 0.041370552 0.0036510758 -0.0721888 -0.0012073675 -0.07614863
0.026185526 0.07182139 -0.05641973 -0.051834952 0.0027720374 -0.082129665 0.0049911174 -0.05156247
0.0815728 -0.0076389955 0.030234829 -0.07179933 0.045007717 0.08514726 -0.05687887 0.03486797
-0.041482337 -0.0017654805 0.0816002 0.031907044 0.052797683 -0.028599441 0.023109324 0.019606188
0.02323809 0.039810363 0.01562823 -0.020085543 0.03204558 -0.067224294 0.032632202 -0.067058094
0.04554491 -0.076194964 0.002594982 -0.048091214 0.065277174 -0.02918455 -0.06886237 0.0017324619
0.044419907 -0.005548267 -0.021200659 0.004980733 0.024186289 -0.04024265 -0.0028203866 -0.0045081805
-0.00045325482 0.03562506 0.06604307 0.08718804 -0.006499102 0.054747473 0.07033775 0.023910329
-0.05320638 0.016115122 -0.01838833 -0.024735475 0.051638972 -0.0076490194 -0.039276503 -0.025764132
-0.05834287 0.040989112 -0.037727725 -0.032389283 0.0920293 -0.0441959 0.079505175 -0.076738395
0.036519706 -0.03119904 -0.08127478 -0.050036445 -0.07673606 -0.060582373 0.054187875 0.004699203
0.0042458368 -0.016786572 0.011842334 0.0525723 0.031405516 0.009482941 0.046939727 -0.056291092
-0.0061907303 0.006513537 -0.034871675 0.07991673 0.05212293 -0.06750711 -0.04786146 -0.07504902
-0.020880187 0.06783045 -0.0016616596 0.03939462 0.013080654 0.05822153 -0.07812555 0.020731675
-0.039072268 -0.0062474776 0.056354634 -0.026854172 -0.0067868712 -0.040592536 0.024700658 -0.065692835
-0.03004254 -0.053578496 -0.015547518 0.056527566 0.06681549 -0.0010707357 -0.07941826 0.011580863
-0.038817164 0.005807849 0.0910956 0.068693176 -0.024799347 0.090035066 -0.0301152 -0.071953855
0.083831206 0.07018468 0.016796108 0.008489514 0.05414297 -0.051136855 0.060051907 -0.062191386
00000000: fad1 33bc d5b3 593d 1671 c23c 4521 a53d
00000010: b951 813d 102e b93d 34ad 2c3d 9a74 02bd
00000020: 522c d83c ba21 a83c e481 6cbc 8f4b bdbc
00000030: 5221 ea3c 08b7 db3c 123d 9fbd 4f9c 8bbc
00000040: 2bee 8fbd bd6f 753d 2665 a63d 9e34 0dbd
00000050: dabb 26b9 4ea8 96bd 703f 323d fcb3 b83d
00000060: c210 8bbd 2b6d 4cbc 115b 0dbd b2c6 25bd
00000070: ec17 84bd 1829 1d3d a114 0fbd ea5f dfbc
00000080: e64d 2fbd 8b34 abbd 763d c5bd dc97 af3c
00000090: 6307 9e3d 98d9 503c 0b9a 1c3d 751f 00bd
000000a0: 4f69 0e3d ad38 933d fdd1 13bc da7f 20bd
000000b0: ffbb d13d 26fd 213d 9695 b4bd dc72 483d
000000c0: e6a1 ad3d af51 ad3d 9005 8ebd c791 22bd
000000d0: 35b8 7e3c 24c9 a4bd 0f95 1cb9 ba13 eb3c
000000e0: 004c 733d ba51 543c bf1f 90bd 2b74 293d
000000f0: e346 6f3b b9d7 93bd 8840 9eba d0f3 9bbd
00000100: 0783 d63c 1817 933d 6018 67bd e350 54bd
00000110: 12ab 353b 9933 a8bd 878c a33b 2b33 53bd
00000120: a40f a73d 8a50 fabb 08af f73c 870b 93bd
00000130: 035a 383d b061 ae3d d1f9 68bd b7d1 0e3d
00000140: 62e9 29bd b267 e7ba 011e a73d f6b0 023d
00000150: 6242 583d 6049 eabc c44f bd3c 289d a03c
00000160: cf5d be3c 3110 233d c606 803c 708a a4bc
00000170: 3a42 033d e4ac 89bd 58a9 053d c155 89bd
00000180: 4d8d 3a3d 1b0c 9cbd 9310 2a3b 4bfb 44bd
00000190: 0ab0 853d 7014 efbc b707 8dbd c613 e33a
000001a0: a6f1 353d 3dce b5bb 01ad adbc 6b35 a33b
000001b0: 5322 c63c 7ad5 24bd 3cd6 38bb 5cb9 93bb
000001c0: d5a2 edb9 95eb 113d 9741 873d a58f b23d
000001d0: 6bf6 d4bb e33e 603d 3d0d 903d 98df c33c
000001e0: efee 59bd dc03 843c 1fa3 96bc 0da2 cabc
000001f0: 6383 533d a0a4 fabb 66e0 20bd 4d0f d3bc
00000200: eff8 6ebd 33e4 273d 6388 1abd a0aa 04bd
00000210: dc79 bc3d c306 35bd 9cd3 a23d 0529 9dbd
00000220: b095 153d 2195 ffbc 6473 a6bd 04f3 4cbd
00000230: cc27 9dbd 3925 78bd 1bf4 5d3d c6fb 993b
00000240: a920 8b3b fe83 89bc 5906 423c 0d56 573d
00000250: 12a3 003d 565e 1b3c df43 403d 7d91 66bd
00000260: 9cdb cabb 826f d53b 9ad5 0ebd 62ab a33d
00000270: da7e 553d 2b41 8abd 610a 44bd 4db3 99bd
00000280: ed0c abbc b1ea 8a3d 0bcc d9ba 415c 213d
00000290: 3d50 563c b379 6e3d 4a00 a0bd 79d5 a93c
000002a0: 3e0a 20bd a4b7 ccbb 1ed4 663d 48fd dbbc
000002b0: 6764 debb 5c44 26bd 0959 ca3c f789 86bd
000002c0: c61b f6bc 2075 5bbd 04bb 7ebc 7389 673d
000002d0: 8fd6 883d ee57 8cba 0aa6 a2bd a9bd 3d3c
000002e0: bffe 1ebd c54f be3b 5490 ba3d 02af 8c3d
000002f0: 0028 cbbc 4e64 b83d 27b4 f6bc 8b5c 93bd
00000300: b2af ab3d fcbc 8f3d fe97 893c 9a17 0b3c
00000310: 05c5 5d3d e174 51bd fdf8 753d 65bc 7ebd
