stock-predictor/models/SBIN.NS/SBIN.NS_lstm_final.pth (torch, 682329 bytes, 5 tensors)

lstm.weight_ih_l0 f4 [800, 10]
00000000: 9273 c73d c1d2 923e ba91 623d 46d7 1e3d
00000010: 4bc8 0e3e 22e3 b93d 621d b03c b3b9 243e
00000020: 284c 723d a5d7 c23d 9602 adbb 4469 183d
00000030: 65bc 0bbc a159 94bd 1e77 8dbd 6d66 d3ba
00000040: f434 ebba aae7 8abd 6a87 433d 48b8 06bb
00000050: 572f ce3d 8de5 6dbd 90c9 9c3c ecba 573d
00000060: 0d86 493d a0cf d63c e176 b53d 7006 013c
00000070: e9bb 81bc d2cd dcbc 5c5c 853d 993b 29bd
00000080: 0b91 483d 257e 093d 9768 543c 3a80 dbbc
00000090: 3b24 d53b fd46 013d 0e05 443d 86de f03c
000000a0: 23dc 793c c955 25bd 404a 96bd 6f98 3b3d
000000b0: 9ca9 8c3d 9a57 cc3c f6df ddbb d5c4 80bc
000000c0: 8720 babd bef7 473d 002f c73d d2b9 a23b
000000d0: 8114 083d f194 e13d 095a 1a3c bb7b 063c
000000e0: 8a2a 843d 361a b43b 3e35 a73c 998f 863b
000000f0: bc49 f93d 9e52 543e aeaa a93c 58eb 8c3d
00000100: 1736 883b 385f c93c 64be 713d 6021 7bbc
00000110: feab 6f3c 9996 85bc 77aa 65bd bb6a 69bd
00000120: 2323 733d 1bc9 023d e35f 70bd 4be1 a03c
00000130: 4c9a ef3c d497 02bd ff29 b63b 69c4 963c
00000140: ad8a 573d f811 87bd 27a6 b53c f9ce 463d
00000150: 5199 033d adb4 3cbd dfb7 87bd ceec a6bc
00000160: 5579 82bd c57b 86bd d1a9 133c bfc2 83ba
00000170: 1da8 caba d9e3 b13d 6f9d 883c 756a 273d
00000180: 1db8 5e3c de4c bdbb b4a8 ae3b 03e0 01bd
00000190: 612f bc3d d0e1 643d c50b c13d 9da0 983b
000001a0: 1b2d b23c 7bf6 843d 16ac 003d 0988 a73d
000001b0: d7d6 0ebd a65a af3d a566 003e 90ad 5c3e
000001c0: 9576 703d b819 b13d 4272 c83c b9ed 8a3d
000001d0: b2d5 9a3c 7d2f 5e3d c25d 1dbc c748 123d
000001e0: 4330 08bd aa96 66be 2134 1abd 1caf 513c
000001f0: 234e 11bb 518d 1cbc 7829 42bd c730 8d3d
00000200: 9e8b d3bd ab01 823d a7aa b93c 2966 773d
00000210: 4142 ac3c 21da 3d3d 73a5 1bbc ccc7 893c
00000220: 669f 75bc d0e6 b43d 155a aa3d 59f9 32bb
00000230: fbdf ef3d aba8 b8bc f15a f63c 074f 78bb
00000240: 27a0 ba3d c78b 1abd 5892 0bbd 9bbb f5bc
00000250: 3fb4 1cbb cb40 3f3d 011b ba3c 1d6b dabb
00000260: d2fa a73d 413d b2bc efbf 50bc 2628 8a3d
00000270: efb6 0dbd daa3 f13c a700 72bd dd18 543d
00000280: ac5a 3abc 840d 96bd 68ee 8c3b a80d 763d
00000290: dafb 203d 6949 9d3d 11f3 94bc db57 de3d
000002a0: 6de2 73bc 3c14 7dbc 6c81 4bbd 9895 7fbd
000002b0: 99f5 bebc 5d0b 7fbd 53a7 193d b4f0 6ebd
000002c0: 030f e13c 0aa8 bcbd 793d a4bc 131b 9ebd
000002d0: ec6e 3c3d a9b6 f5bc 84a3 773d ef0e a23a
000002e0: f373 63bc acf2 863d 6a9e 283d 8ada b0bd
000002f0: d171 84bd 5e55 1ebd 735b f43d 441b c8bc
00000300: d174 2c3d f523 b83d c636 e03d 2d36 0ebd
00000310: 7cb0 71bc 1e6d 313d 1fa5 4e3d 11f1 19bd
00000320: 19bc 903d 809f 9b3d 0999 f83c 0f98 f8bc
00000330: db8a 463d 2bea 533c d17e 9d3d ebc8 fd3c
00000340: f7af c13d d7f6 12bc 8dbb b03d 3c02 a73d
00000350: b45f ed3c c6b2 e13d 69fd f93c ffe2 433d
00000360: 48c8 a23d 6a60 76bd a299 95bc 94fe 98bc
00000370: fb3d ffbc ef29 b23d c74a 873d 13bf 623c
00000380: 5de9 ef3c c96d c2bc 57e9 283d 2ba1 21bd
00000390: fe0a 8a3d 37ce bebc fe40 ca3c 5ac4 ce3c
000003a0: 1f72 793d ebbb 153c 71e6 fb3d 0528 933d
000003b0: b0de a6bb cf88 48bd cb6d 323d 2ebf 093c
000003c0: 05eb 78bc 8c29 b53d 2f1f ae3d bf0e f8bb
000003d0: 6ab3 d5bc 58b6 813d eae3 af3d 9c3a 803c
000003e0: 7a80 e73d 83a3 e33b 14e6 363d 2746 b33d
000003f0: 1b83 83bd e707 83bd e9ca 7abd f14a 4cbd
0.0973884 0.28676417 0.055314757 0.03877952 0.13943593 0.09076525 0.021498386 0.16086464
0.05915466 0.09513787 -0.0052798493 0.037209764 -0.0085288035 -0.07243658 -0.069074854 -0.0016128548
-0.0017944858 -0.06782468 0.047736563 -0.0020556618 0.10067623 -0.058080245 0.019139081 0.052668497
0.049200106 0.02622205 0.08860565 0.00787507 -0.015836673 -0.026953612 0.06511757 -0.041316602
0.04896645 0.033567566 0.012964389 -0.026794542 0.006504563 0.03156184 0.047856383 0.029402982
0.015250239 -0.040365014 -0.07338381 0.04579967 0.06868288 0.024944115 -0.006771083 -0.015718857
-0.09088235 0.04882025 0.097257614 0.004965999 0.03322268 0.110147364 0.00942088 0.008208211
0.06453426 0.0054962886 0.02041113 0.0041064736 0.12172267 0.20734641 0.02071127 0.06880826
0.0041568386 0.024581537 0.05901946 -0.015327781 0.0146284085 -0.016307162 -0.05607077 -0.05698655
0.05935968 0.03193007 -0.058685195 0.019638678 0.02924838 -0.031883076 0.0055592055 0.018404203
0.052622486 -0.06595224 0.022173954 0.04853723 0.032128636 -0.046070743 -0.066268675 -0.02037659
-0.063707985 -0.06566576 0.009012655 -0.0010052546 -0.0015461479 0.086860366 0.016676633 0.04087301
0.013593701 -0.0057769855 0.0053301696 -0.031707775 0.09188724 0.055879414 0.09426073 0.0046578185
0.021750024 0.06492325 0.031414114 0.081802435 -0.034872856 0.08562212 0.12539156 0.21550584
0.05870684 0.086474836 0.024468545 0.06783623 0.018900726 0.054244507 -0.009604873 0.035713937
-0.03324915 -0.22518411 -0.03764737 0.012798097 -0.0022171817 -0.009555177 -0.04740283 0.06894069
-0.10329364 0.063479744 0.022664381 0.060400162 0.021027686 0.046350602 -0.009499895 0.016818903
-0.014991617 0.088330865 0.08317963 -0.0027309267 0.11712643 -0.022541365 0.030072661 -0.00378889
0.09112578 -0.03773096 -0.03407511 -0.029996684 -0.0023911146 0.04669265 0.022717955 -0.006665601
0.08202137 -0.021757724 -0.012741073 0.06745939 -0.034598287 0.029497076 -0.059082653 0.051781524
-0.011374157 -0.07326797 0.004300881 0.060071617 0.039302684 0.076800175 -0.01818231 0.10856601
-0.014885527 -0.015446719 -0.049683973 -0.062398523 -0.02331047 -0.062266696 0.03751309 -0.05833502
0.027472978 -0.092117384 -0.020048844 -0.07720008 0.04600422 -0.029994326 0.060458675 0.001236407
-0.013882625 0.06589255 0.0411667 -0.08635433 -0.06467021 -0.03865563 0.11931505 -0.024427064
0.042103592 0.08991233 0.10947947 -0.034719635 -0.01475155 0.043316953 0.05045044 -0.037583414
0.07067127 0.075987816 0.03034641 -0.030345945 0.048472267 0.012934248 0.07690204 0.030979594
0.09457391 -0.008969984 0.086295225 0.08154723 0.028976299 0.110204265 0.030516343 0.047823902
0.07948357 -0.06015054 -0.018261734 -0.01867608 -0.031157484 0.086994044 0.066060595 0.013839501
0.029286081 -0.02373399 0.041238155 -0.039460342 0.06740378 -0.02329169 0.024689194 0.025240112
0.06089985 0.009139041 0.122998126 0.071853675 -0.0050924644 -0.048958596 0.043561738 0.008407397
-0.015192752 0.08845815 0.085020415 -0.0075701172 -0.026086528 0.063336074 0.08588393 0.015652947
0.11303802 0.0069469824 0.044653013 0.08753615 -0.06421491 -0.063979916 -0.061228666 -0.049876157

lstm.weight_hh_l0 f4 [800, 200]
00000000: e93d 5cbd 9652 0fbd 104f ba3d 63a1 9abd
00000010: 70cf 173c 1469 99bc 01c0 ecbb 6d48 e839
00000020: 99ee c63c 0253 813d 3e90 e9bc 17ce f7bc
00000030: b362 c43d b538 9ebc 786c a03d a6a0 a3bd
00000040: bf62 ddbd 2ecd e9bd 2198 933c 0325 dabc
00000050: 2aa6 133d 18cf 09bc 882e 873c 38be 703d
00000060: 5e64 573d 45d9 8abc 22cf dd3d d13a b83d
00000070: a154 763d e07d 2bbc 4c84 543a 7812 d73c
00000080: b65a 85bd 69e4 bdbc 6db2 a43c 9dcf 5c3d
00000090: c1c7 8b3d 4d65 87bd 298d b33d 9869 923d
000000a0: b39c 08bd 1184 193c 7a2e efbb 2142 483c
000000b0: f8ab febb c4f9 f0bc 14b1 a1bc 233f 69bc
000000c0: 3dcc bbbd 9bf3 de3c b3a0 9f3d 2dcc 2b3d
000000d0: 6656 783b ff20 b53c a1b1 10be 0202 3abd
000000e0: 78d3 91bd f1d4 ecbc f0ef 2dbd 1366 783d
000000f0: 80ae b5bb 88ce 92bd f8a4 cd3d 45cb 65bd
00000100: 6d2d 1c3d 1ed5 a13c 7e8f fbbc 6002 86bd
00000110: db54 f73c d04a ac3d d9ef b63c 4bbb 3abd
00000120: ba7c 3f3d 154d 4dbc 8e32 6a3d a700 5dbb
00000130: d3a4 28bc 3910 e63d a710 91ba da08 66bd
00000140: c973 21bd 2729 933c 05f4 3fbd c3fb ddbd
00000150: 7380 37bc 9129 3b3d e5a0 47bc 2409 60bd
00000160: 4cfd 3ebd c669 133c af71 553c e4fa ac3d
00000170: 4bd2 a5bd 1db1 c7bc 36e7 98bc 85ba d9bc
00000180: 0c28 313d 1a5d 533c d72d aa3d 5126 163d
00000190: f1f5 eabc c9ac 423d c7df f0bc 2b12 e8bc
000001a0: 9c7e ebbb 373d 643d 1adc 65bd f64a ecbc
000001b0: d8d8 543d c153 6b3d 9982 8fbd 12ff b53c
000001c0: 3fa0 ac3d 20bb f7bb 185e ec3b 622d a3bc
000001d0: 8e92 a83d c047 3a3d 1c1e e53c 1a4e 313d
000001e0: 7228 53bc 2973 d33c c2b7 0abc b36b 13bd
000001f0: 2eb4 753c ffdd 53bd a959 b33d 3be2 a6bc
00000200: 03e1 f8bd 558d 203e 6c4d 743d dfe6 ccbc
00000210: 8014 17bc bec4 debd 3ab4 f6bd fcf8 eabd
00000220: cd5b 38bc 3fe8 3fbc db2e 97bc 44ee f0bd
00000230: 7bb5 0cbd 54f0 e13d 5ecd 423e 2597 09be
00000240: 55f7 44bd a40e 0dbd 2d5a b93c 61b6 d03d
00000250: b9bb 8fbc 748a 75bd 866c dc3d 397d 95bd
00000260: 07b3 18bd f130 1cbb da1e a3bd 2fbc 21be
00000270: a821 6b3d e7d9 8fbd 49de 9fbd 4f3a 28bd
00000280: 2b48 d5bb e4b9 833d 5029 763d 9fe6 d13d
00000290: 9e54 2f3b d062 87bc 9cd7 263e 25f0 b63c
000002a0: 2d02 2dbd d402 72bd 2a11 0b3e a3a5 c23d
000002b0: 6421 023d 9bf2 39bd c0be 80bc 7a8e 803b
000002c0: 8219 313d 15e0 413c ab4f 903d d88e d5bd
000002d0: a2fa 8dbd 1006 74bc a98a d63d b3a5 123d
000002e0: 01de 1d3d 9b8a c43c 0fb5 09bc d1c5 f83d
000002f0: 915e 97bc 4dc5 c3bc c19e f4bb bf91 ab3d
00000300: fab8 113c 8940 c43c 531e 42be 464b adbd
00000310: a98e f43c 6298 d33d b42b 8d3d 6958 9abd
00000320: e715 173c 6234 113d f7df 723c 80ee 05bd
00000330: 4a55 393d 56bc a6bd ac92 623d 6bd2 b5bc
00000340: 6d2b a43d 27c2 233d 7feb 843c b373 88bd
00000350: 2b79 2a3d 0769 763b 6f91 a93b 944f eabc
00000360: 636c 4cbd 9304 293d 5219 803d b533 473d
00000370: 78b1 e8bc dc32 523d b650 1bbd 0e5e 6b3d
00000380: 672b 0ebd df58 13bd a5cf aabc 29de 9abc
00000390: a879 923c d939 673d 3f3b 553d 659a 74bd
000003a0: 75de 44bd 4934 733d acb4 9cbd 689f 85bd
000003b0: e813 b63c ee22 c7bc b125 66bd 0912 4abd
000003c0: 1865 853d 4034 cb3c 6dda bfbd 3f73 99bc
000003d0: 328f 663d 9802 30bd d6ff 4fbd 231e 70bd
000003e0: d7ca 8cbc b82a 693d 12f8 133d adbf 2bbb
000003f0: b29a 08bc 464d 5fbc 850b 41bd 763e 76bd
-0.05376998 -0.03499087 0.09097111 -0.07550313 0.009265766 -0.018726863 -0.007225037 0.0004430445
0.024283694 0.063146606 -0.028511163 -0.030249638 0.09589138 -0.01931415 0.07833189 -0.07989626
-0.1080985 -0.11416088 0.018016877 -0.026628977 0.03604714 -0.008411191 0.01650168 0.058775157
0.052585952 -0.016949305 0.10830523 0.08995593 0.060139302 -0.010467023 0.0008106872 0.026253924
-0.06511442 -0.023180204 0.020104611 0.053908933 0.068252094 -0.066111185 0.087671585 0.07149047
-0.033352565 0.009369866 -0.0072992416 0.012222798 -0.007771965 -0.029415973 -0.019737758 -0.014236244
-0.09169815 0.02721577 0.07794323 0.041942764 0.0037893294 0.02211046 -0.1413026 -0.04541207
-0.071204126 -0.028910132 -0.04246515 0.06064422 -0.0055444837 -0.07168299 0.10041231 -0.056102056
0.03812926 0.019754943 -0.03070807 -0.06543422 0.03019183 0.08412707 0.022331165 -0.045588773
0.046749808 -0.012530585 0.05717712 -0.0033722313 -0.010293203 0.11233563 -0.0011067585 -0.056160785
-0.039417062 0.017963959 -0.046863575 -0.10839035 -0.011200058 0.045693938 -0.012184356 -0.054696217
-0.04662828 0.008997386 0.013027593 0.08446291 -0.08096751 -0.024376446 -0.018664937 -0.026578197
0.043251082 0.012900615 0.083095245 0.036657635 -0.028681727 0.047528062 -0.02940358 -0.028328976
-0.007186724 0.05572244 -0.05611811 -0.028844338 0.05196461 0.05745292 -0.070073314 0.022216354
0.08429002 -0.007560149 0.0072133653 -0.019919101 0.08231078 0.045478582 0.027968459 0.043287374
-0.012888061 0.025811749 -0.008466663 -0.03599138 0.0149965715 -0.051725384 0.08757336 -0.020371547
-0.121522926 0.15678914 0.059644148 -0.025012432 -0.009221196 -0.10877369 -0.12046094 -0.11473271
-0.011252356 -0.011713087 -0.01845496 -0.117641956 -0.03435276 0.11032167 0.19023654 -0.13436563
-0.048087437 -0.03443779 0.022626007 0.10191036 -0.017545568 -0.059946492 0.10762887 -0.07299275
-0.03728011 -0.0023832882 -0.07964869 -0.15794443 0.057405144 -0.070239834 -0.078060694 -0.041071232
-0.0065088472 0.0643194 0.060097992 0.102490656 0.0026753317 -0.01652661 0.16293186 0.022331307
-0.042238403 -0.05908473 0.13580766 0.09504249 0.031770125 -0.045397382 -0.015715957 0.0039232345
0.043237217 0.0118332105 0.070464455 -0.10427636 -0.0693257 -0.014894024 0.10475666 0.035802554
0.038541798 0.023991873 -0.008404984 0.121471055 -0.01847771 -0.023897791 -0.007465214 0.08377408
0.0088941995 0.023956554 -0.1895688 -0.08461623 0.029853182 0.10331799 0.06893101 -0.07536394
0.0092215305 0.035450347 0.014823905 -0.032698154 0.045247354 -0.08141391 0.05531566 -0.022195062
0.08016095 0.03998008 0.016225575 -0.06662693 0.04161946 0.0037599222 0.0051748077 -0.028602399
-0.049908053 0.041264128 0.062548295 0.048633296 -0.028404936 0.051318035 -0.03791877 0.057462744
-0.03470936 -0.035973426 -0.020850966 -0.018904762 0.017880276 0.056451652 0.052058455 -0.059717555
-0.048063714 0.059376035 -0.07651648 -0.06524545 0.022226289 -0.024308648 -0.05618829 -0.049333606
0.06513423 0.024805188 -0.09367833 -0.018731711 0.056288905 -0.042971224 -0.050781094 -0.05862249
-0.017186565 0.056925505 0.03612525 -0.0026206777 -0.0083376635 -0.013629263 -0.047130127 -0.06011816

lstm.bias_ih_l0 f4 [800]
00000000: 9a21 fc3d d4f6 47bc 406c 6a3d f46a 0a3d
00000010: 411c 803d 500b 8e3d 3b20 c6bc fdd9 273d
00000020: d180 3abc dd75 083d 1013 3a3d 1fe3 8b3d
00000030: 4b87 533d 086e 213c d93d 923d 5d71 763d
00000040: 2d65 993d 96fe 49bd 148e 55bd 9a52 923c
00000050: 8953 153c 3ae4 3c3d 3daf 413d 5afd bdbc
00000060: 46c8 683b 8e68 db3c 6e34 053c 7c15 933d
00000070: cf1e 643d f63e 7e3c e70e 363d 5567 923d
00000080: f5ac 52bc 356a d43d d138 6cbd 05f4 483d
00000090: febe b23d c5c7 b23c f207 573c dfe5 b93b
000000a0: 2951 5c3d 6474 643e 1997 f83d 3fc4 a93c
000000b0: cb54 383d 9a24 a3bc 496d 6a3d ae4c 87bd
000000c0: 2313 77bd 639a 683d fa70 79bd 2679 943c
000000d0: f1a8 433d 1dd8 183d 0e5d ab3c 8506 ff3c
000000e0: 15af 7fbd 5cb5 37bd faa2 323d 76b8 fcbc
000000f0: 953f f93c c77d e2bc 1484 2b3c 199e d8bc
00000100: 5967 633d d46b 993d 31c3 913d c59b 413c
00000110: bc35 503d 2c23 163c 7cff 9b3c f788 973c
00000120: e716 d23b 0490 443d 9b88 c0bc 4ab3 e43c
00000130: 02f1 ab3d f974 4c3d 51f7 413d 2f79 b43d
00000140: 4835 9b3c 04f9 26bd 7bee 83bc 637f 0abd
00000150: 8516 633e b497 87bd 541b b2bc 276d 003d
00000160: 3805 493c df16 113d b8e8 b33c 140b 66bd
00000170: 4cca e5bc cd4b 18bc abba 3c3d 8ecf c2bb
00000180: b349 6d3e d9dc b43c 180e 153d 992e 84bd
00000190: a4a0 873a db7e 7d3b b95e a63c 46cd bfbd
000001a0: 553b d33c f37e 473d 8e60 4e3b 9c70 853c
000001b0: 3ff7 72bd b945 e43c a9d3 77bd bcec f63c
000001c0: e728 24bd cb14 4bbd 5a19 843c 44ff 78bd
000001d0: 95b7 92b9 573e 08bd 154d bb3b da67 7d3c
000001e0: ae5d 6d3d 1ea0 333b a637 f9ba 1c72 413d
000001f0: adb8 f1bb 175e 65bd 55b5 593d b00a 913d
00000200: 4148 69ba e6f4 393c 13ec 57bd 8ea0 8e3d
00000210: f37a 003d 3739 81bd 1335 773d 77b8 1e3d
00000220: 87d1 523b 03dc a63d 9329 23bd 6a71 c83c
00000230: 802b 8d3d c809 bdbb 26a7 803d 493b fcbc
00000240: 21be b3bb 5753 56bd 1455 163d 23c3 ff3c
00000250: 1c88 6c3d 87fd 6fbd 640d 2bbd 78b0 e43c
00000260: 46be 6bbd c101 933d 5ee6 84bd d153 20bd
00000270: f95b cebb e83f 5bbd ea85 32bd 0ff0 7ebb
00000280: 156b 21bc 3365 1f3d a90b 823d b627 24bc
00000290: 51f1 9eba a1e2 cb3d f3c7 7e3d 268b 79bd
000002a0: 104b fe3c 0c73 9f3c a513 8abd b004 1a3d
000002b0: 6a4b 533d 4c17 c7bc 239c 573d 1ebd 89bd
000002c0: bcc1 453c 549c 863c 2188 13bc 2f70 d13c
000002d0: 4872 353c 79a4 8ebd cd2d d5bc 6005 d13b
000002e0: ec6f b43d d608 623d b9d5 973d abc5 37bd
000002f0: 5c98 963d ea54 8a3d 63ad 633d 48fd 093d
00000300: e7d5 49bd b271 24bd 6fcf 883d 15be b6bd
00000310: 8fe2 683b 7de0 7a3c 8b00 473c d625 a4bb
00000320: 8255 11bd 9ba4 893b b70e 323d 8618 fa3a
00000330: dd1c d93c b2f9 86bb 90df a13c 3f30 38bd
00000340: 332d 4a3c 914a f3bb 6c1c a43c 48cb 1a3d
00000350: 9011 e9bc 5ef7 9bbd fbc4 493d 47aa 91bd
00000360: 7675 b2bd fbbb a5bd 06c0 9ebd 7388 5e3d
00000370: ec2a 373d 2434 88bb ac1d c0bc 7946 3b3d
00000380: 21d4 bfbc 6447 5f3c 679d 9ebd 0130 10bd
00000390: b19b 69bd c8e4 a93c e5ff c6bc acd0 a93b
000003a0: 3f9d b9bc bcd4 8abd 0281 4c3d 5c2c 273c
000003b0: 54bf d13c 0995 ad3b 59d1 a33c 6243 36bc
000003c0: 3def f4bc d380 a0bd a5f3 313d 6a01 feba
000003d0: b97e ec3c ff8c 6c3c 37d2 18bd 91a2 79bd
000003e0: be03 f5bc 8122 c9bd c3e6 39bc 7986 62bd
000003f0: f13f 07bc 1e00 393d d0f2 aebc 8d4e 73bc
0.123110965 -0.0122048445 0.05723214 0.033793405 0.06255389 0.069357514 -0.02418529 0.040979374
-0.011383251 0.03331553 0.045428336 0.06830429 0.051642697 0.009852894 0.07140703 0.060166705
0.07490001 -0.049315058 -0.05213745 0.017861653 0.009114155 0.04611609 0.04728626 -0.023192097
0.0035519763 0.026783254 0.008130176 0.07181832 0.055693444 0.015517941 0.044447806 0.07148615
-0.012858619 0.1037182 -0.05767137 0.04906084 0.08727835 0.021823773 0.013124453 0.0056731547
0.053788338 0.22310024 0.121381946 0.02072346 0.04500274 -0.019914914 0.05723313 -0.06606422
-0.060320985 0.05678786 -0.06089876 0.018124174 0.047768537 0.037315477 0.020918395 0.031131038
-0.06242283 -0.044850692 0.043612458 -0.030849677 0.030425826 -0.027647866 0.010468502 -0.026442574
0.055518482 0.0749127 0.07117308 0.0118169235 0.050832495 0.009163659 0.019042723 0.018497927
0.0064114216 0.047988907 -0.023502639 0.027917523 0.08395578 0.04991624 0.047355 0.088121764
0.018946305 -0.040764824 -0.016104927 -0.03381289 0.2217656 -0.06620732 -0.021741547 0.031354096
0.012269311 0.035422202 0.021961555 -0.05616291 -0.028050564 -0.009295416 0.046076458 -0.0059451526
0.23172645 0.022077965 0.036390394 -0.064542 0.0010347557 0.0038680348 0.02030884 -0.09365325
0.025785128 0.048705053 0.0031490657 0.016289048 -0.059317823 0.027865278 -0.06050459 0.03014218
-0.04007807 -0.049580377 0.01612537 -0.060790315 -0.0002798407 -0.033262577 0.005715976 0.015466655
0.057950668 0.002740867 -0.0019013777 0.047227964 -0.0073767514 -0.055997934 0.053151447 0.070821166
-0.00088990113 0.011349892 -0.052715372 0.06964217 0.031367254 -0.06309741 0.06035335 0.038750138
0.0032168345 0.08147433 -0.03983457 0.024468143 0.068930626 -0.0057689883 0.06281881 -0.030789988
-0.0054853116 -0.052325573 0.03670223 0.031220978 0.05774699 -0.058591392 -0.041760817 0.027916178
-0.057554506 0.07178069 -0.064892516 -0.039142434 -0.006297585 -0.053527743 -0.04358474 -0.003890041
-0.0098521905 0.03891487 0.0634988 -0.010019233 -0.0012126361 0.099553354 0.062202405 -0.060923718
0.031041652 0.019464038 -0.06742028 0.037602127 0.051585592 -0.024303101 0.052639138 -0.06725524
0.012070116 0.016431965 -0.009004624 0.025566189 0.01107461 -0.069649644 -0.026022816 0.0063788146
0.0881041 0.055184208 0.07413811 -0.044866245 0.07353279 0.06754477 0.055585276 0.033688813
-0.04927626 -0.04014749 0.0668019 -0.08922974 0.003553543 0.015312311 0.012146126 -0.005009393
-0.035481937 0.0042005307 0.043471064 0.0019080795 0.02650302 -0.0041191215 0.019759923 -0.044967886
0.012339878 -0.0074246605 0.020033084 0.03779152 -0.028450757 -0.07615541 0.04926012 -0.07112556
-0.0871381 -0.08092495 -0.07751469 0.054329347 0.044718668 -0.0041566063 -0.023451649 0.045721505
-0.02341658 0.013627861 -0.07744866 -0.03520203 -0.057033245 0.020738974 -0.024291942 0.0051823463
-0.022657989 -0.06778857 0.04992772 0.010203447 0.025603928 0.0052973074 0.019997286 -0.011124464
-0.029899234 -0.07837071 0.04344525 -0.0019379084 0.02886902 0.014437913 -0.03730985 -0.06094605
-0.029909011 -0.09821034 -0.011346522 -0.055304024 -0.008254991 0.045166127 -0.021356016 -0.014850271

lstm.bias_hh_l0 f4 [800]
00000000: 0f6a 723d 4c50 8ebd 9183 1abd cbdb 77bc
00000010: 9a22 39bd c9a1 253d d15e 913d 87f7 68bd
00000020: 202d 263d e51c 0e3d 9420 813d 53c6 f73d
00000030: 5d7e 043d a223 943d 4c56 88bd 4ab0 5bbc
00000040: 8432 663c 5d14 2b3d c19b d1bb 468d e23c
00000050: 4ca4 833c 8eb7 353d dda7 243d 027e 7c3b
00000060: 474a 803d 87bb 74bd 6531 01bd 15ca 9c3c
00000070: 14fe 903a b074 9e3d afd5 2b3c 0d5c a63d
00000080: 14d8 1f3d 6001 153e 80af 563d 6dcb 893d
00000090: e8cd a73d 2e6a 143d 0f2f d23c 7d82 793d
000000a0: 5668 9f3d bc32 0d3e 7d6e 9a3d 0326 9ebb
000000b0: 6802 d43d 6409 32bc 5ef5 fabc 7848 ec3a
000000c0: 9bb8 9cbc 4365 2d3d 7029 423d 045e 2abd
000000d0: 1c11 f9bc 150e 8bbd 6d54 ef3b 7f7b c33d
000000e0: a1b9 c63c 4a91 4d3c c21e 393d 117e 733d
000000f0: 0319 57bc c3c3 e53c b3c1 843d 3e21 0dbd
00000100: 15b9 c8bc 2296 193d 8267 033d 0b7b 10bd
00000110: 583f 503d 7f36 a43c bb4e 9a3d 99eb 923c
00000120: 14b3 00bc 27f3 89bc d427 153d 98a6 d83d
00000130: 609f 393d 6f67 423c c132 b3bc 9be1 fd3d
00000140: 3cb2 6bbd de12 b33c 7d5a 1d3d 767a be3c
00000150: aa74 0a3e 8e95 8fbd 739d 323d 03da 30bd
00000160: 0397 313d 2130 6abd 12a6 3bbd d93a a1bd
00000170: 5f95 7abd 148e 983c 2d7e 3f3d c65f 14bd
00000180: 41da 153e ae41 94bb 1c7e 0bbd 9db1 36bd
00000190: 40c0 15bd cee5 ee3b d481 7e3d fb1e d53c
000001a0: dc83 443c 3544 74bd 9519 11bd dea3 073e
000001b0: 352c 14bd 93a9 953d 7bca a5bd 1dca 013d
000001c0: e2a0 74bd 55ea b9ba 8edd 51bb f297 94bd
000001d0: cb24 98bb 1830 263c 8bd1 2f3c f6d0 b83a
000001e0: e766 1abc 54a9 afbb 2181 a13c 1393 873c
000001f0: 93c9 b13d 85c5 cabc d3e6 983c a9e6 253d
00000200: 9ace 8bbc 84e2 a63d 638a 5e3d af89 6b3d
00000210: 4110 223d b044 96bd aacc cf3a 72f3 bbbb
00000220: 97b3 183c ea67 e1bb aba4 1fbd 0565 e8ba
00000230: f7fd 023d 16f3 25bd 002d 19bd 3536 7dbc
00000240: 7aa6 1a3d 1d4c 2abd 1f24 8cbd 8704 0bbd
00000250: 9e06 413d 85d4 31bd 760b 7bbd f34d 633d
00000260: 6cd7 abbc f903 6f3d 0acf f43c 8aea 60bd
00000270: f7d1 32bc 02bf 41bd 8a4c a8bc 609d e3bc
00000280: 615e e1bc ea26 ae3d 3a92 12bd 0ee4 9cbc
00000290: 79ef 81bd cd95 453d 2aa3 dc3a 27d4 68bc
000002a0: 6616 b13c b063 dc3c 2fbd 0dbd 7ad9 253d
000002b0: 787d 30bd ed83 4f3c 0580 10bd 31ee b33b
000002c0: a953 37bd bba8 39bb 2481 1c3d 269f 513d
000002d0: 93d2 2e3d ee16 ceb9 2714 f93c 66a5 013e
000002e0: 5c8a a63b a4d7 a23c 47c2 723d 7d83 d6bc
000002f0: 539d f9bc 1240 2dbd c5c3 3e3d c69e 333d
00000300: d735 a4bd 1afb f4bb 02b4 48bd ba0c eebc
00000310: d22f 023c 7f65 0d3c 5319 833c 2036 7bbd
00000320: 1ed3 a8bc 2e80 84bd 452a 45bd 880c 573d
00000330: 9c20 65bd 2a4a e93c 428c 00bc 596a 45bd
00000340: eef5 01bd d083 5a3d 9084 533c 10f6 973c
00000350: 0ccf f0bc c2ad 07bc 4123 5fbc 084d 393d
00000360: b6b3 9bbd 46dd a6bc f3b5 92bd e533 88bd
00000370: 190d 8abd 21b0 513d c76b b1bd b6bf 603d
00000380: 2c9c 41bd 23c4 6a3d c52c a5bd f921 8dbd
00000390: 6130 6f3b 5126 c2bd 7538 223b 1503 8bbd
000003a0: 8dda e2bc 7f2d 1a3c cd89 8dbd aa2a 25bd
000003b0: 2aaa 0cbd 964c aebc 1283 9bbd 0e18 923c
000003c0: bd5b 8bbd 5c0a 57bd d5c0 203d 20f5 31bd
000003d0: d37c 103d 88ac 243d e383 72bc ec68 d6bb
000003e0: f6c8 653d 6210 67bd 63ce 993c 29e2 033a
000003f0: f75b b8bc 31d8 18bd 1268 b8bc 94d9 023b
0.059183177 -0.06948909 -0.037723128 -0.015128086 -0.045199014 0.040437493 0.07098163 -0.056876685
0.04057038 0.034695525 0.06305042 0.12098374 0.032347072 0.07233359 -0.06657085 -0.01340873
0.01405013 0.041767467 -0.006396741 0.027655255 0.016069554 0.044364505 0.04019915 0.0038527255
0.06264167 -0.059749153 -0.031541247 0.019139329 0.0011062049 0.077371 0.010487958 0.08123026
0.039024428 0.14551306 0.052413464 0.067282535 0.081935704 0.036234073 0.025657205 0.06091546
0.077835724 0.13788885 0.07540605 -0.0048263087 0.103520215 -0.010866497 -0.030634578 0.0018026968
-0.019130995 0.0423329 0.0474028 -0.041593567 -0.030403666 -0.06789795 0.0073037655 0.095450394
0.024258437 0.012546847 0.04519535 0.0594464 -0.013128522 0.028047448 0.06482258 -0.03445553
-0.024502316 0.037496693 0.032081135 -0.035273593 0.05084166 0.020045517 0.07534548 0.017934607
-0.007855196 -0.016839577 0.036414936 0.1057865 0.045318007 0.011865481 -0.021874787 0.123965465
-0.057543024 0.021859583 0.038416374 0.023251753 0.13521066 -0.07010947 0.043607187 -0.043176662
0.043356907 -0.057174806 -0.045812674 -0.078725524 -0.061177608 0.018622436 0.04675119 -0.03622415
0.14634039 -0.004524431 -0.034055814 -0.04460298 -0.036560297 0.0072905784 0.062135532 0.02601575
0.011994328 -0.05963536 -0.035424788 0.13246104 -0.03617497 0.07307734 -0.08095261 0.03168689
-0.059723742 -0.0014184216 -0.0032022926 -0.07255544 -0.004643058 0.010143302 0.010731111 0.0014100361
-0.009423948 -0.0053607617 0.019714894 0.016549623 0.08681025 -0.024752388 0.018664753 0.040503178
-0.017066289 0.08148673 0.054331195 0.057504352 0.039566282 -0.0733732 0.0015853841 -0.005735808
0.009320161 -0.0068788426 -0.0389754 -0.0017730301 0.03198048 -0.040515028 -0.03739643 -0.0154548185
0.03775642 -0.041576494 -0.06842827 -0.033939864 0.04712545 -0.043415565 -0.061290227 0.05549426
-0.020976745 0.058353398 0.02988388 -0.054911174 -0.010914317 -0.0473013 -0.02054431 -0.027785003
-0.027510824 0.08503516 -0.035783984 -0.019151714 -0.06344504 0.048238564 0.0016833295 -0.014210737
0.021617126 0.026903003 -0.034604248 0.040490605 -0.043088406 0.012665731 -0.03527834 0.005491041
-0.04475752 -0.002832933 0.038209096 0.051177166 0.042681288 -0.00039308466 0.030405117 0.12660751
0.0050824117 0.019878216 0.05926731 -0.026185745 -0.030470526 -0.04229743 0.04657342 0.04385259
-0.08018082 -0.0074762227 -0.048999794 -0.029058803 0.007945972 0.008630156 0.016003286 -0.061330914
-0.020608481 -0.06469761 -0.048136014 0.052502185 -0.0559393 0.028477747 -0.00784594 -0.048197124
-0.031728677 0.053348362 0.012910023 0.018549949 -0.029395603 -0.008281173 -0.013619245 0.04523948
-0.076026365 -0.020369183 -0.0716361 -0.06650523 -0.067407794 0.05119336 -0.08663135 0.05487033
-0.047268078 0.057315957 -0.0806518 -0.068912454 0.0036497342 -0.094799645 0.002475289 -0.06787697
-0.027692104 0.009410261 -0.06911049 -0.04032389 -0.03434197 -0.021276753 -0.07593359 0.017833736
-0.06804607 -0.052500114 0.0392464 -0.04344666 0.03527529 0.0402036 -0.014801952 -0.0065432694
0.056099854 -0.05641211 0.01877517 0.0005030954 -0.02250479 -0.03731555 -0.022510562 0.0019966112

linear.weight f4 [1, 200]
00000000: 8fdf bcbd 1247 c5bc 6dd9 893d 3faa 66bd
00000010: c140 72bd 0c27 793d a57b e5bd 6c0b 5c3c
00000020: 8081 b23c 765d ab3d f3f9 a6bd 13b6 9fbd
00000030: 735c 84bc 93dd 983d 9284 3e3d d45d cb3b
00000040: 67cf 9bbc 5b0d a53c 5898 5d3d 7467 7f3d
00000050: 7e10 a93d 6d4e 0d3d 0300 98bd 4844 abbd
00000060: e065 bcbd e525 31bd b2c4 bb3c 71b9 a3bc
00000070: 60f8 9e3d 8d78 1bbd c8fb 793b 942e a63d
00000080: f80a 243d a072 f93d f602 613d ce5b a63d
00000090: 1019 d73d 7dfd 2cbd 63c7 8a3d 2e0f 083d
000000a0: 3b56 093d ea69 b43d 7d10 ea3d 7b20 9d3d
000000b0: dc6a cfbd 06da 9ebd afff 4b3d 545d 1f3d
000000c0: 9a2c 80bb 12f4 fa3c a874 ad3d 7917 92bd
000000d0: 8c5f 4f3d fa8d 1ebc eaef 5dba a80d 6abd
000000e0: e8ca 15bd d3f7 ecbc 7b97 3a3d d1a5 653d
000000f0: b5e6 0dbd ff13 99bc 45f7 ad3d cf0f bbbd
00000100: 177e 803d 02cc 5d3d 41c2 87bd c69a 22bc
00000110: 640c f03c 57e7 b63c a77d bebd 0589 bfbd
00000120: e9de 8cbd 6529 8a3c 61e2 6fbd 26d5 afbd
00000130: 6256 823d 3bd3 563d 1d7a 513d 46ef fe3d
00000140: 1c98 80bd 31de a43c d52c 80bd 99a6 c13b
00000150: afa2 f03d 061b 2f3d be53 c73c c987 f53b
00000160: e19a 6dbd d907 303d 68f1 5e3d 88c2 1a3d
00000170: bcf0 09bc 4f35 adbd df60 acbd 764e 38bc
00000180: 832e e0bd 9a11 823d f8da 923d 4571 2cbd
00000190: 1006 fb3b fadd d53d a3d0 b13d a18f 51bc
000001a0: af5c c73c e5b6 8f3d eef9 a33d f102 bcbd
000001b0: 2483 71bd 435f 8c3d 08f5 4abd 3b36 b3bd
000001c0: 6785 d23c 3dcf a13d d654 a3bd 5fbd 1b3d
000001d0: 30c5 a2bd 4da2 383d 74ff b33d 3a8b 64bd
000001e0: 99df 573d 8bef bdbd 56a8 833d 100f 29bd
000001f0: e7da 8b3d e64e ba3c 8ebd 39bc 4f1d 99bd
00000200: d5d9 acbc 618d 18bd ab7e 963d dea9 73bd
00000210: 4c35 32bd 228f 19bc fffd a03d f790 403c
00000220: b9c1 f0bc 9ec6 73bd 6135 a03d 1a10 0dba
00000230: 5d6a d0bd b91e 03bc c620 3dbd 2a6f 07bc
00000240: dc1b 8ebd 36b3 833d 0bca 3b3c 2bf5 5b3d
00000250: 37ab b23c 20e8 85bd c4eb d03c d42d 87bd
00000260: 0c81 73bd a855 a6bd 9c19 e3bb c5f7 c1bc
00000270: 8731 f53c 044a 5cbd 4cd5 49bd 582f 173b
00000280: 98ee 47bd 36ef a73d 1763 223d 2908 6d3d
00000290: 8a6e 023d fb08 b0bd b8f9 2cbd ef57 63bb
000002a0: d7f4 293c 5cf8 a7bd 23dd 193d 0d46 803c
000002b0: 04b5 9f3d 7900 abbc e70e afbc 1678 653d
000002c0: 6820 ab3d 8588 063d 7efa 8c3d c3d0 253d
000002d0: 16fb cd3d 38df bf3c 3d4e 6d3d 2e8f 41bd
000002e0: b976 a33d 8157 723d 9252 d93d 05a9 28bc
000002f0: 570b 883d 5f3f 8e3c a656 cebd 3142 643d
00000300: 3a05 09bb dd49 373d 1b26 823c bc54 1bbd
00000310: d3ee 583d effb 60bb 029c 02bd 6d99 46bd
-0.09222328 -0.02408174 0.06730924 -0.056314703 -0.059143785 0.060828254 -0.11205224 0.013430458
0.021790266 0.08367436 -0.08153143 -0.077984 -0.016157364 0.07464137 0.046513148 0.0062062535
-0.019019796 0.02014797 0.054100364 0.06235452 0.08255099 0.03449862 -0.07421877 -0.08362633
-0.091991186 -0.04324903 0.02292094 -0.019985886 0.077622175 -0.037956763 0.0038144458 0.08114353
0.040049523 0.12180066 0.054934464 0.08122979 0.10502827 -0.042233933 0.06776311 0.0332176
0.0335295 0.08809264 0.11428926 0.07672211 -0.10127804 -0.077564284 0.049804386 0.038907364
-0.003911567 0.03063396 0.08469516 -0.07133383 0.05062823 -0.009677405 -0.0008466231 -0.05714193
-0.03657046 -0.028926766 0.04555462 0.056066338 -0.034643847 -0.018686293 0.084944285 -0.091338746
0.0627405 0.054149635 -0.06628848 -0.009924596 0.029302783 0.022327108 -0.0930131 -0.09352306
-0.06878454 0.016865442 -0.0585655 -0.08585577 0.063641325 0.05244754 0.051141847 0.124479815
-0.062790126 0.02012548 -0.06258551 0.0059097526 0.117497794 0.04275038 0.024331924 0.0074929935
-0.058009032 0.042976234 0.05442944 0.037783176 -0.008419212 -0.084574334 -0.08416914 -0.011249175
-0.109463714 0.063510135 0.07170671 -0.04210021 0.007660635 0.10442729 0.086823724 -0.012790591
0.024336187 0.07017306 0.08006655 -0.091802485 -0.058962956 0.06854107 -0.049550086 -0.08750578
0.025698377 0.07900856 -0.079751655 0.038022395 -0.07947767 0.045076657 0.08788958 -0.05579684
0.052703474 -0.09274205 0.06428592 -0.04127413 0.06828862 0.0227427 -0.011336697 -0.07476293
-0.021099964 -0.037244204 0.07348379 -0.05948817 -0.04350786 -0.009372504 0.07860946 0.011753312
-0.02938925 -0.059515588 0.07822681 -0.00053811225 -0.10176537 -0.00800293 -0.046173833 -0.00826625
-0.069389075 0.06430666 0.011461745 0.053700607 0.021810157 -0.06538415 0.025503047 -0.06600538
-0.05944924 -0.081218064 -0.006930543 -0.023677716 0.029930843 -0.053781524 -0.04927568 0.002306899
-0.048811525 0.08199923 0.03964528 0.05786911 0.0318437 -0.08595463 -0.042230338 -0.0034689864
0.010373316 -0.08201668 0.037564408 0.015658403 0.07798198 -0.020874249 -0.02136941 0.056022726
0.083557904 0.03284504 0.06883715 0.040482294 0.100576565 0.023421869 0.057935942 -0.047255687
0.07981629 0.05916548 0.10611452 -0.010294204 0.06642788 0.017364202 -0.10075121 0.055727188
-0.0020907656 0.044748176 0.01588731 -0.037922606 0.052962136 -0.0034329852 -0.031887062 -0.048486162
