stock-predictor/models/TATAMOTORS.NS/TATAMOTORS.NS_lstm_final.pth (torch, 682465 bytes, 5 tensors)

lstm.weight_ih_l0 f4 [800, 10]
000000 58 88 6c bc d5 c1 e7 bd 1d 3f 51 bc c9 32 2d 3d
       -0.014436804 -0.113162674 -0.012771395 0.04228476
000010 41 a5 99 bd 99 0b 6d 3c 80 20 3e bd 99 38 dc bc
       -0.07502223 0.014468097 -0.046417713 -0.026882457
000020 32 0e de 3c 23 fe 31 3d f7 cd 02 3c a8 67 2e 3e
       0.027106378 0.043455254 0.007983676 0.17031729
000030 00 62 16 bd a2 0a 77 3a aa 80 61 bd 51 c4 4b 3d
       -0.036714554 0.00094238867 -0.055054344 0.04974777
000040 15 14 8c 3d 77 e6 a8 3c b1 a2 00 bd 09 5b 68 3c
       0.06839768 0.020617707 -0.031405155 0.014181861
000050 fd f2 a0 3c c7 ef c1 bc 90 47 cb 3d bf d6 ff 3d
       0.019647116 -0.023673905 0.09925759 0.124921314
000060 fa 02 b8 3d 17 7b c3 bc 46 59 9d bc 96 63 5e 3c
       0.08984943 -0.023862405 -0.019207608 0.013573548
000070 13 f2 65 3b 70 04 c6 3d 7d 30 d6 bc 84 8d 99 3d
       0.0035086914 0.09668815 -0.026146168 0.07497695
000080 e9 95 06 be bb 22 26 bd b4 ef 0d bc 3a 2a 3e bd
       -0.13143124 -0.040560465 -0.008663107 -0.04642699
000090 11 8d 59 3b b5 1f 16 bd f5 fa 9b bc 69 a0 d1 3c
       0.0033195654 -0.036651332 -0.019040564 0.025589185
0000a0 cf dd 39 3d 3a 28 77 bd 92 9f 52 bb 3a e2 30 3d
       0.04537755 -0.060341097 -0.0032138568 0.043184496
0000b0 b2 ea 8a 3c d5 51 ae 3d 10 f7 11 bd d9 36 a2 bb
       0.016957615 0.08511702 -0.035636008 -0.004950386
0000c0 e7 13 8b 3d 43 a7 2d bc e4 9f f1 3d ba 13 28 3d
       0.067909054 -0.01059896 0.11798075 0.041034438
0000d0 e6 d3 e4 bc 45 36 5f 3d fc e4 06 3e a2 b3 d5 bc
       -0.027933072 0.054495115 0.13173288 -0.026086632
0000e0 c3 1f 1f bd ce 1f 58 3b dc 2a 2b 3d 3a b7 39 3c
       -0.03884865 0.0032977941 0.04178892 0.0113351885
0000f0 af da 86 3d a6 86 18 bd 1d 4c 6e 3d c7 a1 de bc
       0.06584679 -0.037237786 0.058178056 -0.02717675
000100 22 d4 e9 3c bb 5e b7 3d f1 98 76 bc 15 c6 6d 3d
       0.028543536 0.08953615 -0.0150511125 0.058050234
000110 a0 59 b2 bc ce 85 d4 bc 59 55 42 bd 35 54 52 3d
       -0.021771252 -0.02594271 -0.047444675 0.051349837
000120 18 7e 9b 3c 2f db fa 3c 2f 80 32 3d b4 82 9b bd
       0.018981025 0.030622093 0.043579277 -0.07593289
000130 c6 3c 2c 3c 00 94 bb bc b4 fb 91 bc c4 1d a1 bd
       0.010512536 -0.02289772 -0.017820217 -0.078670055
000140 6d 80 31 bd c9 bf d7 bc fe c8 90 3c 1e 82 5f 3d
       -0.043335367 -0.026336567 0.017673966 0.05456745
000150 c9 42 cf bc 03 b9 13 3c 6d 4b 80 bd 81 16 13 bd
       -0.0253004 0.009016278 -0.06264386 -0.035910133
000160 60 b1 a9 bc 5d fa 15 3d 84 80 b2 bc c1 fd ba 3c
       -0.020714462 0.03661572 -0.021789797 0.022826077
000170 dd 00 fb bc 95 9b 2d 3c b8 ac 48 bc 1b 29 76 bd
       -0.03064006 0.010596176 -0.012248211 -0.060097795
000180 c2 ee fc 3c 99 6b 5b bc 4c 85 16 bd 07 b0 de 3a
       0.030875567 -0.0133923525 -0.036748216 0.0016989716
000190 c2 7b 3f 3c ff 11 0f be f9 1a 4d 3c 78 e4 ac bb
       0.011687221 -0.13971709 0.012518638 -0.005276259
0001a0 27 d8 5b 3c b8 4f 21 bd 9f c0 83 bd ea e4 92 bd
       0.013418234 -0.039382666 -0.06433224 -0.07172568
0001b0 bd 93 2e bd e0 64 9a bd 02 65 34 3c 5e 84 3f 3d
       -0.042621363 -0.07538772 0.01101041 0.046757095
0001c0 9b bb af 3c c8 96 87 3c 4f d2 c9 3d 0d 62 1d ba
       0.021451762 0.01655139 0.09854566 -0.00060036854
0001d0 2c 96 b4 3d 07 b4 d1 3c 22 e1 bd bb 87 63 e0 bc
       0.088177055 0.025598539 -0.00579466 -0.027391208
0001e0 b7 7f ac 3d 95 f5 12 3d 9c 1a 78 bd 23 97 64 bd
       0.08422797 0.035878737 -0.06057225 -0.055808198
0001f0 66 ad c9 3c a2 b4 4c bd 11 ac 99 3c 98 6d 5f bd
       0.024618816 -0.049976952 0.018758805 -0.054547876
000200 12 2a 76 bd b4 19 8b bd 30 9b b0 3c 71 f1 78 3c
       -0.060098715 -0.06792012 0.021558374 0.015194283
000210 97 27 b4 bb 9a 61 2f 3c 6a 58 8d ba 5e 81 95 3c
       -0.0054978835 0.010704422 -0.0010783796 0.018250164
000220 57 a4 4e 3c ee dd 70 3d 16 8c 5d bd 1f 73 20 3c
       0.012612424 0.0588054 -0.054088674 0.009793072
000230 4c 9e bf 3d fc fa 12 bd 2d 6a 0d 3c 7a be 03 bd
       0.093563646 -0.03588389 0.008631271 -0.032164074
000240 81 35 de bc cc e2 3c 3c 24 99 48 3d 51 0b 31 3c
       -0.027125122 0.011528682 0.04897417 0.010805921
000250 b5 11 ad bd d8 3e 0a 3d 3f bb 45 bb 69 41 e9 bd
       -0.08450643 0.03375134 -0.0030171422 -0.11389429
000260 3b 1f bf 3c f3 9d b9 3c df 94 93 bc 16 e5 ae 3b
       0.023330322 0.022658324 -0.018015323 0.0053373678
000270 24 94 c6 bc 70 9f 19 bc 9e 9f 2c bc cd 02 5d bc
       -0.02424056 -0.009376392 -0.010536103 -0.013489437
000280 c9 34 1b 3d 70 03 f8 bc 24 fe 65 bd 9f 9c fc 3c
       0.037892137 -0.030275077 -0.05615057 0.030836402
000290 6f 38 5f bd ce 31 96 bc 76 c1 98 3c 61 5e 71 bd
       -0.05449718 -0.018334296 0.018646937 -0.058927897
0002a0 1e cd fd 3c dc 6a b4 ba fe de 88 3d 08 7d be 3d
       0.030981597 -0.0013764757 0.066831574 0.093011916
0002b0 31 6c b8 3b 8f b7 da 3d 0c 7b 74 3d f7 78 9e bc
       0.005628132 0.10679542 0.05968766 -0.01934479
0002c0 93 f3 a8 3c 75 d1 0f 3c 67 4c a6 3c c9 a4 81 3d
       0.020623958 0.008777966 0.020300103 0.063302584
0002d0 13 28 3c bd 25 26 ec bc 95 2b 62 bd ed 81 36 3d
       -0.045936655 -0.028826782 -0.055217344 0.0445575
0002e0 b0 c5 67 bd f2 e9 86 3d 3b 88 9e 3c a6 2a 6e 3d
       -0.056585014 0.0658759 0.01935207 0.05814614
0002f0 52 8f 0f 3d 08 2b 74 bd 52 6d a1 3d 87 df ee 3d
       0.03504879 -0.05961135 0.07882179 0.11663728
000300 66 11 63 3d 2b bc c5 3d fc 2d ae 3d a0 f1 95 3d
       0.055436514 0.09655031 0.085048646 0.07321477
000310 52 6e df bc 94 26 20 bd 24 05 64 bd 54 aa 03 3c
       -0.027274285 -0.03909929 -0.055668965 0.008036215
000320 9b 90 c9 3d 8f fd 11 3e ca d6 c4 3d 84 04 7a 3d
       0.098420344 0.14256881 0.0961128 0.061039463
000330 c1 f7 0f 3e 5c e1 ba 3d 8f c4 9d 3d 5e c0 02 bd
       0.14059354 0.09125015 0.07703506 -0.031921737
000340 8d fb 33 bd 11 8f 73 3c da 2c a8 bc 1c 16 07 bd
       -0.04394107 0.014865653 -0.0205292 -0.03298007
000350 38 0e 8e 3d 7d cf 6e 3d f9 37 a4 3d 76 38 03 bd
       0.06936306 0.058303345 0.080184884 -0.032036267
000360 76 8b da 3c 60 2d 21 3d 44 1e 1c 3d ec 7e 9a bd
       0.026677828 0.039349914 0.0381148 -0.0754374
000370 4e d9 d5 3d a8 20 db bd 7f 7e bd 3d e1 bf b3 3d
       0.10441838 -0.10699588 0.09252643 0.08776832
000380 02 62 24 3c 53 33 06 bd d2 3f 29 3d 40 1e b8 3d
       0.0100331325 -0.03276379 0.04132063 0.08990145
000390 95 0d bc bb fa a1 62 3d 04 c2 96 bd b2 38 d5 3b
       -0.005738924 0.055330254 -0.07361224 0.0065070027
0003a0 8f ff da bc ba b4 63 3d 22 78 8c bd 56 cf 49 bd
       -0.026733188 0.055592276 -0.06858851 -0.049269997
0003b0 0e 6e ff 3c 39 3b 0e 3d c8 b3 87 3c 79 bd 87 bc
       0.031180408 0.034724448 0.016565219 -0.01656984
0003c0 b2 d8 43 3d a2 13 d7 bd 33 29 59 bd 7c 0c af 3b
       0.04781408 -0.105017915 -0.053017806 0.0053420644
0003d0 38 aa 87 3d 52 2f 72 bd b9 8f ae bd 69 39 8a 3c
       0.066242635 -0.05912716 -0.08523507 0.016873078
0003e0 b0 03 a9 3c de 2f 0f 3d 73 9b 41 3d 35 90 1f be
       0.020631641 0.03495776 0.04726739 -0.15582354
0003f0 a1 14 a7 bb 2f 99 c7 3d 8e d5 a9 3d 25 c3 f3 3c
       -0.0050988947 0.09746014 0.082926854 0.029756138

lstm.weight_hh_l0 f4 [800, 200]
000000 f3 a5 25 bd 8a 34 03 bd 4d 95 24 3d 6f e6 0c bc
       -0.040441465 -0.032032527 0.040181447 -0.0085998615
000010 28 0a 3a bb 19 a8 b4 3c c9 75 a8 bc 2f 56 89 bd
       -0.0028387401 0.022052811 -0.020563977 -0.06705891
000020 dc a8 47 b8 1e 20 64 3d b3 a7 44 3d 85 10 18 bd
       -4.760256e-05 0.05569469 0.048011493 -0.03712513
000030 2c c5 a8 bc 6a ab 88 bc 57 c4 9a 3c 01 40 41 3d
       -0.020601831 -0.0166833 0.01889245 0.04718018
000040 3b e8 d2 bb 03 29 b9 bb 87 5a df bc 58 65 ac bd
       -0.0064363754 -0.005650641 -0.027264846 -0.08417767
000050 57 09 8b 3d 93 8b 9b bd ab 3d 94 3d 24 cf e3 3c
       0.06788891 -0.07594981 0.07238325 0.027808733
000060 39 12 e3 3d 7b 46 f5 3c ea 34 6b 3d 72 b2 21 3d
       0.1108746 0.029940834 0.05742351 0.03947682
000070 d1 7a 75 bd d3 9e 1d 3d f8 61 82 bd cf 91 77 bd
       -0.05993158 0.038481545 -0.06366342 -0.06044179
000080 0c 15 90 ba d4 7e ed 3c f4 c8 33 bd ac f2 fa bc
       -0.0010992601 0.02899114 -0.043892816 -0.030633293
000090 85 3a cb 3d 6a b5 01 3d 71 be 10 bd 41 32 4f bd
       0.09923271 0.03166715 -0.03533787 -0.050585035
0000a0 52 ad 97 3c 91 54 ba 3c 5b 8d 01 bc 2b 69 8e bd
       0.018515263 0.022745403 -0.007907237 -0.06953653
0000b0 49 48 16 3d f5 40 76 bd 08 c9 04 bd fc ff 5c 3d
       0.03669003 -0.06012054 -0.03241828 0.053955063
0000c0 fe 4b 2d bc 9e b5 ab 3d 05 91 1b bd b1 e0 75 3d
       -0.0105772 0.0838425 -0.0379801 0.060028736
0000d0 79 ca 05 3c c8 2b 16 3d ff 98 a3 3d f5 5f a3 bb
       0.008165949 0.036662847 0.07988166 -0.004985804
0000e0 14 21 33 3d 4d ac 0e bd b9 f6 5f 3d 82 47 09 bd
       0.043732718 -0.034832288 0.054678652 -0.03351546
0000f0 02 b7 8f bd 86 c6 35 bd 32 17 b6 bc df e8 41 3c
       -0.07017328 -0.04437878 -0.022227857 0.011835306
000100 83 f1 55 3d 46 ed 20 bd 89 54 00 3c f6 c3 98 3c
       0.052232277 -0.03928878 0.007832655 0.018648129
000110 22 02 7d 3c 16 55 5a 3d da 36 96 3c 2b b9 7e 3d
       0.015442403 0.0533038 0.018336702 0.06218831
000120 99 18 da bc d3 91 4c bd c9 a7 74 3b d4 ca 56 bd
       -0.026623057 -0.049943756 0.0037331453 -0.052439526
000130 9d 67 8d bc 90 23 e2 3c 4e 1c 39 3d 29 5e 6a bc
       -0.01726132 0.027604848 0.04519301 -0.014304676
000140 f7 fb 5d 3c f8 21 e4 bc 72 61 f6 3c e2 18 4a bd
       0.013548843 -0.027848229 0.030075762 -0.049340136
000150 ac 0d 5d 3d 25 85 2b 3d 8f c6 5e bd 27 79 a3 bc
       0.053968117 0.041875023 -0.05438858 -0.01995523
000160 d4 8d 16 bd 03 ed 02 3d 14 89 6d 3d 4e 7e b3 bc
       -0.03675635 0.031964313 0.057992056 -0.021910813
000170 70 b9 00 3c a6 54 9d bd 63 c5 84 bc 92 63 37 3d
       0.007856712 -0.07682161 -0.016207403 0.044772692
000180 c3 64 2a bd c2 f1 58 3d 27 27 6b bc 39 af 0f 3d
       -0.0416 0.052964933 -0.014352596 0.035079215
000190 09 24 10 bd b7 30 56 3d 38 50 13 3c dc bc eb bc
       -0.035190616 0.05229255 0.008991294 -0.028776579
0001a0 b8 2c c2 3c 4c 7b 7d bd 15 0c 16 bd fc 23 a8 3d
       0.023702964 -0.061885163 -0.036632616 0.082099885
0001b0 1d 48 9a 3d 85 99 0d bd cc c5 9e 3d 62 bb 10 bd
       0.07533286 -0.034570236 0.077525705 -0.035334952
0001c0 bb 70 3d bc 07 0b 87 bd 4d 3c 16 bd 48 12 43 bd
       -0.011562522 -0.065939 -0.0366786 -0.047624856
0001d0 5c 3b 60 bd 5a 67 ba 3c bd ec 1c 3d fe 3b 89 bd
       -0.05474411 0.02275436 0.03831171 -0.06700896
0001e0 04 96 32 bd 98 a0 4b 3d 53 da 12 3c 3a f0 c8 bb
       -0.043600097 0.0497137 0.008963185 -0.006132153
0001f0 e0 48 3a bd 46 26 8e bb f6 be 85 3d e4 ce f8 bb
       -0.045479655 -0.0043380586 0.065305635 -0.0075930227
000200 48 66 5d bd d4 64 ba 3b d0 09 8d 3b 5b 11 80 3d
       -0.05405262 0.005688289 0.0043041483 0.0625331
000210 9c 58 13 3d 72 fd d4 3c 3f 77 7a bc 53 0d 29 3c
       0.035973176 0.025999758 -0.01528722 0.010318118
000220 a4 ed 7f 3d e7 d5 6a bd f1 56 b3 3c bc 26 e2 bd
       0.06248249 -0.0573329 0.021892043 -0.11042544
000230 c2 27 62 bd 13 e4 b6 ba 99 94 81 bd 80 db 63 bc
       -0.055213697 -0.001395347 -0.06327171 -0.013907313
000240 64 e1 10 3d 69 c5 c0 3c 58 e6 dd bc 49 bd 62 bd
       0.0353712 0.023531632 -0.027087376 -0.055356298
000250 fd b6 10 3d bd 13 94 bd c6 db a9 bc d8 24 7b bd
       0.03533076 -0.07230327 -0.020734679 -0.061314434
000260 80 eb 81 bd d0 a7 0d 3c 22 2a 66 3d 55 56 96 bd
       -0.06343746 0.008645967 0.056192525 -0.07340685
000270 65 a5 44 3b 25 2c 7f 3d 23 a0 7d bd d9 5e 55 3d
       0.003000581 0.06229796 -0.061920296 0.052092407
000280 04 75 08 3d db fb be bd ff 3d dc bb e5 b6 6a bd
       0.03331472 -0.09325381 -0.0067212577 -0.057303328
000290 8b 0d 60 bd 23 9b 98 bb 00 de 4b 3d 7a a1 f3 3c
       -0.054700416 -0.0046571656 0.049772263 0.029740084
0002a0 20 3c 2a bd cd c6 71 bd d5 23 2a 3d 1e 03 99 bc
       -0.041561246 -0.05902748 0.04153808 -0.018678244
0002b0 f3 73 e0 3a 92 f0 10 bd f4 ee 80 3d c3 68 4e 3c
       0.0017124399 -0.035385676 0.06295577 0.012598219
0002c0 1f 45 d7 bd f8 53 12 bc b2 d2 8c 3c 91 a5 b0 bc
       -0.10511231 -0.0089311525 0.017190311 -0.021563323
0002d0 2d 74 ed 3c 25 fd 6f bc dc 98 9f bc 56 3a 63 bd
       0.028986061 -0.014647757 -0.019482069 -0.055475555
0002e0 db 63 a5 bd 24 38 02 bb e8 35 31 3d 3f 41 0c 3d
       -0.080756865 -0.0019869888 0.0432643 0.03424191
0002f0 ad aa 28 3d 6c 66 a9 bd 34 9f 00 3d de 5e 6f 3c
       0.041178394 -0.082714885 0.031401828 0.01461002
000300 f9 b3 87 bd 4a 94 71 bb 5b 23 17 bd 76 2d 08 3c
       -0.06626124 -0.0036862069 -0.036898952 0.00831162
000310 ab 21 dd bc 20 a9 a9 3c ec c2 0a bd c3 00 a8 3d
       -0.026993593 0.020710528 -0.0338773 0.0820327
000320 91 1c 4a bb f4 c3 db 3c 3d 25 26 3d 65 d0 6e 3c
       -0.003083978 0.026826836 0.040562857 0.014576052
000330 b2 a4 80 bd e1 c7 9a bd 8c dc 0e 3b 1c 3d 41 3d
       -0.06281413 -0.07557655 0.0021798937 0.04717742
000340 92 7a 77 bd e0 11 c6 bc 5f 14 55 bd 63 fd 46 3d
       -0.060419627 -0.024178445 -0.05202138 0.048581492
000350 5f 9a 8b bc 69 73 c4 bc 39 93 6f 3c b3 1b b8 3c
       -0.017041383 -0.023980813 0.014622503 0.022474146
000360 ed 87 6d bb 11 5f 9a bc 77 bb f0 3c fe cd 4c bc
       -0.0036244348 -0.01884416 0.029386265 -0.012500284
000370 9a 86 e5 3b 80 9a cd 3c 13 ab 4f 3d f3 68 2f 3c
       0.007004571 0.025098085 0.05070026 0.010706174
000380 ef 3f b1 bd ec 58 3c 3d 6f 83 c5 3c 56 a2 78 bd
       -0.086547725 0.04598324 0.024110524 -0.06070169
000390 70 cd 18 3d c2 d0 9c bc 12 5c 74 3d 34 46 4d bd
       0.037305295 -0.019142512 0.059658118 -0.05011578
0003a0 a5 81 59 3c bc 87 41 3d 0c f7 f8 3c ac cf 88 bd
       0.013275539 0.047248587 0.030391239 -0.06680235
0003b0 11 5f ae bc 0e fd 80 bd 18 42 3d bd 09 d7 11 3c
       -0.021285566 -0.06298266 -0.04620561 0.008901366
0003c0 21 75 39 3d 3f 49 4a bd 28 11 4b bb c0 2c f2 bc
       0.04527772 -0.04938626 -0.0030985568 -0.029562354
0003d0 26 6d ee bc 6e ec 80 3d 94 85 2a 3c 30 bb 24 3d
       -0.02910478 0.062950954 0.010407824 0.04021758
0003e0 aa e3 ad 3c 09 4f 13 3d 6d 98 c2 3c 04 74 3d bc
       0.021226723 0.035964046 0.023754323 -0.011563305
0003f0 6d 09 05 3c b6 a7 e1 3b 6c 36 b1 3c f7 ea 5e 3b
       0.008119923 0.006886448 0.021632396 0.0034014562

lstm.bias_ih_l0 f4 [800]
000000 98 b2 d2 3c c2 50 28 bc 2d 5e ef bc f1 2e 50 3d
       0.025719926 -0.01027316 -0.029219711 0.050826017
000010 eb 72 f4 3c 6c f7 5a 3d 25 d0 21 bd 15 f1 30 bd
       0.029839953 0.053458616 -0.039505143 -0.043198664
000020 44 9f dd bc 1d dd c3 bc ea 1d 04 3c 7b 33 20 bd
       -0.027053483 -0.023909146 0.008063773 -0.039111596
000030 0c 08 3e bd 70 52 73 bd e0 1f 34 bd b0 9c 1b 3d
       -0.046394393 -0.05940479 -0.04397571 0.037991226
000040 c1 ac 3d bd cc bf 00 3c 73 f1 8c bd ef 2f 9d 3d
       -0.04630733 0.007858228 -0.0688199 0.07675158
000050 4a bb 03 bd e6 a4 a1 3c 5e 08 46 bb e2 60 97 bd
       -0.032161035 0.01973195 -0.003021739 -0.07391526
000060 52 4a 2e bc 57 10 7a 3d 72 4a 40 3d e6 8b b5 bd
       -0.0106378365 0.06105074 0.046945997 -0.08864574
000070 6e 34 e2 3c b2 83 78 bd 5a 90 a3 3c 32 6d 23 3d
       0.027612891 -0.06067247 0.019966293 0.03989906
000080 f1 02 9d 3c e0 04 8b bc 85 36 f1 3c c5 c6 44 bd
       0.019166442 -0.016970098 0.029444942 -0.048041124
000090 4c ac 4c bd 2a 0e af bc 92 88 88 bc 45 48 fa 3c
       -0.049969003 -0.021369059 -0.016666684 0.030552039
0000a0 96 0b 08 bd 80 8d 28 3d 19 c8 73 3c fd 7b 8c 3c
       -0.033214174 0.04115057 0.01487925 0.017148966
0000b0 91 79 3e 3d 38 6e 88 bd bd 15 64 3d ab 65 77 b8
       0.046502654 -0.066616476 0.055684794 -5.8984075e-05
0000c0 ea 7d 83 bd de 3f b3 bd 10 e2 46 3d fb 1a 3b 3d
       -0.064205006 -0.08752416 0.048555434 0.045680027
0000d0 d2 a7 ed bb 94 6e 0a bd 45 b6 f6 3c 28 87 cd 3d
       -0.0072526718 -0.03379686 0.03011621 0.10035545
0000e0 86 08 41 3d 7e c1 90 bd 61 18 02 bd b2 62 4c 3d
       0.04712727 -0.07068156 -0.03176153 0.04989881
0000f0 c0 17 20 bd 46 c5 8f bd 7c f7 46 3d c8 be 4d bd
       -0.03908515 -0.07020049 0.048575863 -0.05023077
000100 47 ba 0a bd 83 57 7b 3d 69 d8 1f bd 92 3b 2c bb
       -0.033869054 0.061362755 -0.039024744 -0.0026280624
000110 45 aa 14 bc 0d de 79 3b 95 c5 9f bd 4d a2 dd bb
       -0.009073799 0.0038126737 -0.07801358 -0.0067637325
000120 0d 3c 0f 3c 9d 9e 03 3d a4 fb 53 bd bc 67 53 3c
       0.008742345 0.032133687 -0.051753655 0.01290315
000130 42 8e 8a bd 76 ec f2 3c 9a 36 dd bc 9a 8f 73 3c
       -0.06765415 0.029653769 -0.027003575 0.01486578
000140 59 d1 2c bd e9 91 0a bd 9a cf 7e 3d 23 6b 51 3d
       -0.042191837 -0.033830557 0.062209703 0.051127564
000150 e1 97 7c bc 60 f9 69 3b f8 e7 53 3c 71 d9 65 bd
       -0.01541707 0.0035701618 0.012933724 -0.05611557
000160 a5 7b f5 3d e2 75 49 bd 52 b1 98 3d 32 f7 15 bc
       0.11986474 -0.049184687 0.07455696 -0.009153174
000170 35 2a 13 bd 2c 55 6f 3d 15 fd 76 bd 8e 39 ca 3c
       -0.035928924 0.058430836 -0.06029995 0.024685647
000180 bb 02 8b 3c c9 7f 32 3d b7 b2 20 bc 8e 68 5b 3d
       0.016969075 0.043578897 -0.009808234 0.053566508
000190 d2 f9 67 bd a7 58 b1 3d 01 a8 e9 3c 2f e9 a7 3d
       -0.05663473 0.08659487 0.028522493 0.08198773
0001a0 bb e0 d9 bb 95 53 26 3d 02 0c dc 3b 49 e0 24 bc
       -0.0066491044 0.040607054 0.0067152986 -0.010063239
0001b0 e9 3e a4 bc 3f ca 27 3d 4f 60 76 bc 75 ff c0 3c
       -0.02004953 0.04096436 -0.01503761 0.023559311
0001c0 a1 30 cb bb 29 1a 37 bc 85 58 a8 3c e5 ee 02 bd
       -0.0062008654 -0.011175671 0.020550022 -0.03196611
0001d0 e4 29 8c bb 94 4d 50 3d ae fa 1f bd 2f bc 3f 3d
       -0.0042774547 0.050855234 -0.039057426 0.046810325
0001e0 40 3f 0b 3d 70 2b b9 3e 8b 7e 8b 3d 7d c3 05 bd
       0.033995867 0.36165953 0.068112455 -0.032657135
0001f0 e3 e7 65 3d a6 75 d3 3d f4 a8 80 3d 60 61 8a 3c
       0.056129348 0.10325174 0.06282225 0.016892135
000200 72 d1 6e bd 3c 4d 79 bd 8f 31 51 bd 3d 99 45 bd
       -0.05830521 -0.060864672 -0.051072653 -0.048241843
000210 1e 31 00 bd 5b b8 11 bd b5 7e a0 3d bc ec 2f 3d
       -0.03129684 -0.035576206 0.078366674 0.042950377
000220 c8 cd 06 3d 6a 42 ff bc b9 a4 65 3c 3c ff 8b 3c
       0.032911092 -0.031159598 0.014016324 0.017089479
000230 3c 25 5b 3d 26 b9 7e 3d 08 4f d8 3b 19 ad 9d 3d
       0.053502306 0.06218829 0.006601218 0.076990314
000240 f4 d3 20 bd 36 27 90 3d d4 68 67 bc d9 14 06 bd
       -0.039264634 0.07038729 -0.014124114 -0.032734726
000250 7e c9 ed bb 7c 07 9f bc 7a 1f 87 bc 8f 2e f5 bc
       -0.0072566858 -0.019412749 -0.016494501 -0.029929427
000260 9c 82 3f bc 81 29 e7 3d cf 39 a9 3d bd 32 95 bc
       -0.011688855 0.11287213 0.08262979 -0.01821267
000270 8a 21 35 3c 6f 6b d8 3b 49 41 15 3d 55 05 ad 3d
       0.01105536 0.006604604 0.036439214 0.08448283
000280 12 30 d9 3c 0a 17 d8 3d 01 65 0d bc 1c 49 c6 3c
       0.02651218 0.10551269 -0.008630038 0.024204783
000290 23 79 0e 3c ee 41 61 3d 72 ad 4b bd c9 58 8a 3d
       0.008695873 0.054994516 -0.049725957 0.06755216
0002a0 10 49 a6 bc 6b 44 8f bd 8b 53 9a bd a0 19 cd 3c
       -0.02029851 -0.069954716 -0.07535466 0.025036633
0002b0 4b 72 4a 3d 5c 8e ab 3c a9 cb 4c 3c b2 01 a0 bd
       0.049425405 0.020941906 0.012499728 -0.07812823
0002c0 2b 4e 25 bd 10 0f 8f bc 5a b3 4e 3c 71 53 f9 3c
       -0.04035775 -0.017463237 0.012616003 0.030435296
0002d0 92 5e ca 3c ca ba 53 bd c3 d2 b8 3d 49 05 f0 bc
       0.024703298 -0.051691808 0.090245746 -0.029299395
0002e0 24 a6 24 3b 52 26 91 3d 25 48 50 3d 03 ba 8d 3d
       0.0025123442 0.07087387 0.050850052 0.069202445
0002f0 69 18 a2 3b 3e 4d 21 3d 27 c3 80 bd d2 14 dd bc
       0.0049467576 0.039380305 -0.06287222 -0.026987467
000300 08 b5 f5 3c 89 43 30 3c 32 03 9b bd a8 dc 55 3d
       0.029993549 0.010758289 -0.07568969 0.052212387
000310 9e 6a 5b bd 44 54 1d bd b1 b3 2d 3d b0 02 b1 bd
       -0.053568475 -0.03841044 0.042407695 -0.08643091
000320 ca 07 0f bd e4 2e 55 3d 81 aa 48 bc 84 06 64 bd
       -0.034919538 0.05204667 -0.012247683 -0.055670276
000330 af b0 fa bc 21 a4 ae 3b 94 80 cd 3c 2f a1 99 3c
       -0.030601827 0.0053296243 0.025085725 0.018753616
000340 b6 07 57 bd f2 ed 90 bd c3 9e 8c 3c 98 07 85 3c
       -0.052497588 -0.070766345 0.017165547 0.016238973
000350 35 5e f3 bc 28 a3 88 bd 61 f4 33 bd 6c d8 b9 bc
       -0.029708007 -0.066717446 -0.04393423 -0.022686206
000360 a5 8e 2b 3d 39 5c 90 bd ee db b3 bc 75 48 45 3d
       0.041884083 -0.0704884 -0.021955457 0.048164804
000370 f4 2d 69 bc 05 04 da bc d0 0e 17 3b e9 2a 71 bc
       -0.0142321475 -0.026613245 0.00230496 -0.014719703
000380 55 28 36 3d b5 90 81 bd 1a d8 30 bd 5c cd dc bc
       0.044472057 -0.06326429 -0.04317484 -0.026953392
000390 9f ab 79 bd c2 14 0e bd 88 82 8f bd d0 8d f8 3c
       -0.060954686 -0.034687765 -0.07007319 0.030341059
0003a0 56 8c a3 bd 62 5b d4 bc b6 72 2c bd 86 6e 79 bd
       -0.07985751 -0.025922481 -0.042101584 -0.06089642
0003b0 f5 fb 31 3c e2 25 6c bd d0 7b 47 bd 9c bf 43 3d
       0.010863294 -0.057653315 -0.04870206 0.047790155
0003c0 4f 41 95 bd 03 8d c8 bc 97 9a 44 3d 24 88 2b bb
       -0.07287847 -0.024481302 0.04799899 -0.0026173675
0003d0 4c 80 ce 3a 9f fc 4a bb 74 fb 9e 3b 0b 6c b5 bc
       0.0015754788 -0.0030973328 0.004851753 -0.022146245
0003e0 68 cd 38 3d 5d a2 30 3d c8 d0 07 bc c8 fd b9 bd
       0.045117766 0.04312359 -0.008289523 -0.09081608
0003f0 0f f7 25 bb d0 d6 a8 bd 42 62 48 bd 84 0e ab bb
       -0.002532426 -0.08244097 -0.04892183 -0.0052202363

lstm.bias_hh_l0 f4 [800]
000000 e0 8c c5 3c 98 78 59 3c 0f 90 b5 bc 1d 27 14 3c
       0.024115026 0.013273381 -0.022163419 0.009042528
000010 3f e3 60 bc a7 ea 9c 3d f3 9e 26 bd bf b9 9f bd
       -0.013726055 0.07661944 -0.04067893 -0.077991
000020 e9 50 a5 bd 2f 04 fc bc f8 07 95 bd e7 1c a1 3d
       -0.08072073 -0.030763714 -0.072769105 0.07866841
000030 ae 57 65 bd ea 50 3f 3d 6c 13 73 3d 39 b5 97 3c
       -0.05599182 0.046708025 0.059344694 0.01851903
000040 d9 af 12 bd 51 25 75 3d a3 62 72 ba bd 55 70 3d
       -0.035812233 0.05985004 -0.00092462654 0.058675516
000050 ce 37 a1 3d f3 e9 83 bd 27 64 c2 bc ce 07 7f bd
       0.07871972 -0.06441107 -0.023729397 -0.062263303
000060 8f ea c6 bc 01 90 89 bc 69 f3 a1 bd f1 89 66 bd
       -0.024281768 -0.0167923 -0.07907755 -0.056283895
000070 d1 30 a1 3d 0b d4 33 bd 16 dd b8 bc e2 b7 35 3d
       0.07870639 -0.04390339 -0.02256636 0.044364817
000080 ed 8b 82 3d 9b e4 9a 3c 7f f7 8a bd bf 43 ea bc
       0.06374345 0.018907836 -0.067854874 -0.028596757
000090 88 88 7f bd 14 0e 44 bd c8 a6 ea 3c 84 19 78 3d
       -0.062386066 -0.04786499 0.02864398 0.06057121
0000a0 7f ab aa 3d 1d f6 72 bd 1c 82 17 3d b4 76 a0 bb
       0.083334915 -0.059316743 0.036989316 -0.004896963
0000b0 10 b8 82 bd 9b 19 2e bc 23 c9 23 3d 90 e5 72 3d
       -0.063827634 -0.010626222 0.03998674 0.05930096
0000c0 57 85 d0 bc 47 75 0d 3d 36 81 91 3d 4c 29 d6 ba
       -0.025454206 0.034535673 0.07104723 -0.0016339212
0000d0 25 3c 16 bb 5c 60 14 3d b5 0a 9f 3c 4b b6 2a 3d
       -0.0022924033 0.036224708 0.019414285 0.041677754
0000e0 c4 80 24 3d e1 71 9a bd 99 a5 c6 bd ce be cf bc
       0.040161863 -0.07541252 -0.09699554 -0.025359537
0000f0 c0 c2 83 3b dd 76 f1 bb 48 e6 20 3d d0 08 3e 3d
       0.0040210187 -0.007368906 0.039282113 0.046395123
000100 f6 0c be bc 75 37 40 bd 9c 53 b2 bc d4 54 36 3d
       -0.02319954 -0.046927888 -0.021768384 0.044514492
000110 fa 8e 84 bd 88 fc 71 bd 20 f8 a0 bc 98 11 0e 3d
       -0.06472583 -0.059078723 -0.019649565 0.034684747
000120 6e 42 94 3b 9d 8b 77 bd 4a 0d 9b 3d 0a d9 0c 3c
       0.0045245206 -0.06043588 0.07570894 0.008596668
000130 32 06 ca bb 8e e8 98 3c 2f af c4 ba 0c dc 1a 3d
       -0.0061652893 0.018665578 -0.0015005822 0.03780751
000140 c9 d7 d2 bb 0f 5a 75 bc 9a 00 12 bc 18 f1 88 3c
       -0.006434415 -0.014975085 -0.008911276 0.016716525
000150 84 27 4a 3c 58 23 50 bd 8e ea 11 3c 49 ab 0a bd
       0.012338523 -0.050814956 0.00890602 -0.033854757
000160 c3 95 ff 3d 84 86 56 bd ac 25 54 3d df 16 07 bb
       0.12479737 -0.052374378 0.05179374 -0.0020612997
000170 b1 90 88 3c 1e 96 14 bd 05 f6 54 3c 42 00 01 3d
       0.016670557 -0.036275975 0.012998109 0.031494386
000180 6d 24 6a bb 07 f5 83 bc f5 15 33 3d d4 38 76 3d
       -0.0035727278 -0.01610805 0.04372211 0.06011279
000190 ec b0 27 3d 22 13 04 3d 6d 16 42 bc 8b df 3e 3c
       0.04094021 0.03224481 -0.011846167 0.0116499765
0001a0 33 ce 65 3d 2d bb eb bc 73 ad 6f 3d 5a c3 a3 3c
       0.05610485 -0.028775776 0.058515023 0.019990612
0001b0 22 d3 44 3c 33 ed 6b 3d 7a bb 9d bc 73 da b1 3d
       0.012013229 0.057599258 -0.019254435 0.08684244
0001c0 68 2c 91 bd 25 d6 54 3d e1 05 9d 3c 1e e2 42 bb
       -0.07088548 0.051962037 0.019167842 -0.0029736827
0001d0 15 5e 2b bd f5 16 93 bb 0c 26 9c 3c ac 6f 82 bc
       -0.04183777 -0.0044888207 0.01906111 -0.01592239
0001e0 76 01 a8 bc f4 73 bc 3e 06 96 1f bd db 3f 51 3d
       -0.02050851 0.36807215 -0.038961433 0.051086288
0001f0 27 f8 61 3d 46 38 cf 3d a7 93 23 3d 2f 14 34 3d
       0.055168297 0.10118155 0.039935734 0.04396456
000200 52 92 5b 3b dd ca 8d 3d 7d c8 62 3d 57 1e c8 3b
       0.0033503962 0.06923459 0.05536698 0.0061071324
000210 4f bf f4 3c ee c6 3a bd a7 7b 23 3d 16 85 0e 3d
       0.02987638 -0.04559987 0.039912846 0.03479489
000220 6c be fb 3b 74 60 95 3c 9a 32 01 bd 0b c4 15 bd
       0.007682612 0.018234469 -0.031542398 -0.036563914
000230 b6 1a 8e 3c 90 3a 9b 3d 77 75 e6 bc 7c 9f dd b9
       0.017346721 0.07579529 -0.028132183 -0.0004227123
000240 92 85 49 3d 22 0b 8a bd 6b 37 01 3c 9d c4 33 3d
       0.04919965 -0.06740405 0.007886748 0.043888677
000250 a2 df 12 bd 5c de 7e 3d 34 b0 c1 bc a2 e1 93 bc
       -0.035857804 0.062223777 -0.02364359 -0.018051926
000260 33 e4 93 3c c7 c4 36 3d 3e e3 04 3e 6e d8 bd bd
       0.01805315 0.044621255 0.12977311 -0.09269796
000270 6d 8b b2 3c c0 6d 5d bd 1b b9 42 3a e8 2c 04 3d
       0.021794999 -0.054059744 0.00074280956 0.03226939
000280 74 7b b9 3d c5 6d 2d 3e f1 3d d2 3c 5f 3c 4a bc
       0.0905675 0.16936405 0.025664302 -0.012343495
000290 89 29 75 bd 94 b8 3e 3d 63 2c a5 bb 35 f0 9f 3d
       -0.059854064 0.046562746 -0.0050406917 0.07809488
0002a0 f2 4a 59 3d f1 e9 03 bd 3d 4b 18 3b a0 8c 92 bc
       0.05304999 -0.032205526 0.0023238205 -0.01788932
0002b0 9b 33 ed 3c 6b d8 2b bd 21 2e 98 bc ee ab 57 3c
       0.028955271 -0.04195444 -0.018576683 0.01316355
0002c0 60 af 07 3c 37 a4 92 bd e5 38 eb bc 1c 0b 0c 3d
       0.008281559 -0.07160228 -0.028713653 0.034190282
0002d0 5a 45 75 bc 0c f8 6a 3d 29 10 cd 3d c9 39 f9 3b
       -0.014970148 0.057365462 0.10012848 0.0076057655
0002e0 22 d3 0c 3d 2f 1c fe bc 69 b5 4e 3c bb b6 89 3c
       0.03438104 -0.031019298 0.012616494 0.016810765
0002f0 26 02 c5 bc fe e4 40 bd a8 04 cb bd 60 b8 a5 bc
       -0.024048876 -0.047093384 -0.099129975 -0.020229518
000300 68 a0 ba bd a1 33 0f 3d 1b a2 6c bd 18 4f 37 3b
       -0.09112626 0.034961347 -0.057771783 0.0027970728
000310 5f c5 2a bc 59 2b 83 3a d1 a8 7e 3d 64 59 b0 bd
       -0.0104230335 0.0010007425 0.062172715 -0.086108
000320 c4 a5 8d bc 75 0c 1d 3d ef c1 a2 bd 77 fb 8e bd
       -0.017290957 0.038341958 -0.07947146 -0.06981557
000330 01 26 ff bc c7 b9 2f bd cc fe 13 bd 28 73 92 bd
       -0.031146051 -0.04290178 -0.036131665 -0.071508706
000340 b0 c8 47 bd ae 44 ab bd c7 e4 08 3d 75 58 16 bd
       -0.048775375 -0.08362709 0.033421304 -0.036705453
000350 05 3d a8 3c d1 c6 ce 3c 01 dc 9c bd 02 49 b3 bc
       0.020536909 0.025241287 -0.0765915 -0.021885399
000360 83 64 96 3c f9 31 55 3b 7c b2 53 bd 4b 92 4b bd
       0.018358475 0.0032531007 -0.051683888 -0.049700063
000370 b0 03 cc bc 43 63 44 bd e8 43 af bc 11 2c 0f 3d
       -0.024904102 -0.047946226 -0.021394685 0.034954134
000380 cc 72 50 bc 92 ac 89 bd 3a 7e 1e 3c c5 03 21 3d
       -0.012722682 -0.06722368 0.009673649 0.039310236
000390 23 48 9b 3c 9e ee 50 bd 92 95 90 bd 9c 25 b4 bc
       0.018955296 -0.051008813 -0.07059778 -0.02199059
0003a0 f8 4c 28 bd 17 cd ea 3c 1e 3a a3 bd 06 79 3a 3d
       -0.041089028 0.028662248 -0.07970069 0.045525573
0003b0 07 d6 cc 3c a3 84 94 3c 7c a9 07 bd 02 dd 48 3d
       0.0250044 0.018129652 -0.033120617 0.049038894
0003c0 c4 9b 5e 3c 16 e5 12 bd 7d 46 9b bc 1f d6 89 bd
       0.013586942 -0.035863005 -0.01895451 -0.067302935
0003d0 d8 01 74 bd 93 00 0b 3d 3e 0d de bc 86 e8 ca 3b
       -0.05957207 0.033936094 -0.027105924 0.0061922697
0003e0 cf 94 a4 3c 83 65 65 bd 76 df e5 38 96 55 bf bd
       0.020090489 -0.056005012 0.00010961194 -0.09342496
0003f0 b9 f9 f6 bc df e2 28 3c e3 3d cf bd a8 f4 a8 bd
       -0.030148374 0.0103079965 -0.10119226 -0.082497895

linear.weight f4 [1, 200]
000000 57 71 96 bc 23 8c 02 3d a8 58 23 3d a8 65 57 3d
       -0.018364592 0.031871926 0.03987947 0.05258718
000010 62 1f 98 3d cd 07 82 bd 1c de 3d 3d 61 17 08 3b
       0.07427861 -0.06349144 0.046354398 0.0020765888
000020 69 8b e7 bb 33 a5 e6 bc 36 00 ed 3a bd 75 98 3d
       -0.0070661795 -0.028154945 0.0018081728 0.07444332
000030 1e 71 42 bd de 9f 89 3d 20 83 4b 3d 23 b3 e4 3c
       -0.04747116 0.06719945 0.049685597 0.02791745
000040 3c 5c 8a bb 97 01 92 3c d0 39 82 3c 99 8f 86 3d
       -0.004222421 0.017823024 0.015896708 0.06570358
000050 47 b7 ab bd 5f 80 79 3d 4f 19 b3 3d 1c d5 e0 3b
       -0.08384567 0.06091344 0.087450616 0.006861342
000060 84 5c 60 bd e7 c2 ac bd 40 eb 06 bd dc 40 24 bc
       -0.05477573 -0.08435612 -0.032939196 -0.010025229
000070 c2 f1 78 bd 75 64 03 3b fe 54 11 3d 11 ab 33 3a
       -0.060777433 0.002004889 0.035481445 0.0006853799
000080 7f 81 9d 3d 5b 13 57 bd ae a9 fe bb 8e fc 87 bd
       0.07690715 -0.052508693 -0.0077716922 -0.06639968
000090 30 1e 99 ba 3a 34 18 bd 83 b7 42 bd 9d 60 54 bd
       -0.001168197 -0.037159182 -0.04753829 -0.05184995
0000a0 7e ab 64 3d 76 76 33 3d 57 58 98 3d ca 68 83 bd
       0.05582761 0.043814145 0.074387245 -0.06416471
0000b0 7d e8 66 bd ec 51 bc 3c a6 65 85 3d c5 99 3a 3c
       -0.05637406 0.022988282 0.065135285 0.011389201
0000c0 08 9b b8 3c 0c a4 40 bd 5a e7 b5 3d 2e 84 26 3d
       0.022534862 -0.047031447 0.088820174 0.0406534
0000d0 fe e2 b5 bd 29 dd 6c 3b 47 dc 4c bc e5 36 91 bd
       -0.08881186 0.0036142564 -0.01250369 -0.070905484
0000e0 da 7b e5 3d 71 19 87 3c 2d fc 62 ba 05 f2 5d bd
       0.112052634 0.016491624 -0.0008658793 -0.054185886
0000f0 f6 38 f3 3c 03 f1 47 3c 1b 47 85 bc ac 57 7b 3d
       0.029690247 0.012203458 -0.016269257 0.061362907
000100 65 8f 8f 3c 8a e7 6d bd ba 6c 98 3d 44 f1 5b bd
       0.01752443 -0.05808214 0.07442613 -0.053696886
000110 36 d6 6b 3d 41 0a 95 3d b2 71 c6 3c 40 6b df bb
       0.057577334 0.072773464 0.024224136 -0.006818205
000120 63 1a bb 3b 02 b4 e2 3c 21 cd 9b bd 53 19 c1 bc
       0.0057099327 0.027673725 -0.076074846 -0.023571646
000130 1d ee 9a bc 11 73 9d bd 19 a8 91 3c 8c 15 8c 3d
       -0.01891237 -0.07687963 0.01778035 0.06840047
000140 df 27 94 3d 37 b3 3d 3d 34 fa 4f bc 9a 3e 45 3d
       0.07234167 0.04631349 -0.01269393 0.048155405
000150 93 1e c3 bd 12 ec 85 bc f9 e6 cb 3c cd 8d 42 bd
       -0.09527316 -0.016347919 0.02489041 -0.047498513
000160 b4 2b 8f bd a7 fe ab bb 69 89 54 bc 84 33 cd 3c
       -0.069907576 -0.005248863 -0.012972214 0.025048979
000170 f0 c6 5e 3c 81 dd 7e 3d f1 c7 7b bd fe e7 6b 3d
       0.013597235 0.06222296 -0.061469976 0.057594292
000180 78 c7 9b 3d 90 46 9c 3d e2 c3 94 3d ae 13 cb bd
       0.07606405 0.07630646 0.07263924 -0.09915863
000190 f4 7c 0b bd 38 15 07 3e 12 5a 0c 3d 71 f0 b3 bd
       -0.03405471 0.13191688 0.034265585 -0.08786095
0001a0 a9 9c 5e bd fc 62 ca 3b a3 b4 f5 3c 3e 35 84 bd
       -0.05434862 0.0061763506 0.02999336 -0.06455468
0001b0 00 51 56 bd ba 63 1f 3d 14 7a 89 bd 1f d5 18 3e
       -0.05232334 0.038913466 -0.06712738 0.14925049
0001c0 27 d9 51 bd dc fc 9a 3d 3c 6f 13 bd 00 c7 6e 3d
       -0.051232483 0.0756776 -0.035994753 0.05829525
0001d0 fd d5 be 3c 42 1d 3d 3d f8 9f 16 bd 2d 5e 39 bd
       0.023295397 0.04617048 -0.03677365 -0.04525583
0001e0 0e 76 77 3d 20 fd 10 3e ee 37 ad 3d 39 79 78 3d
       0.06041532 0.1415906 0.08457933 0.060662482
0001f0 7d aa 39 3d 79 5c cf bd 73 de f4 bc 38 51 4d bd
       0.045328606 -0.1012506 -0.029891228 -0.050126284
000200 75 a8 51 bd 73 91 9d bd 35 12 cc 3c 4b 92 93 bd
       -0.051186044 -0.07693758 0.024911026 -0.072056375
000210 11 6e 83 bc fb 5f 54 3d fc c1 b0 3d e4 61 0c bd
       -0.016043695 0.051849347 0.086307496 -0.034273043
000220 37 a8 a1 bd 4a 74 2a bd 57 d5 5d bd 21 a2 17 3c
       -0.078934126 -0.04161481 -0.054158535 0.009254963
000230 41 1a 95 3d ca 40 9c 3d 8b 78 ae bd 89 71 95 bd
       0.07280398 0.07629545 -0.085190855 -0.07297046
000240 3a 66 92 3b c4 d3 8a 3d 03 40 84 3d ba 0a 0e bd
       0.0044677528 0.06778672 0.06457522 -0.0346782
000250 ca a3 03 3c 04 2d 82 3d 85 e1 4a 3d ee c1 65 bd
       0.008034656 0.06356242 0.04953148 -0.05609315
000260 88 a8 b3 3c d8 91 d0 3d 27 7c 03 3e da b7 ca bc
       0.021930948 0.101840675 0.12840329 -0.02474587
000270 e6 1b 80 3d 55 d6 bb 3c aa da 6f bd 51 3e e2 3d
       0.06255321 0.02292935 -0.058558144 0.11047042
000280 8f ac d8 bd 00 9a 9a bd 9d e2 e9 bb fe 4a 93 bc
       -0.10579788 -0.075489044 -0.00713761 -0.017980095
000290 39 ec 8c 3d 84 02 86 3d 4a fb 59 bd a7 8f a2 bd
       0.068809934 0.065434486 -0.053218164 -0.07937556
0002a0 7d fc af 3d db 2d 39 3d e1 4a 34 bd bd 65 e6 bc
       0.0859308 0.045209747 -0.044016723 -0.028124684
0002b0 f8 c3 bf bc e6 3d a2 bd 7e c1 78 3d 6d e0 12 bd
       -0.023408875 -0.079219624 0.060731404 -0.03585856
0002c0 08 8e 80 3d a7 3b 74 bc 8d c7 9a 3d 19 0a 92 3c
       0.0627709 -0.0149068 0.075575925 0.01782708
0002d0 06 89 77 bd 15 2a 71 bc f4 f3 c6 bd 68 03 26 bd
       -0.06043341 -0.014719506 -0.09714499 -0.040530592
0002e0 c9 5f 95 3d f8 5e 85 3d 0c 6a 2f bd 11 75 7b 3d
       0.0729366 0.065122545 -0.042825744 0.06139094
0002f0 c8 52 96 3c 31 f3 89 3d a5 38 22 bd 92 f9 26 bd
       0.01835002 0.06735838 -0.0396048 -0.040765353
000300 2c 49 bd 3c c2 7b c6 3d 13 06 03 3d 83 ba 11 3d
       0.02310618 0.09691574 0.031988215 0.035578262
000310 5d d3 b0 3d 0b 82 a0 3d e0 a6 76 bd 2b 1e 15 bc
       0.08634064 0.07837304 -0.06021774 -0.009101431
