models/SBIN.NS/SBIN.NS_lstm_final.pth (torch, 392473 bytes, 5 tensors)

lstm.weight_ih_l0 f4 [600, 10]
-0.0038688355 -0.0005905828 0.041302823 -0.029867042 -0.08911085 0.011935246 0.053978898 0.08053557
-0.10522444 0.04678056 -0.09675849 0.18181796 0.02974939 0.016067846 -0.0971646 -0.0035097888
0.054196753 0.0032549063 -0.09285304 -0.087056085 -0.035056923 0.0013696533 0.080843255 0.066910625
0.018524384 -0.00333705 -0.048591044 -0.057566214 -0.060709883 0.04466131 -0.02775736 0.06277443
0.056358535 -0.032492068 0.076992266 0.0047350796 0.035210196 0.055902474 -0.039500065 -0.01368334
0.12949598 0.48998532 0.13611113 0.26080593 0.12515756 0.19277221 0.18907975 0.304497
0.1419023 0.124561034 0.033194155 -0.03768805 -0.06974849 -0.026272329 0.05349212 -0.020320501
0.0138705885 -0.058769416 -0.0027958632 0.009867746 -0.0010177974 0.1027212 -0.04132115 0.10166386
0.07898287 -0.0062431092 0.041520175 0.117204644 -0.015266064 0.09609179 0.18838462 0.029371899
0.14834277 0.05170621 0.12941486 0.09968742 0.09895155 0.12969317 0.04173211 0.08860826
0.06344541 0.27488565 0.029441256 0.016717475 -0.003242508 0.1025774 0.08205197 0.0045838654
0.10481815 -0.056022037 -0.05769538 -0.050518427 -0.07080389 0.04961663 0.046938308 0.027411805
-0.04396016 0.0230564 0.022292947 -0.027398888 0.081580766 0.031890143 0.04706288 0.07824293
0.07399919 -0.011192585 0.05687025 0.00024476642 -0.0036349646 0.008585232 0.009722651 0.13899562
0.04029943 -0.015048301 0.004419228 0.048057698 -0.0351077 -0.07604856 0.050234064 -0.0023538335
-0.042756557 0.014501686 -0.062752545 0.053081773 -0.049302787 0.028394386 -0.09460586 0.0757977
-0.06481455 -0.04506529 0.058169823 -0.03395565 -0.07360408 0.03235539 0.017209874 0.0034655102
0.064167105 -0.10076421 0.015330716 0.06524481 -0.050356198 -0.099597454 0.07464521 0.055981286
-0.048903804 0.06195164 -0.048012793 -0.07368467 0.017551167 -0.08124987 0.012167664 -0.00074409205
0.004809005 -0.024410864 0.114374414 -0.04904836 0.023475232 0.0708563 0.05339626 -0.037668586
0.06011625 -0.049291972 0.02051576 0.05824743 0.07983662 -0.042916983 -0.03795241 0.046941787
0.018468216 0.06835174 0.029180441 0.05735904 0.10013823 -0.004236176 0.06087659 -0.017602008
0.04853166 -0.005377379 -0.012569163 0.06382248 0.07306451 0.38835093 0.12797898 0.1413291
0.10250579 0.12277357 0.0845946 0.04069826 0.14441548 0.007427389 0.042825695 0.14094539
0.050206434 -0.0511958 -0.047308728 0.010892275 -0.016466646 0.025025342 -0.010853814 -0.016223812
0.016192062 -0.010065532 0.059058186 0.07705411 -0.022067154 0.009325504 -0.040778276 0.01709906
0.067786805 -0.07420213 0.018470036 0.082672864 0.057107035 0.039688114 0.106984235 -0.037177764
0.079802245 0.08035628 -0.024944313 -0.061718162 0.11239903 0.43291026 -0.024723088 -0.0028717152
0.10029792 0.0042057037 -0.017925186 0.09501727 0.13512738 -0.01081144 0.0024401227 0.007880994
-0.020243848 0.02972266 0.039653163 -0.012143997 -0.014778543 -0.05020872 -0.008089933 0.033795547
-0.030291304 0.29142487 0.02734606 0.075413644 -0.0196665 -0.021118406 -0.056032207 -0.046190955
0.06123725 -0.004680166 0.11092941 -0.075254545 0.089617126 0.029414384 0.11534304 -0.032823436
00000000: 4a8c 7dbb 57d1 1aba 262d 293d baab f4bc
00000010: c07f b6bd 0d8c 433c fa18 5d3d d5ef a43d
00000020: e97f d7bd f99c 3f3d 5129 c6bd 7d2e 3a3e
00000030: feb4 f33c b7a0 833c 3cfe c6bd 7c04 66bb
00000040: 6afd 5d3d 4450 553b bc29 bebd 764a b2bd
00000050: d997 0fbd f085 b33a 2691 a53d 7008 893d
00000060: 73c0 973c 69b2 5abb 6707 47bd 8dca 6bbd
00000070: edaa 78bd c7ee 363d 6763 e3bc e18f 803d
00000080: 35d8 663d 6716 05bd 1fae 9d3d ba28 9b3b
00000090: 9138 103d fef9 643d d2ca 21bd 1630 60bc
000000a0: 989a 043e 5bdf fa3e b760 0b3e 5b88 853e
000000b0: 4e29 003e 1466 453e 1f9e 413e 08e7 9b3e
000000c0: d64e 113e db19 ff3d 98f6 073d c95e 1abd
000000d0: 4cd8 8ebd 1139 d7bc 8e1a 5b3d 2e77 a6bc
000000e0: 7741 633c 33b8 70bd cd3a 37bb 54ac 213c
000000f0: 9d67 85ba 7e5f d23d 5e40 29bd 2435 d03d
00000100: c5c1 a13d ff92 ccbb 0f11 2a3d fd08 f03d
00000110: 831e 7abc c6cb c43d e6e7 403e 569d f03c
00000120: 2be7 173e e4c9 533d 5485 043e eb28 cc3d
00000130: 1ca7 ca3d 49ce 043e 4aef 2a3d 3f78 b53d
00000140: abef 813d d0bd 8c3e ca2e f13c 16f3 883c
00000150: 4280 54bb 1a14 d23d dd0a a83d 4034 963b
00000160: e6aa d63d 5d77 65bd fe51 6cbd 69ec 4ebd
00000170: a101 91bd cf3a 4b3d 6242 403d b98e e03c
00000180: 920f 34bd c6e0 bc3c b39f b63c a273 e0bc
00000190: d113 a73d 3d9f 023d 02c5 403d d43d a03d
000001a0: e38c 973d 1b61 37bc c7f0 683d fe53 8039
000001b0: 9638 6ebb 13a9 0c3c c14b 1f3c de54 0e3e
000001c0: 0411 253d 268d 76bc 2ccf 903b 26d8 443d
000001d0: 17cd 0fbd 59bf 9bbd 3cc2 4d3d c642 1abb
000001e0: 8021 2fbd 7b98 6d3c 6884 80bd 466c 593d
000001f0: b8f1 49bd 589b e83c b8c0 c1bd d33b 9b3d
00000200: 7ebd 84bd 6296 38bd 7b43 6e3d 1415 0bbd
00000210: bcbd 96bd 1687 043d b9fb 8c3c 9d1d 633b
00000220: 0b6a 833d 775d cebd af2d 7b3c 129f 853d
00000230: 4d42 4ebd c0f9 cbbd 96df 983d a24c 653d
00000240: 5b4f 48bd 01c1 7d3d 10a9 44bd fde7 96bd
00000250: 77c7 8f3c 5566 a6bd e25a 473c 2c0f 43ba
00000260: dc94 9d3b 4bf9 c7bc 223d ea3d efe6 48bd
00000270: 214f c03c 1c1d 913d 09b6 5a3d 604a 1abd
00000280: 753c 763d 61e6 49bd ab10 a83c db94 6e3d
00000290: 6281 a33d b8c9 2fbd fc73 1bbd 0846 403d
000002a0: a84a 973c fffb 8b3d d20b ef3c 50f1 6a3d
000002b0: 4615 cd3d 9fcf 8abb bb59 793d 1632 90bc
000002c0: 22c9 463d b934 b0bb e4ee 4dbc 5cb5 823d
000002d0: d9a2 953d efd5 c63e ec0c 033e 93b8 103e
000002e0: 8eee d13d b670 fb3d ef3f ad3d 38b3 263d
000002f0: a7e1 133e 7461 f33b ff69 2f3d fd53 103e
00000300: 43a5 4d3d b0b2 51bd ccc6 41bd 8375 323c
00000310: 0fe5 86bc f201 cd3c 32d4 31bc cde7 84bc
00000320: 37a5 843c e7e9 24bc ffe6 713d 8cce 9d3d
00000330: 2dc6 b4bc 00ca 183c 1f07 27bd 5413 8c3c
00000340: cfd3 8a3d 49f7 97bd 794e 973c 6450 a93d
00000350: 11e9 693d 0190 223d 8d1a db3d b647 18bd
00000360: 5c6f a33d d591 a43d 0458 ccbc 2fcc 7cbd
00000370: 7631 e63d 6aa6 dd3e 1388 cabc 6333 3cbb
00000380: ff68 cd3d 00d0 893b d7d7 92bc 6a98 c23d
00000390: d55e 0a3e 7722 31bc 77ea 1f3b 491f 013c
000003a0: 6dd6 a5bc f07c f33c 5b6b 223d 9df7 46bc
000003b0: b421 72bc a9a7 4dbd a38b 04bc 336d 0a3d
000003c0: 7825 f8bc a435 953e d804 e03c 7872 9a3d
000003d0: a41b a1bc 8200 adbc 0782 65bd ba32 3dbd
000003e0: e9d3 7a3d 145c 99bb f52e e33d 0e1f 9abd
000003f0: 2f89 b73d 6ff6 f03c f938 ec3d de71 06bd

lstm.weight_hh_l0 f4 [600, 150]
-0.06951716 0.038534448 0.08422838 0.0018787337 -0.037417065 0.06749658 0.055563904 -0.021242311
0.020277798 -0.055208154 -0.035207223 0.014813197 0.04570519 -0.0634346 0.06284097 0.014273921
-0.09456706 0.013365661 -0.044213127 -0.030953584 -0.037179872 -0.0038006178 0.007402346 0.009977868
-0.03589492 -0.042014427 0.01781061 0.016131485 -0.08076005 -0.017068567 0.027004104 0.01772854
-0.073688984 0.012190168 -0.049026705 -0.027047792 -0.04326017 -0.07012741 0.037497174 -0.062116746
-0.011456886 -0.07690716 0.008129174 0.038844325 0.011070688 0.071118556 -0.013694873 -0.052049894
-0.07309269 0.063260935 -0.00032904415 -0.04173426 -0.03290027 0.04025205 0.02770108 0.048418578
-0.07906213 -0.00740681 -0.060094707 0.068852514 -0.0065496084 -0.07072633 0.027762823 -0.0018061597
0.10075451 -0.034455914 0.020751521 0.047567848 0.05878395 -0.009389568 0.10848025 -0.01842752
0.064713925 0.097171 -0.059535686 0.047734533 0.05945391 0.060147576 0.03341217 -0.053967267
-0.010500008 -0.011810559 0.08545801 0.02405555 0.009984367 -0.050283525 0.096090965 -0.042070888
0.04812049 -0.056820747 0.09049744 -0.051611263 -0.011556709 -0.006153988 0.030753307 -0.006550088
0.08047356 -0.05467307 0.07096643 0.04684908 0.12860559 0.051927183 -0.006076927 0.0139997015
0.044476625 -0.012293577 0.031581257 0.028022083 -0.03946917 0.0056319507 -0.010785454 -0.019049045
-0.028214151 -0.0008932076 -0.027113082 -0.060149547 0.011211812 0.055567477 0.059901524 0.03472577
-0.03643384 -0.02383681 -0.028310176 0.05391916 0.062704764 0.037457146 0.03279485 0.019020855
0.05527562 0.035901643 -0.023281578 0.0725038 -0.018100707 0.039252162 -0.049976084 -0.009876053
0.037742175 0.016384894 0.03637458 0.09305522 0.002070183 -0.05333737 0.021035267 -0.061611254
-0.02088215 -0.07861828 0.07256319 0.05671423 -0.05082071 -0.069924265 0.035954945 0.071401834
-0.02381572 0.06687057 -0.03821889 -0.028282266 -0.050626397 -0.052368876 -0.009126224 -0.04884706
-0.007896504 -0.044909265 0.041366387 0.048688345 0.02382052 -0.049474087 -0.039877385 -0.055868763
0.08036884 0.09184574 -0.051513277 0.07753737 -0.000901711 0.008815543 0.04712286 0.069585286
0.007009579 0.06750176 0.00011530627 -0.052514665 0.018372886 0.08460327 0.002747411 -0.009487673
-0.04144005 0.07724788 0.04432604 -0.04514796 -0.0239341 -0.037214693 -0.02431898 0.030354837
-0.07653406 -0.06113121 0.01658835 -0.045174133 -0.043285824 0.016275449 -0.06629641 -0.03842991
-0.018518038 -0.051227447 0.024528991 -0.054550525 -0.016982373 0.0017285609 -0.006504402 0.06019403
-0.05375198 0.011534918 0.04593989 0.06556971 0.078906976 -0.012216827 -0.064620025 -0.038502373
-0.037329406 0.06878574 -0.07413602 0.05397501 -0.03836656 0.03651234 0.003230971 -0.012310324
0.027953077 -0.039327096 0.08888026 0.07662183 -0.041078664 0.06782983 0.022742098 -0.07634432
-0.06659116 0.022103239 -0.049580254 -0.07183444 -0.00053643907 -0.039353043 -0.026244992 -0.01739014
-0.049147874 0.05843213 -0.012087045 0.04464131 0.07647044 0.06543602 -0.08062288 0.05108441
0.06507984 0.09877846 -0.06764127 0.055837113 -0.067687854 -0.0039812857 0.0533833 0.01702639
00000000: 035f 8ebd 4cd6 1d3d ee7f ac3d d83f f63a
00000010: a342 19bd a63b 8a3d fa96 633d 5b04 aebc
00000020: a01d a63c f221 62bd 7335 10bd 0db3 723c
00000030: 5e35 3b3d 00ea 81bd c4b2 803d 2add 693c
00000040: 60ac c1bd a5fb 5a3c d318 35bd 5f92 fdbc
00000050: ec49 18bd c913 79bb 618f f23b 367a 233c
00000060: 8d06 13bd 5217 2cbd 8ee7 913c 2d26 843c
00000070: 8665 a5bd 61d3 8bbc b637 dd3c 713b 913c
00000080: 40ea 96bd 45b9 473c 3ad0 48bd 5593 ddbc
00000090: 9331 31bd f69e 8fbd a396 193d 216e 7ebd
000000a0: aab5 3bbc 8081 9dbd 3a30 053c 3a1b 1f3d
000000b0: d561 353c 9ba6 913d 7660 60bc 4532 55bd
000000c0: 9fb1 95bd f38e 813d 8f83 acb9 8bf1 2abd
000000d0: 6fc2 06bd 55df 243d 60ed e23c 8f52 463d
000000e0: 53eb a1bd d3b4 f2bb de25 76bd 8c02 8d3d
000000f0: 199e d6bb f7d8 90bd dc6e e33c aabc ecba
00000100: 6158 ce3d a521 0dbd 18ff a93c 81d6 423d
00000110: 70c7 703d b4d6 19bc e52a de3d 4ff5 96bc
00000120: bc88 843d 9701 c73d b1db 73bd 4985 433d
00000130: f185 733d 4e5d 763d 33db 083d c80c 5dbd
00000140: 3a08 2cbc 1381 41bc 9c04 af3d 2510 c53c
00000150: 7895 233c 19f6 4dbd 57cb c43d 8652 2cbd
00000160: fe19 453d dfbc 68bd b956 b93d 5566 53bd
00000170: 5a58 3dbc 65a7 c9bb 5cee fb3c 1fa2 d6bb
00000180: 52cf a43d def0 5fbd d956 913d d2e4 3f3d
00000190: 2fb1 033e 99b1 543d f520 c7bb 015f 653c
000001a0: 1f2d 363d 006b 49bc 595b 013d 918e e53c
000001b0: 6daa 21bd 3a8c b83b 79b5 30bc be0c 9cbc
000001c0: 5d21 e7bc 2626 6aba 411c debc 5f5f 76bd
000001d0: bfb1 373c b99a 633d 4d5b 753d 9c3c 0e3d
000001e0: a63b 15bd 6a45 c3bc beea e7bc 56da 5c3d
000001f0: 5b6b 803d aa6c 193d e553 063d a0d1 9b3c
00000200: b068 623d 9a0d 133d 02b9 bebc df7c 943d
00000210: ef47 94bc e0c6 203d b9b3 4cbd 2bcf 21bc
00000220: 8a97 1a3d 9d39 863c 83fd 143d bc93 be3d
00000230: e8ab 073b 4978 5abd 2752 ac3c 155c 7cbd
00000240: 0b11 abbc 9f02 a1bd 029c 943d 2e4d 683d
00000250: 6029 50bd 7434 8fbd 7e45 133d 203b 923d
00000260: 2f19 c3bc 70f3 883d 698b 1cbd 36b0 e7bc
00000270: a05d 4fbd bf80 56bd 2886 15bc db13 48bd
00000280: 5760 01bc c7f2 37bd cd6f 293d 6e6d 473d
00000290: 4023 c33c 57a5 4abd 7856 23bd a5d6 64bd
000002a0: 6b98 a43d 9f19 bc3d 96ff 52bd eacb 9e3d
000002b0: cd60 6cba 116f 103c e603 413d bb82 8e3d
000002c0: 9cb0 e53b 5d3e 8a3d 95d0 f138 9e19 57bd
000002d0: bc82 963c 7b44 ad3d e80d 343b 2f72 1bbc
000002e0: 0bbd 29bd 2334 9e3d 398f 353d 11ed 38bd
000002f0: 7211 c4bc 6f6e 18bd 9938 c7bc b5aa f83c
00000300: e4bd 9cbd b864 7abd 4be4 873c 8308 39bd
00000310: 7a4c 31bd 1754 853c 6ac6 87bd ae68 1dbd
00000320: 24b3 97bc dfd3 51bd 06f1 c83c 5f70 5fbd
00000330: 9e1e 8bbc e190 e23a e122 d5bb 048e 763d
00000340: 092b 5cbd f4fc 3c3c 772b 3c3d 6a49 863d
00000350: fb99 a13d 1629 48bc 8157 84bd aab4 1dbd
00000360: b8e6 18bd 8adf 8c3d a0d4 97bd e614 5d3d
00000370: 4126 1dbd f78d 153d b3be 533b 3eb1 49bc
00000380: dafd e43c 7315 21bd db06 b63d e8eb 9c3d
00000390: 1a42 28bd 5eea 8a3d a34d ba3c 695a 9cbd
000003a0: f260 88bd da11 b53c aa14 4bbd ef1d 93bd
000003b0: d19f 0cba a830 21bd bdff d6bc c475 8ebc
000003c0: 484f 49bd 8756 6f3d be08 46bc ced9 363d
000003d0: 899c 9c3d 5203 863d 9c1d a5bd e33d 513d
000003e0: 9448 853d 5c4c ca3d 8287 8abd 75b5 643d
000003f0: ee9f 8abd 7275 82bb 72a8 5a3d ee7a 8b3c

lstm.bias_ih_l0 f4 [600]
-0.08657955 -0.063316956 0.029276967 0.062992334 0.3327101 0.052675724 0.06595286 0.026105564
0.01349985 -0.0127528235 -0.009396402 0.055607423 -0.0782541 -0.035602305 0.014667549 -0.056027185
-0.031268355 -0.007847407 0.024246005 0.05745485 -0.036849357 0.053650316 0.10380725 0.052488197
0.063437626 -0.002255592 0.04661707 -0.0009912183 0.0021555847 -0.019482698 0.056400277 0.097771734
0.06747106 0.079508536 0.07525547 0.06814796 0.043770272 -0.04922908 -0.032572623 0.08790672
0.053051297 -0.050480414 0.018136442 0.05458685 0.0042838124 0.00083051214 0.08158225 0.086282596
-0.022099629 -0.013717613 -0.059553232 0.009941566 -0.06428835 0.009316729 0.06170121 0.082927026
0.06382702 -0.0247541 0.08483744 0.0007583457 -0.020541415 -0.054563 -0.090480536 -0.03539177
-0.049126897 0.011805413 -0.03576051 0.0010207054 0.04240799 -0.030900778 0.0005017078 -0.010486942
0.026922176 0.017242659 0.021879295 -0.044098925 -0.021972205 0.086530566 0.070526995 0.02021338
0.063746 0.3002692 -0.057875846 0.0123499455 0.026161252 0.057947792 -0.08610233 0.05955878
-0.00369464 -0.027046446 -0.060391344 0.09661682 -0.03394788 -0.031907335 0.066316485 0.030864907
0.024579236 0.074397415 0.07013426 0.04201909 0.115766354 -0.02188438 -0.02390093 0.032938622
-0.023331301 -0.06646491 -0.0077021765 0.12530471 0.05644793 -0.051584017 0.074235685 0.11691934
-0.039549395 -0.033976413 0.08497544 -0.062167365 0.03542207 0.0006323644 -0.06725995 -0.01895854
-0.049229592 -0.052614573 0.054238014 -0.019812511 0.089705445 -0.013942709 -0.043491982 0.048783656
0.042852823 0.049820736 -0.06514589 0.06410564 0.0021452173 0.030023098 -0.014014316 0.08612205
0.054546528 -0.04166216 -0.008112289 0.03775923 -0.027198574 0.07378093 0.010746815 -0.047413554
-0.03226548 0.0689864 -0.033717718 0.07161971 0.05554076 0.022278454 0.04946197 -0.03601318
0.07064889 0.045427628 -0.20603776 0.00746101 0.057199445 0.047305994 -0.0004449672 0.04935815
0.031202096 -0.0023491979 -0.008641801 0.06087992 0.047960922 0.028745616 -0.052472826 -0.06978644
-0.04827632 0.027160726 0.068670474 0.008044424 -0.041321203 -0.048071478 -0.06737029 0.029105615
-0.07644962 -0.008838539 -0.008582903 0.05078083 -0.08494021 0.06376376 0.05062978 -0.034360483
-0.006554172 0.046494324 0.014036258 0.010281939 -0.00033752905 0.04969498 0.07252534 0.025461143
0.06132316 0.024521286 -0.09549661 -0.026489269 -0.07691583 -0.06183991 -0.037874978 -0.06403558
-0.080117196 0.067738734 -0.01779471 0.06478143 0.03229694 0.06845368 -0.0023884422 0.010084775
-0.027228085 0.050777573 0.08211849 -0.058462225 0.060341462 0.051920343 0.05325524 -0.06893847
0.015819013 -0.007343185 0.031021148 0.030153483 0.07242794 -0.077888995 0.034914378 -0.0066122278
-0.022374153 -0.027948244 -0.031072503 -0.08033319 0.04878294 -0.01705595 -0.04938182 -0.072298765
-0.023888512 -0.078307584 -0.00018283699 -0.050822653 0.04642823 -0.027379 -0.030312045 0.079417035
-0.051954333 0.042197883 0.057811916 0.064079694 0.0367602 -0.052723162 0.041701846 0.0820101
-0.03756176 -0.06022041 -0.06728495 -0.011294486 0.048118297 0.05276995 -0.07428159 -0.008734012
00000000: 9e50 b1bd 52ac 81bd 40d6 ef3c 2002 813d
00000010: fa58 aa3e 80c2 573d 4b12 873d 56db d53c
00000020: 7a2e 5d3c 38f1 50bc 5ef3 19bc 9cc4 633d
00000030: b043 a0bd b9d3 11bd 2950 703c c37c 65bd
00000040: 3f13 00bd 6992 00bc 8f9f c63c c755 6b3d
00000050: 5aef 16bd 6fc0 5b3d e598 d43d ddfd 563d
00000060: 96eb 813d 8ed2 13bb 8af1 3e3d c4eb 81ba
00000070: b644 0d3b 2e9a 9fbc fa03 673d 8c3c c83d
00000080: 442e 8a3d 5fd5 a23d 8a1f 9a3d 2891 8b3d
00000090: 7548 333d 6fa4 49bd df6a 05bd 7008 b43d
000000a0: 514c 593d 8dc4 4ebd e092 943c 7696 5f3d
000000b0: 395f 8c3b bab6 593a 9814 a73d eeb4 b03d
000000c0: 480a b5bc d7bf 60bc 17ee 73bd f3e1 223c
000000d0: 9ca9 83bd 32a5 183c 68ba 7c3d a5d5 a93d
000000e0: beb7 823d 1cc9 cabc 40bf ad3d b8cb 463a
000000f0: 7846 a8bc 747d 5fbd dc4d b9bd f6f6 10bd
00000100: 4939 49bd 7e6b 413c 9d79 12bd 31c9 853a
00000110: 00b4 2d3d a123 fdbc 0a85 033a 6cd1 2bbc
00000120: e58b dc3c 7a40 8d3c 353c b33c 13a1 34bd
00000130: 0eff b3bc f036 b13d 7570 903d 8896 a53c
00000140: 438d 823d e2bc 993e 390f 6dbd 6d57 4a3c
00000150: 1f50 d63c aa5a 6d3d 6b56 b0bd e8f3 733d
00000160: c621 72bb 8290 ddbc ea5c 77bd 0adf c53d
00000170: ef0c 0bbd 44b1 02bd f0d0 873d 67d8 fc3c
00000180: 655a c93c ac5d 983d 8da2 8f3d 361c 2c3d
00000190: e916 ed3d df46 b3bc e2cb c3bc a6ea 063d
000001a0: 4921 bfbc c11e 88bd 8a62 fcbb e14f 003e
000001b0: f235 673d c349 53bd e108 983d 6873 ef3d
000001c0: 8cfe 21bd da2a 0bbd 9a07 ae3d 35a3 7ebd
000001d0: bc16 113d 42c5 253a 96bf 89bd f14e 9bbc
000001e0: f8a4 49bd 6182 57bd ae28 5e3d d94d a2bc
000001f0: 7db7 b73d f66f 64bc a624 32bd 5fd1 473d
00000200: 7186 2f3d d410 4c3d 356b 85bd d149 833d
00000210: c696 0c3b 00f3 f53c 4d9c 65bc c260 b03d
00000220: 2e6c 5f3d f1a5 2abd 68e9 04bc 6ca9 1a3d
00000230: 8bcf debc 751a 973d 6913 303c b734 42bd
00000240: cf28 04bd be48 8d3d 971b 0abd 5bad 923d
00000250: b57e 633d 4e81 b63c a298 4a3d 8e82 13bd
00000260: 5eb0 903d 5212 3a3d 90fb 52be 7d7b f43b
00000270: f749 6a3d eec3 413d 7d4a e9b9 c62b 4a3d
00000280: 8a9b ff3c 00f5 19bb 5796 0dbc 395d 793d
00000290: ac72 443d ed7b eb3c bfed 56bd 31ec 8ebd
000002a0: 64bd 45bd 2c80 de3c 1ba3 8c3d c2cc 033c
000002b0: 6c40 29bd 99e6 44bd 6ff9 89bd e66e ee3c
000002c0: 9e91 9cbd 85cf 10bc 4e9f 0cbc 8fff 4f3d
000002d0: 22f5 adbd 9396 823d 2c61 4f3d 94bd 0cbd
000002e0: 61c4 d6bb d570 3e3d 55f8 653c 9475 283c
000002f0: 62f6 b0b9 f78c 4b3d 2a88 943d e393 d03c
00000300: fe2d 7b3d dde0 c83c ba93 c3bd 0600 d9bc
00000310: 0c86 9dbd d84b 7dbd cb22 1bbd 1625 83bd
00000320: 7c14 a4bd 9bba 8a3d 36c6 91bc 20ac 843d
00000330: cc49 043d 7131 8c3d 6987 1cbb 9d3a 253c
00000340: 6f0d dfbc 25fc 4f3d bd2d a83d 1676 6fbd
00000350: 9c28 773d 6daa 543d 2b22 5a3d 9d2f 8dbd
00000360: e096 813c 1a9f f0bb 1020 fe3c 7004 f73c
00000370: 1a55 943d 4484 9fbd 6102 0f3d 63ab d8bb
00000380: 004a b7bc b7f3 e4bc c38b febc ba85 a4bd
00000390: 9fd0 473d ebb8 8bbc 9744 4abd 6011 94bd
000003a0: d7b1 c3bc ba5f a0bd eeb7 3fb9 6a2b 50bd
000003b0: 872b 3e3d ed49 e0bc f750 f8bc 66a5 a23d
000003c0: 11ce 54bd b0d7 2c3d 30cc 6c3d 373c 833d
000003d0: dd91 163d 3ef4 57bd 8ecf 2a3d e9f4 a73d
000003e0: 5cda 19bd ada9 76bd b1cc 89bd 820c 39bc
000003f0: b117 453d 4e25 583d f220 98bd 1a19 0fbc

lstm.bias_hh_l0 f4 [600]
0.020560939 0.06415797 0.069541566 -0.03893866 0.21831791 0.008699449 0.0463987 0.08837959
-0.0150634535 -0.008240394 0.10864776 0.008334875 -0.008542072 -0.05790845 -0.010453246 0.008486671
0.0043462347 -0.03531383 0.041920926 -0.005408176 0.08383877 0.015936285 0.09897209 -0.066638656
0.05395086 0.06566307 -0.035634957 -0.0345308 -0.047146097 0.051370386 -0.04177122 0.0639057
-0.0073468294 -0.063691296 0.0011936956 0.010370914 0.029990636 -0.037116963 0.006430888 -0.045582898
-0.058985736 -0.038812947 -0.04478503 -0.07885465 -0.052767184 -0.0597176 0.034026366 0.016672911
0.06201018 -0.027309623 -0.03322651 -0.08207658 0.038362965 0.03363506 0.12222373 0.033681143
-0.005892556 0.013136762 0.03430561 -0.01536267 -0.06388654 -0.05461386 -0.019343292 -0.037462223
0.04419418 -0.051660076 0.09365482 -0.014078342 -0.06668189 -0.025799787 -0.038750812 -0.039956
-0.066667736 0.0074142474 -0.007111997 0.015211311 0.06481748 0.015790435 -0.06828405 0.037002858
0.034557972 0.33126625 0.095641896 0.008494622 -0.073280565 0.0019468847 0.06416575 -0.050153203
-0.040038094 -0.022845007 -0.06305462 0.03073395 0.022091957 -0.0074922135 0.1175089 0.06291505
0.053420343 0.003024625 0.018821057 0.12647402 0.14125015 0.04824556 0.010723865 -0.102998435
0.06185408 0.019538248 0.067768924 0.013809406 0.068605624 -0.0077427444 -0.035347592 0.088719375
-0.04174249 -0.055174492 -0.06840235 -0.042759184 0.06417442 0.011869653 -0.044640407 0.048143312
-0.06364015 0.025277149 -0.09255591 0.10207515 0.046675507 -0.048341222 -0.058061898 0.026573543
-0.03725482 -0.07501341 -0.048566405 0.038289554 -0.051772166 -0.07648085 -0.014022131 0.063635916
-0.030984974 0.013348416 0.10070539 0.038889013 -0.0076536615 -0.07710665 0.023710176 -0.053907324
0.015965467 0.07021178 -0.045192912 -0.03230904 -0.03607938 -0.025795806 -0.0317081 -0.03256764
0.038172554 -0.005727866 -0.17596802 -0.105154246 -0.073772185 0.0012178079 0.04509794 0.0020970777
0.009007684 -0.0045550633 0.048701458 -0.021069199 0.031635247 -0.07900915 -0.069055125 0.0711562
-0.019620603 0.07380676 0.032343563 0.056185097 -0.050001986 0.0010743212 -0.06563272 -0.080986686
-0.003511987 -0.019980242 -0.0063635656 -0.059483472 0.011751452 0.06073575 -0.006428107 -0.025448738
-0.084293775 -0.006352325 0.03164825 0.025657613 -0.06844033 -0.021312498 0.03659232 -0.015071058
-0.05868173 -0.07292834 -0.04091671 0.036578357 0.014366656 0.039159752 0.01294992 -0.032127604
-0.038027465 0.008177519 0.006444608 0.022991013 -0.025982788 -0.06645545 -0.06018134 0.00071553857
0.038440716 0.04563981 -0.023280455 0.04131072 0.04760196 -0.024706135 -0.023076788 0.0137798255
0.05890281 -0.05788944 -0.06700853 0.00786557 -0.016567493 0.035750028 -0.07398476 -0.08626806
0.046423815 0.022338869 -0.022660432 -0.018586114 0.009671754 -0.05248718 0.022762923 -0.057682995
-0.045382865 0.039296877 0.024451539 0.017711623 0.033203945 -0.030996135 0.04216077 0.078315854
-0.058697533 0.071950294 -0.06661352 0.03540783 -0.054472912 -0.020180635 0.022891296 0.004110741
-0.038597286 -0.01947324 -0.029553207 0.026783373 -0.05133925 0.042050444 0.01628437 0.04514523
00000000: 6a6f a83c 4165 833d cf6b 8e3d 257e 1fbd
00000010: bb8e 5f3e 2288 0e3c 900c 3e3d 5c00 b53d
00000020: b4cc 76bc b802 07bc b782 de3d 008f 083c
00000030: 0cf4 0bbc 6931 6dbd 1744 2bbc ae0b 0b3c
00000040: dc6a 8e3b 3ca5 10bd 47b5 2b3d 1237 b1bb
00000050: a9b3 ab3d d08c 823c e1b1 ca3d d979 88bd
00000060: 94fb 5c3d 5c7a 863d f6f5 11bd 2b70 0dbd
00000070: 441c 41bd c169 523d 4c18 2bbd fee0 823d
00000080: acbd f0bb 9570 82bd c775 9c3a c4ea 293c
00000090: ecae f53c f507 18bd 33ba d23b 22b5 3abd
000000a0: 079b 71bd 53fa 1ebd 8270 37bd 8c7e a1bd
000000b0: 6722 58bd 719a 74bd 3b5f 0b3d a195 883c
000000c0: 63fe 7d3d 6eb8 dfbc 8518 08bd c417 a8bd
000000d0: 7c22 1d3d ebc4 093d 6f50 fa3d 3df5 093d
000000e0: 5816 c1bb 933b 573c 0a84 0c3d b5b3 7bbc
000000f0: f2d6 82bd c8b2 5fbd d375 9ebc fd71 19bd
00000100: f504 353d 8499 53bd 19ce bf3d d9a8 66bc
00000110: 8490 88bd 135a d3bc 2cb9 1ebd e7a8 23bd
00000120: 1889 88bd 37f3 f23b c10b e9bb dd38 793c
00000130: 07bf 843d f15a 813c 82d8 8bbd 4f90 173d
00000140: a98c 0d3d bb9b a93e e6df c33d 072d 0b3c
00000150: 1f14 96bd 9c2e ff3a 5569 833d 726d 4dbd
00000160: fcfe 23bd 7425 bbbc c822 81bd c4c5 fb3c
00000170: 31fa b43c 3e81 f5bb 82a8 f03d 9bd9 803d
00000180: 4acf 5a3d c938 463b 9e2e 9a3c 6882 013e
00000190: e1a3 103e 239d 453d 26b3 2f3c d8f0 d2bd
000001a0: b45a 7d3d ad0e a03c 6fca 8a3d d940 623c
000001b0: 1b81 8c3d d9b6 fdbb a3c8 10bd 81b2 b53d
000001c0: 2cfa 2abd a6fe 61bd 8816 8cbd 4124 2fbd
000001d0: e16d 833d ef78 423c dcd8 36bd ec31 453d
000001e0: c455 82bd 0612 cf3c f48d bdbd c70c d13d
000001f0: d12e 3f3d 7201 46bd 50d2 6dbd c2b0 d93c
00000200: 8398 18bd a1a0 99bd 91ed 46bd 82d5 1c3d
00000210: 0d0f 54bd fea1 9cbd 15bd 65bc 8c53 823d
00000220: 33d4 fdbc 51b3 5a3c a13e ce3d 164a 1f3d
00000230: 91cb fabb 17ea 9dbd d83b c23c edcd 5cbd
00000240: 03ca 823c 32cb 8f3d 341c 39bd 7c56 04bd
00000250: f9c7 13bd ba51 d3bc 5ae0 01bd a565 05bd
00000260: d35a 1c3d d3b0 bbbb f630 34be 1c5b d7bd
00000270: df15 97bd da9e 9f3a 9eb8 383d 206f 093b
00000280: f794 133c a442 95bb 2e7b 473d 5099 acbc
00000290: f693 013d 8dcf a1bd c66c 8dbd 57ba 913d
000002a0: 63bb a0bc 0028 973d af7a 043d 5822 663d
000002b0: e2ce 4cbd 3dd0 8c3a 736a 86bd 59dc a5bd
000002c0: 5d29 66bb 9bad a3bc 7585 d0bb f1a4 73bd
000002d0: 2a89 403c 0dc6 783d dfa2 d2bb df79 d0bc
000002e0: 37a2 acbd 2a27 d0bb 98a1 013d ea2f d23c
000002f0: 722a 8cbd 8c97 aebc d4e1 153d 99ec 76bc
00000300: 415c 70bd 745b 95bd 4898 27bd 30d3 153d
00000310: 1f62 6b3c fa65 203d e72b 543c 3c98 03bd
00000320: b0c2 1bbd 00fb 053c 4a2d d33b a657 bc3c
00000330: dbd9 d4bc cc19 88bd b580 76bd fb92 3b3a
00000340: 0374 1d3d cff0 3a3d a7b6 bebc 6e35 293d
00000350: 46fa 423d 8564 cabc 880b bdbc c7c4 613c
00000360: 1344 713d 7a1d 6dbd c53b 89bd 97de 003c
00000370: 8db8 87bc 9f6e 123d 5285 97bd 4fad b0bd
00000380: e626 3e3d 0100 b73c 5fa2 b9bc e841 98bc
00000390: 4776 1e3c ccfc 56bd 4f79 ba3c 0145 6cbd
000003a0: 62e3 39bd c3f5 203d 984e c83c f717 913c
000003b0: dc00 083d 9beb fdbc c6b0 2c3d 1064 a03d
000003c0: d36c 70bd ad5a 933d ab6c 88bd cd07 113d
000003d0: fd1e 5fbd dc51 a5bc 8786 bb3c 65b3 863b
000003e0: 3018 1ebd 5886 9fbc 9119 f2bc ce68 db3c
000003f0: 1b49 52bd 163d 2c3d cd66 853c 34ea 383d

linear.weight f4 [1, 150]
0.0056633493 -0.06784891 -0.07339268 0.01421941 -0.14717743 -0.0073021012 0.04728561 -0.053164512
-0.038987 -0.036304917 -0.0753218 -0.032038063 0.010044931 0.009250877 -0.032041073 0.025746796
0.059353758 0.03259664 -0.113714196 -0.09337011 -0.050854348 -0.06721043 0.16358024 -0.037045013
0.047934975 0.057205115 0.04849048 -0.018146446 0.037468884 0.06286347 -0.017544754 -0.020305775
0.027743056 0.05475795 -0.033614177 -0.056078635 0.06952295 -0.0038236799 -0.055242233 0.023065351
0.08929276 0.07142021 0.06859285 0.038187623 0.008969164 0.025762927 -0.061066635 0.10507335
0.08063129 0.037460636 -0.0274213 0.04560015 -0.046725973 -0.03329528 0.10753843 -0.07418086
0.07141514 -0.084874064 0.08676738 0.02341596 0.0709249 -0.020639556 -0.0056766975 0.052195564
-0.07127348 -0.0014632555 -0.10369077 0.07744531 -0.0343814 -0.046770643 -0.09566674 -0.069502115
0.040260274 0.0066664396 -0.015716128 -0.04502997 -0.056189086 -0.02657826 -0.03505853 -0.030085377
0.06944727 -0.19117191 -0.087970525 -0.006203167 0.007199101 0.054333176 -0.03359228 -0.058020666
0.012701452 -0.025693938 0.04045529 -0.054967646 0.06680875 0.057825316 -0.11683537 -0.015581203
-0.03732132 -0.05823454 -0.0731296 -0.127462 0.14630184 -0.04622834 0.053131763 0.03039291
-0.08698542 -0.039134275 -0.024246993 0.050344627 0.07331259 0.044110876 -0.051603273 -0.09656025
0.08422051 0.089672476 0.05400447 -0.01786477 -0.0037699302 0.062275518 -0.06358853 -0.09632788
-0.022802804 0.022466261 0.04722261 -0.041310735 -0.03109676 -0.07169845 0.082945034 0.061681207
-0.061102763 -0.01650535 -0.01235762 -0.09811236 -0.04268507 -0.0067720534 -0.07964009 0.0883262
-0.026027393 0.02581602 0.07112441 -0.035764046 0.07741903 0.046082456 0.06899644 0.07289618
0.076403044 0.04763333 -0.047440253 0.011343239 -0.094563484 -0.034379363
00000000: 9e93 b93b 5ff4 8abd e74e 96bd 87f8 683c
00000010: aeb5 16be 7746 efbb 8eae 413d 08c3 59bd
00000020: d5b0 1fbd 77b4 14bd 5142 9abd 583a 03bd
00000030: 7f93 243c fe90 173c 803d 03bd f2ea d23c
00000040: ed1c 733d 0e84 053d fde2 e8bd d438 bfbd
00000050: a64c 50bd 9fa5 89bd 9481 273e 83bc 17bd
00000060: 7757 443d e94f 6a3d f49d 463d dba7 94bc
00000070: f978 193d 90be 803d 04ba 8fbc 4c58 a6bc
00000080: 6845 e33c df49 603d 05af 09bd b6b2 65bd
00000090: 0c62 8e3d b496 7abb ae45 62bd 8cf3 bc3c
000000a0: 1fdf b63d c244 923d 687a 8c3d a06a 1c3d
000000b0: 67f3 123c c60c d33c 0221 7abd b230 d73d
000000c0: 0522 a53d 5370 193d a2a2 e0bc 39c7 3a3d
000000d0: bc63 3fbd a260 08bd 1c3d dc3d 22ec 97bd
000000e0: 1a42 923d 74d2 adbd 19b3 b13d d4d2 bf3c
000000f0: 1341 913d 4914 a9bc 9703 babb 04cb 553d
00000100: d5f7 91bd b5ca bfba d45b d4bd a69b 9e3d
00000110: 83d3 0cbd 9392 3fbd ecec c3bd 2057 8ebd
00000120: f5e7 243d 2672 da3b 1cbf 80bc 5971 38bd
00000130: 8726 66bd a7ba d9bc 8899 0fbd 9c75 f6bc
00000140: 5f3a 8e3d 92c2 43be e429 b4bd f043 cbbb
00000150: 70e6 eb3b 778c 5e3d 0f98 09bd 14a7 6dbd
00000160: c019 503c 187c d2bc 72b4 253d c125 61bd
00000170: 07d3 883d 3dda 6c3d 6247 efbd 4d48 7fbc
00000180: 3ede 18bd 5787 6ebd f9c4 95bd 6685 02be
00000190: 26d0 153e ee59 3dbd b1a0 593d 8dfa f83c
000001a0: 6925 b2bd 434b 20bd a1a1 c6bc 2b36 4e3d
000001b0: e924 963d 9bad 343d f45d 53bd 61c1 c5bd
000001c0: ce7b ac3d 34a6 b73d cb33 5d3d 2359 92bc
000001d0: ef10 77bb 9d14 7f3d b43a 82bd 8d47 c5bd
000001e0: f2cc babc 2a0b b83c 7f6c 413d 7235 29bd
000001f0: a2be febc a3d6 92bd 16df a93d 6fa5 7c3d
00000200: e446 7abd 3a36 87bc 9d77 4abc 22ef c8bd
00000210: 8ad6 2ebd 1ae8 ddbb 581a a3bd 5ee4 b43d
00000220: 6637 d5bc 1e7c d33c ada9 913d 527d 12bd
00000230: de8d 9e3d f5c0 3c3d 014e 8d3d 984a 953d
00000240: 3379 9c3d 2b1b 433d b650 42bd fed8 393c
00000250: 80aa c1bd 60d1 0cbd
